models/ncf_best.pt (torch, 113873 bytes, 11 tensors)

user_embedding.weight f4 [430, 32]
000000 c9 bb 2a be ca b8 49 3f b2 02 0b bf 45 78 aa 3f
       -0.16673197 0.7879759 -0.5430099 1.3317953
000010 cc 22 bb 3f 2d 00 c4 3e be a4 7d 3f 04 49 e3 3e
       1.4619994 0.38281384 0.990795 0.44391644
000020 42 34 80 be 6f ed 62 3f e6 56 d8 be b8 f9 35 bf
       -0.2503987 0.88643545 -0.42253798 -0.71084166
000030 d1 eb 5c be 03 4e 05 be 37 e2 ab 3f ef ef e3 bf
       -0.21574332 -0.1301804 1.342841 -1.7807597
000040 76 95 97 be 3e 97 2f 3f 1b 33 c3 3e 3e 44 f9 3e
       -0.29606217 0.6859015 0.38124928 0.48684877
000050 6e 3f 45 3f 80 f7 7e be 1c 71 70 bf 67 2a 93 bd
       0.7704991 -0.24899101 -0.9392259 -0.07185822
000060 4b 58 6e bf fb 77 50 bf 57 ea a1 bf 3b 93 97 3f
       -0.93103474 -0.81433076 -1.264964 1.1841806
000070 e8 69 58 3f 4f 18 48 bf 8f f8 a2 be 9b 13 8b 3f
       0.845366 -0.7816209 -0.3183026 1.0865358
000080 cb 08 69 3f e1 b9 f9 3e 26 4e e2 3d 66 8b a7 be
       0.9102904 0.48774627 0.11050062 -0.3272354
000090 9e cc a9 bf 5c a7 38 bf a3 a1 21 3e 8d 57 cc bf
       -1.3265569 -0.7213037 0.15784316 -1.5964218
0000a0 12 13 e1 bf 72 46 83 bf a8 e4 95 be 6d 75 de bf
       -1.7583945 -1.0255873 -0.29276013 -1.7379586
0000b0 18 67 97 3f df a9 bf bf 6b 59 08 c0 03 2e 4e 3f
       1.1828337 -1.4973716 -2.1304576 0.8053896
0000c0 84 6f 03 3e 6a 99 20 3f 87 74 b0 3f 3d 0e b0 bf
       0.12835509 0.6273409 1.3785561 -1.3754345
0000d0 9a 6d ef 3f d8 53 69 bf 7d 8b 56 3f 74 4c a6 bf
       1.8705323 -0.9114356 0.8380659 -1.2992082
0000e0 df d5 d8 be 29 a1 19 be 43 06 72 3b 05 b8 11 3f
       -0.4235067 -0.15002884 0.0036930002 0.56921417
0000f0 6a b0 6e bf 3e 27 0a 40 ac 76 02 3e 75 ab f5 3f
       -0.93237936 2.1586452 0.12740582 1.919295
000100 e7 e7 59 3f ab 8b 44 bf 2c 6b f3 bf 2f a5 78 3f
       0.8511948 -0.76775616 -1.9017081 0.9712705
000110 2f b3 ef be 82 ab 85 3f bf b3 80 bf f1 27 09 3f
       -0.46816394 1.0442965 -1.0054854 0.5357657
000120 04 9c 91 bf 8e 2c 26 bd 1c 49 93 3e 0b 97 d1 3f
       -1.1375737 -0.040569834 0.28766716 1.637422
000130 0d 67 aa bd cc ae ff 3a f4 e8 d0 3e 96 4d f9 3e
       -0.083204366 0.001950705 0.4080273 0.48692006
000140 7e 86 25 be ca f7 88 3e f0 cf 96 bf 0b 16 82 3f
       -0.16164586 0.26751548 -1.1782207 1.0162977
000150 43 05 47 c0 63 0b 5a bf 5b 98 0e be ed 10 d9 3e
       -3.1096961 -0.85173625 -0.13925306 0.42395726
000160 04 7b ed 3f 85 9b 67 3e 56 3d 69 be 0c 82 9e bd
       1.8553166 0.2261792 -0.22777304 -0.07739648
000170 e1 48 e8 3f 39 29 32 3f d0 b8 86 3f 8f 86 cc 3f
       1.8147241 0.6959415 1.052515 1.5978564
000180 89 23 bd 3f 3f 99 4e bf 13 7f 75 be b3 85 a7 bf
       1.477647 -0.80702585 -0.23974256 -1.3087677
000190 8b 1d e8 3e 9a 69 8c bd fd 35 3a be 4a 5b 0e 3f
       0.4533504 -0.068560794 -0.18184657 0.55608046
0001a0 e0 63 e3 be 78 3c 7c 3f 2c 48 fd 3e 98 43 83 bf
       -0.44412136 0.9852977 0.49469125 -1.0255003
0001b0 0a 93 2e bf 75 77 61 3e b8 e2 0a 40 1a d2 75 bf
       -0.68193114 0.22018225 2.1700878 -0.96023715
0001c0 3d 8a 1f bf 47 ca e4 bf 04 9e b7 3e 55 97 c5 bf
       -0.6232031 -1.787423 0.35862744 -1.5436808
0001d0 ff 1a bc bf ca 3c 86 3f 00 4e 8f bc e6 5e d9 3d
       -1.4695739 1.0487301 -0.017493248 0.106138036
0001e0 a0 fc f9 3f c4 f1 08 bf 4b 22 7f 3d f1 5f 12 bf
       1.953022 -0.53493905 0.062288564 -0.57177645
0001f0 ad 32 26 40 82 79 b0 be 60 56 cb be c4 57 a7 3e
       2.596843 -0.34467703 -0.39714336 0.32684147
000200 a0 34 1a bf 9a 81 90 3f 20 53 2d be 8d 55 e6 be
       -0.6023655 1.1289551 -0.16926241 -0.44987145
000210 80 af b2 bf 40 a2 c2 3f 7c f3 cb be 92 6b 97 bf
       -1.3959808 1.5205765 -0.398342 -1.1829703
000220 de 6f d8 bd 23 2b 2e 3f 09 27 0b c0 9c 76 83 bf
       -0.10568212 0.6803457 -2.1742575 -1.0270572
000230 de fb 92 be 70 24 2c bf fb ed ad bf 00 bd 35 3f
       -0.28707784 -0.672431 -1.3588251 0.70991516
000240 a8 49 04 3d c7 ac 28 3f 31 d1 02 3f cb fa 45 3f
       0.032296807 0.6588864 0.5110045 0.77335805
000250 aa 27 9a bf 46 dd 36 3f b1 b3 e7 3f 18 81 43 3f
       -1.2043355 0.71431386 1.8101712 0.76368856
000260 4b 43 91 bf 7e 5a fd bf f0 a2 75 3f c6 ed 8c 3e
       -1.1348661 -1.9793241 0.9595175 0.27525157
000270 fc f6 10 3f 19 0e 61 bf 01 46 df 3f 00 9b 5b 3d
       0.5662687 -0.87912136 1.7443238 0.053614616
000280 b2 8f c6 3e e3 4f 08 40 99 2a 08 bf 3e b8 b4 be
       0.38781506 2.129876 -0.5319 -0.35296816
000290 bd ba 36 3f 50 d7 28 bd 17 cb 32 3f db fb bb 3e
       0.7137869 -0.041220963 0.6984114 0.36715588
0002a0 fb 3e b9 3e a6 ed 16 3f f2 89 0a 3e e9 f7 89 bf
       0.36180863 0.5895637 0.13529184 -1.0778781
0002b0 1a 8e 82 3f e0 80 0c bf 76 96 6c bf 87 1d 79 bf
       1.0199616 -0.5488415 -0.92417085 -0.9731068
0002c0 d5 50 87 bf 0a 6b 24 bf f7 b5 eb bf a4 52 7f bf
       -1.0571543 -0.6422583 -1.8414906 -0.99735475
0002d0 21 94 c4 bf 32 34 a7 3f 09 45 60 3e dc ec 0c bd
       -1.5357705 1.3062804 0.21901335 -0.034405574
0002e0 58 73 ec 3e bb ab 44 3d 08 b3 e4 3b 55 d7 f9 3f
       0.4618175 0.048015337 0.00697935 1.9518839
0002f0 5c e5 15 3b 84 2f 26 bd d1 cc 0b be bc 55 f8 bc
       0.0022872305 -0.04057266 -0.1365235 -0.030314319
000300 17 c5 6b 3f 40 fd 0f bc 5a 0d 08 3f 80 25 23 bf
       0.9209761 -0.008788407 0.5314537 -0.63729095
000310 57 15 5b bf 3c 4d 3a bf 69 27 09 bf 5a 9e 25 3f
       -0.85579437 -0.727741 -0.5357576 0.6469475
000320 32 fc 30 bf 83 22 c4 3f f1 d0 36 3f 7a b5 15 c0
       -0.6913482 1.5323032 0.7141257 -2.3392015
000330 bb 0e c8 3f 38 6a fe be e7 fa df 3f a8 e6 6a be
       1.5629495 -0.49690413 1.7498444 -0.22939551
000340 d9 17 06 c0 c6 37 30 be a4 c2 b1 be bd e4 23 3f
       -2.0952055 -0.17208776 -0.34718812 0.640209
000350 79 8c 80 bf c4 6c 95 be ab 8e e5 be da da b9 bf
       -1.0042869 -0.29184544 -0.4483541 -1.4519913
000360 da 12 0d 3f 28 fb 25 3f 88 83 48 bf 80 f1 9b 3f
       0.5510689 0.6483636 -0.783257 1.2183075
000370 62 16 61 3f 7c 90 db 3e ae 01 15 3f 7e 30 8b 3f
       0.8792478 0.4288367 0.5820569 1.0874174
000380 4e 4c c3 be dc 05 da bf bb 7f 0c 40 08 ae dd be
       -0.38144153 -1.7033038 2.195296 -0.43296838
000390 7b 02 a2 bf d2 cb c2 3e 0b 1e bf 3e d3 7f 8b 3f
       -1.2657007 0.38046128 0.37327608 1.0898384
0003a0 2a 62 1f 3f f5 7a f3 3f fd 9c 15 3f 52 33 ea 3e
       0.6225916 1.9021899 0.5844267 0.4574228
0003b0 93 01 4c bf 8e b7 fa 3e e9 e8 a6 be fa a4 65 3f
       -0.796899 0.48968166 -0.3259957 0.8970486
0003c0 85 5c e4 be 23 3a c8 3b fd 4f ab bf 49 cd cb 3f
       -0.44601837 0.006110446 -1.3383785 1.5922023
0003d0 9f 02 14 3f 1d 16 1c 3e 17 bd 27 3d a8 b5 47 bf
       0.578165 0.1524281 0.040951815 -0.7801156
0003e0 6b 1b 2d 3f 59 0c 0f be 89 86 9d bf 36 5c 1d 40
       0.6761996 -0.13969554 -1.2306682 2.458753
0003f0 47 ee 53 3f 4b b3 1e c0 50 6b 52 be 7b 53 72 3f
       0.8278546 -2.4796932 -0.20548749 0.9465863

item_embedding.weight f4 [20, 32]
000000 4a 13 b1 3f da cd 51 bf 19 0a 11 c0 7c 27 bf bf
       1.3834012 -0.8195473 -2.2662413 -1.4933925
000010 8d ff 81 3e 13 a3 88 3f 7b 1f 27 3d 87 a7 5d 3f
       0.25390282 1.0674766 0.040801506 0.8658375
000020 a3 80 8a 3a a1 e5 87 3e 44 83 db bf 8f f6 c9 3e
       0.0010566901 0.2654238 -1.7149434 0.39445922
000030 b3 bd 25 3f 28 03 36 bf c9 e8 0e 40 f8 24 3b bf
       0.64742583 -0.71098566 2.232958 -0.73103285
000040 ec 70 6e be 36 fb 8d 3e dd 27 97 3d d3 b5 af 3f
       -0.23285264 0.2773072 0.0738065 1.3727363
000050 9c cb 5c bf 08 6e 91 bf bc 92 a4 3e 37 76 b3 bf
       -0.86248183 -1.1361704 0.321432 -1.4020451
000060 31 10 e5 bf ea b1 17 bf b0 ae 37 bf 22 59 c6 be
       -1.7895566 -0.5925585 -0.71750927 -0.38739878
000070 85 8e 14 3f 14 9c 4b 3f c3 4a 16 3f 6a 2f fe bf
       0.5802997 0.7953503 0.5870783 -1.985822
000080 81 94 9d 3f 0f c0 41 bf f0 6f b0 bf 24 67 ab 3f
       1.2310945 -0.75683683 -1.3784161 1.3390851
000090 7d f2 b7 3f a5 6c fd bc 44 57 24 3f 43 9b b7 bf
       1.4370877 -0.030935595 0.64195657 -1.4344257
0000a0 bd 94 45 3f 3f dc 65 3f 80 99 fa bc e1 59 b6 bf
       0.7718008 0.89789194 -0.030590773 -1.4246179
0000b0 92 e4 63 3f 08 d2 17 bf e0 f5 17 bf 65 eb 95 bf
       0.89020646 -0.5930486 -0.5935955 -1.1712462
0000c0 3f 19 7c 3f 95 9f f2 bf 70 bd 66 3f 6d e6 d1 3f
       0.9847602 -1.895495 0.9013281 1.6398445
0000d0 48 f9 a7 bd 62 b5 d1 bf bc 7b e5 3f 0d b3 84 bf
       -0.082018435 -1.6383479 1.7928386 -1.0367142
0000e0 2a 19 2a 3f 0f 79 e0 be 19 81 4b bf 6f ac 14 3f
       0.6644465 -0.4384236 -0.7949386 0.5807561
0000f0 ca 0f b4 3f 63 f2 22 bf 16 9e 5c be 16 0e c6 3f
       1.4067318 -0.636511 -0.2154468 1.5473049
000100 68 86 c6 bf 02 a4 4e 3e a6 2d 3c c0 f9 b2 ac bf
       -1.5509768 0.20179752 -2.9402862 -1.3492118
000110 50 eb 7b 3f b9 3a bb 3f 00 d4 95 bf b3 9a 05 3f
       0.98405933 1.4627296 -1.1705322 0.5218918
000120 a1 ff 1c be cc d3 b4 be 9a e5 16 bf 38 d7 ad be
       -0.1533189 -0.35317838 -0.58944094 -0.3395326
000130 ae ed eb 3e f4 52 21 bf 93 0a ab be 01 0b da 3f
       0.46079773 -0.630172 -0.33406505 1.7034608
000140 a1 d3 28 3f 67 77 bf be e9 98 ba 3e 8f fe 6f 3f
       0.6594792 -0.37395784 0.36444786 0.937478
000150 51 cf f7 bf 81 56 b6 3f a9 59 b2 bf 26 6e 8f be
       -1.9360143 1.4245149 -1.3933612 -0.28013724
000160 44 d3 c8 3e 3f 68 d7 3f 5f 01 91 3f 0d 85 a7 3f
       0.39223683 1.6828688 1.1328543 1.3087479
000170 d8 26 91 bf 4d fa cd bf 22 4d 23 3e 7b e7 42 3f
       -1.1339979 -1.6092011 0.15947393 0.7613446
000180 6b 9e 1e 3f 60 9a 89 3e 64 90 f8 be 9d 6f c1 3f
       0.61960477 0.2687559 -0.4854766 1.5112187
000190 9b 60 61 bf c5 0c 65 3f cb df d7 bd 8a 17 37 3f
       -0.88038033 0.8947261 -0.10540732 0.7152029
0001a0 bc 82 54 bf 04 73 be bc 4a 69 45 bf 8f 76 8b bb
       -0.83011985 -0.023248203 -0.77113783 -0.0042560766
0001b0 8d c4 fc 3d 84 41 bc be 3f f2 33 bf 99 89 e4 3e
       0.123421766 -0.36768734 -0.70291513 0.4463623
0001c0 fc ea 85 bf 54 43 76 3f ce 6a 46 3f 99 fa f6 3f
       -1.0462337 0.96196485 0.7750672 1.9295226
0001d0 03 71 d4 3f cc 47 99 3f af e2 a7 3f 3c 96 e1 bf
       1.6596988 1.1975036 1.3116053 -1.7623973
0001e0 18 9f f7 3e 7e fc f5 3e ce 48 f7 be 2d 5e 39 bf
       0.48363566 0.480442 -0.48297733 -0.72409326
0001f0 81 75 14 bf 6f 7f fe 3f f8 d1 8e be b1 ee 4a 3e
       -0.57991797 1.988264 -0.27894568 0.19817616
000200 eb 46 f5 3e b8 de 2e 3f 06 a8 c1 3f 54 bd a8 3f
       0.4790567 0.6830859 1.5129402 1.3182778
000210 4f 83 a7 bf aa b1 15 bf bd 11 ac 3f 6c f0 a8 bf
       -1.3086947 -0.5847422 1.3442913 -1.3198371
000220 08 d6 97 be 0f 14 a8 3f 5b 6e a5 3f f1 23 8e 3d
       -0.2965548 1.3131121 1.2924303 0.06940449
000230 9f 2b 6f bf b9 5c 27 3f 7f ec 8d 3f 73 9a 54 bf
       -0.93425936 0.6537586 1.1087798 -0.8304817
000240 be ad d5 bf 91 38 41 3f c3 bc 0f bf d8 30 a7 be
       -1.6693647 0.7547694 -0.561474 -0.32654452
000250 86 40 de 3c 9d 43 a2 3e 6f 2e 78 3f 81 69 b7 3e
       0.027130377 0.3169221 0.9694585 0.3582268
000260 b8 2a b0 3d b9 5c 00 bf 55 f1 c8 be 74 7f 21 3f
       0.08601898 -0.50141484 -0.39246622 0.63085103
000270 57 61 7d 3f 69 dd 5b 3f d7 3c 9d bd 40 17 b7 bc
       0.98976654 0.8588472 -0.0767762 -0.022349954
000280 e1 f1 b1 bf f7 e0 0c bf d1 de 99 3f c7 ad bd 3f
       -1.390194 -0.5503077 1.2021123 1.4818658
000290 90 4b 2f 3f c1 d3 db bf 96 24 7b bd b6 0a bd bd
       0.68474674 -1.7173997 -0.061314188 -0.092305586
0002a0 e2 62 af be 87 05 e0 be 99 eb 23 bf ae 50 21 3f
       -0.3425513 -0.43754217 -0.6403137 0.6301373
0002b0 fe fc 0e 3e 48 04 66 3e 91 7f 02 3f 37 e4 c8 be
       0.13963696 0.2246257 0.509759 -0.39236614
0002c0 48 23 96 3f 7f e1 35 3f 35 18 3b 3d 89 a2 64 3e
       1.1729517 0.71047205 0.045677382 0.22327627
0002d0 35 5a 2e 40 f8 dd 57 3f af ee b6 3f 2c ce dd bc
       2.7242558 0.8432307 1.429159 -0.02707585
0002e0 a7 ec 4d 40 77 4e f3 3f 2a c1 b8 3d 28 2e 8b bf
       3.217569 1.900832 0.09021218 -1.0873461
0002f0 bf ad 3e bc ab 62 59 3e 26 80 4e be 96 1d 02 bf
       -0.011638104 0.21229045 -0.20166072 -0.50826395
000300 75 26 0b c0 20 f5 a1 be 36 ce 22 bd 6e b0 81 3f
       -2.1742222 -0.31632328 -0.03974744 1.0131967
000310 39 b4 86 bf 44 21 da 3e 4a 53 aa bf 3c 12 86 3f
       -1.052375 0.42603505 -1.3306668 1.0474315
000320 60 b6 08 3f 02 a2 10 3f f8 3d 1a be f1 58 a7 3e
       0.5340328 0.56497204 -0.15062702 0.32685044
000330 7c 1d d2 3e 0b 20 cd 3e ef 25 2d bf 9d bc b1 be
       0.4103812 0.4006351 -0.6763601 -0.34714213
000340 a5 1c 28 3f 70 be df bd 2d 91 41 be 7d 76 02 3f
       0.6566871 -0.10924995 -0.18903036 0.5096205
000350 96 b6 5b be 6c ed 94 bf f0 6d 07 be 80 4d 7a be
       -0.2145637 -1.1634955 -0.13225532 -0.24443626
000360 07 b4 96 be 7b c6 35 3f 80 ab 19 40 2b 80 b6 bf
       -0.29434225 0.7100598 2.4010925 -1.4257864
000370 58 1a 9b bf 5d 54 c6 3f 22 a2 96 bf f4 d3 5e bc
       -1.2117414 1.5494496 -1.1768229 -0.013600338
000380 27 ec 01 3f 36 c4 0f 40 8c 83 89 bf f5 27 eb bf
       0.50750965 2.2463508 -1.074327 -1.8371569
000390 33 c9 83 3f f7 ff 02 3d d7 ab a2 bf f6 be 6f 3e
       1.0295776 0.03198239 -1.2708691 0.2341269
0003a0 3a bb 99 3e 13 bf 5a 3e 5b ec 47 bf ec d1 f8 3f
       0.30025655 0.21361952 -0.78095025 1.9439063
0003b0 0b 83 40 be 76 2d 9e 3f fb bd af bf 6a 90 e7 3f
       -0.18799989 1.2357624 -1.3729852 1.8090947
0003c0 ca ad 99 bf f0 c5 24 3e 2f 04 b2 3e 05 5b ec bf
       -1.2006161 0.16091132 0.34768817 -1.8465277
0003d0 19 cf a8 bf da 0f 00 c0 00 38 70 bf 0d 67 02 3f
       -1.3188201 -2.0009675 -0.9383545 0.50938493
0003e0 0b ed 9f 3e 9c a6 d5 3f b6 5a b2 bf e3 b4 04 3f
       0.31235537 1.669147 -1.3933933 0.5183851
0003f0 82 dc d1 3f a2 18 b8 bf 8e 81 0b bf 57 1e 02 be
       1.6395419 -1.4382517 -0.5449456 -0.12706886

mlp.0.weight f4 [64, 64]
000000 f8 74 9f bd c3 f6 f1 bd b9 56 69 bd 68 ba cb bd
       -0.07785982 -0.11814644 -0.05696747 -0.099476635
000010 2a 9e fa 3b 2d ac 35 3d 03 aa 83 3c 14 16 dd bd
       0.007648249 0.044353653 0.016072279 -0.10795227
000020 1a ae dd bc 72 c5 da bd 0b 61 9c bd dc 02 22 bd
       -0.027060557 -0.10682191 -0.07635697 -0.03955351
000030 c6 cb 1f 3d 3e 61 a8 3c fe 73 d2 3c a7 f0 54 3d
       0.039012693 0.020554181 0.025690075 0.051987316
000040 f0 c8 cd 3d d7 64 af 3c f4 a6 b9 3d 22 c3 f7 bb
       0.100480914 0.021410389 0.09065047 -0.0075611034
000050 ac a6 71 3c 7b 85 f7 bc fa 5f e8 bd 57 d8 eb 3c
       0.01474921 -0.030215016 -0.11346431 0.028789682
000060 e5 64 55 bd 12 32 51 bd b6 4f 38 3d f1 3e ce bd
       -0.052098174 -0.05107314 0.044997893 -0.10070599
000070 c4 8c 35 bd 86 7e a9 bd 85 00 5b bd 40 78 92 3d
       -0.044323698 -0.082760856 -0.053467292 0.07151842
000080 28 ef a1 3d d0 b6 f8 3c d7 a0 b6 bd 05 f3 c1 3d
       0.079069436 0.03036061 -0.089173965 0.094701804
000090 0d 04 cc 3d 32 b9 85 3d a1 07 b8 3d 98 cc 01 3e
       0.0996171 0.06529464 0.0898583 0.12675703
0000a0 86 f7 48 bc 78 0f 76 bd 02 7b 36 3d 36 98 fc bd
       -0.012266045 -0.060073346 0.044550903 -0.123337194
0000b0 6d 0e 8f bd 80 51 a9 bd 08 b8 4e bc 84 99 af bd
       -0.069851734 -0.08267498 -0.012617119 -0.08574203
0000c0 3f ab 76 3d 09 24 2d bd d4 bc f2 bd bb b1 d8 3d
       0.060221907 -0.042270694 -0.11852422 0.105807744
0000d0 39 fc 9d 3d b6 32 aa 3d 85 a9 0b bd 8d 53 61 bd
       0.07714123 0.083104536 -0.034097213 -0.05501132
0000e0 53 e6 50 3d 85 41 98 bd fb 29 0d bd 25 e1 e7 3d
       0.051000904 -0.07434372 -0.034463864 0.1132224
0000f0 2a e5 c7 bc 02 f1 4a bd b5 59 1c 3d 21 80 a4 bd
       -0.024401266 -0.04954625 0.03817149 -0.08032251
000100 65 93 83 bd c9 d7 10 bc 6f e1 01 be e0 d9 dc 3d
       -0.06424598 -0.00884051 -0.12683652 0.10783744
000110 51 17 c4 3d 18 bd e6 3d 6c a8 8d bd 5a f7 01 3e
       0.0957476 0.112665355 -0.069168895 0.12692013
000120 55 32 c5 bb 7c 80 a9 3c 64 c8 2a bd 8f dc d1 3d
       -0.006017963 0.020691149 -0.041695014 0.10247146
000130 d3 aa e5 3d b2 c7 9e 3d 0c 66 36 3c 05 98 e7 bd
       0.11214223 0.077529326 0.011132728 -0.11308292
000140 a6 46 1c bd a7 2c 89 bb 43 4a 95 3d f8 ce ea bc
       -0.038153313 -0.004186231 0.07289555 -0.028663144
000150 52 ee 54 3d 6b 77 80 bd ca 0e 85 3d b9 3d f7 3d
       0.051985092 -0.06272777 0.064969614 0.120723195
000160 34 5a f2 bd 07 4c 4c bd 1a fc df 3d 09 23 e0 3d
       -0.11833611 -0.049877193 0.109367564 0.109441824
000170 42 ab ba bd f3 96 8a bb d8 96 81 3d 33 4c bf bb
       -0.09114696 -0.0042294203 0.06327599 -0.005837941
000180 79 21 02 be f7 5e 8b 3c 46 2a 09 bd ab c2 81 bd
       -0.12708081 0.017013056 -0.03348758 -0.06335958
000190 05 7a c7 3d e0 7c fe 3d 12 a6 15 bd 27 87 22 bd
       0.0974007 0.12426162 -0.03653533 -0.039679673
0001a0 b9 38 ca bd ce 8d 57 3d 3b f9 dc 3d 43 b3 a2 3d
       -0.098741 0.05262547 0.107897244 0.07944348
0001b0 df 14 9c bc 0d 11 52 bd 17 79 8b bd d0 b8 fe 3c
       -0.01905292 -0.051285792 -0.068102054 0.031093985
0001c0 de 70 03 3b 10 1c 0a 3d 8a 20 b6 3c 27 76 19 bd
       0.0020056288 0.03371817 0.022232313 -0.037466194
0001d0 99 ec 9a 3d 33 74 2f 3d 66 18 b2 bd bc af e6 bc
       0.07564659 0.042835426 -0.0869606 -0.028159969
0001e0 43 6c 58 bd 6f 6b f6 3d a6 64 03 bc 15 de e0 bd
       -0.05283762 0.1203221 -0.008019602 -0.10979859
0001f0 b2 73 71 bc 1b 9b e9 3d 31 c3 8d 3d ae 4c 03 3e
       -0.014737057 0.11406537 0.069219954 0.1282222
000200 10 51 30 bd 19 0f 08 bd 94 fd 69 3c 3f d7 00 3d
       -0.043046057 -0.033217523 0.014281649 0.031455275
000210 48 cf 8c 3c 6c 6e f9 3d 57 f4 e0 3d 2c 09 f5 3d
       0.017188683 0.121792644 0.10984104 0.1196464
000220 65 07 b3 3d 17 82 d4 bc f1 06 d6 3d 55 46 e0 bd
       0.08741645 -0.025940938 0.10450543 -0.10950915
000230 34 0a 4d bd ae 67 37 bd ce 51 ec 3d 17 b3 86 3c
       -0.05005856 -0.04477661 0.115390405 0.016442819
000240 85 74 e8 bd 94 a2 de 3d 6b e6 b2 bd 4a cc bc 3c
       -0.11350349 0.10870853 -0.08735355 0.023046631
000250 63 99 bc bd 3c eb 09 bd b3 3d df bd 86 8a 8e 3d
       -0.09208944 -0.033671603 -0.1090044 0.06960015
000260 20 4a a4 bd 48 14 ba bd a8 10 49 3d 3f 16 99 bd
       -0.08021951 -0.090858996 0.04908815 -0.07474946
000270 b9 25 de bd 5f fc 60 bb 4d 75 c4 3d 96 b0 35 bd
       -0.10847039 -0.0034330112 0.09592686 -0.04435786
000280 54 e6 b3 3c 54 99 85 3c 77 af dd bd cb 3e 72 3d
       0.021960415 0.016308464 -0.10824483 0.059141915
000290 2f 71 f3 bd 9b 25 00 be c0 8f 08 3d 38 45 36 bd
       -0.118868224 -0.12514345 0.033340216 -0.044499606
0002a0 8c 90 d5 3d 11 9b b1 bd 89 84 23 bc 4a 97 da 3d
       0.10427961 -0.08672155 -0.009980329 0.10673387
0002b0 a8 3f 74 bb ea bd 8c bd 3d 7d 6c bc 19 60 d3 bb
       -0.0037269387 -0.06872161 -0.014434156 -0.0064506647
0002c0 3f c8 8b 3d 58 ec 3f 3b 1c 26 e7 3d 16 ce 26 3d
       0.06825303 0.002928516 0.11286566 0.040723883
0002d0 61 72 3e bb 92 40 ae 3d 37 04 1c 3d 30 d5 a3 3d
       -0.0029059874 0.085084096 0.038089957 0.07999647
0002e0 13 b3 b9 3d c8 c5 7b 3c 5d c1 5a bd c8 1d 97 3d
       0.09067359 0.015366979 -0.05340706 0.07378727
0002f0 58 46 d8 3d b9 0e cb bc a1 74 d0 bd 13 92 11 bd
       0.10560292 -0.024787294 -0.10178495 -0.035539698
000300 eb 29 fc bd 27 7d 1c 3d 8d 69 14 3b 16 43 5a bd
       -0.12312683 0.038205292 0.002264592 -0.053286634
000310 3f 58 9f bd b0 da c4 3d 12 fe 6a bd ea 34 88 3d
       -0.077805035 0.09612024 -0.057371207 0.066507176
000320 4d be 64 3d 09 cc 94 bc a2 c9 d3 bc 8f fb a9 bd
       0.055845547 -0.018163698 -0.025852982 -0.08299934
000330 d4 82 44 bd dc c1 56 bd 7c 9a a9 bd 25 06 17 3d
       -0.04797633 -0.052430972 -0.08281419 0.036871094
000340 de ff 3f bd d0 3e 89 3d 95 87 2a 3d 2e ab 1a 3d
       -0.046874873 0.06701434 0.041633207 0.037760906
000350 3a 28 ef 3d ae 78 aa bc 8c 26 78 bd 0f c7 89 bd
       0.116775945 -0.020809498 -0.060583636 -0.067274205
000360 ba dc dd bc 52 7c c2 bd 27 cf 98 bd e5 68 e5 bd
       -0.02708279 -0.094963685 -0.07461386 -0.11201648
000370 ae fa e1 bd cd b2 aa bb 8d a1 9c 3d 80 e6 be 3d
       -0.110341415 -0.005209303 0.07648001 0.09321308
000380 28 c0 0c bc a5 db c4 3d 56 e0 8c 3d d0 e1 e5 3c
       -0.0085907355 0.09612206 0.06878726 0.028061777
000390 ac 04 29 3d 4b 73 3f 3d 78 ec 60 3d 3f 6a 67 bc
       0.04126422 0.04674081 0.054913014 -0.014124452
0003a0 5f 33 aa bc e4 d7 1f 3d 60 56 a3 3d 02 59 87 3c
       -0.020776449 0.03902425 0.07975459 0.016521934
0003b0 67 60 f3 3d c5 b3 95 bd ed c7 57 3d dc e9 53 bc
       0.11883622 -0.07309679 0.0526809 -0.012934174
0003c0 62 54 c0 3d 5d b8 a7 3c a9 fd 3c 3d ae 07 32 3d
       0.09391095 0.020473653 0.046140347 0.043464355
0003d0 2f af 35 bd e3 73 87 bc 52 02 e8 bd 8b e9 d2 3c
       -0.04435652 -0.016534751 -0.113285676 0.025746128
0003e0 69 94 c8 3c ca 12 ab bd 34 68 cf 3d f4 b2 84 bd
       0.02448483 -0.08353193 0.10127297 -0.06479445
0003f0 17 93 c9 ba ac 6e 95 bd cd 9c d3 3d 5f 6d ca bc
       -0.0015378919 -0.072964996 0.10332642 -0.024710355

mlp.0.bias f4 [64]
000000 a5 6a 09 3d a4 33 f2 bd 87 25 94 bd 19 03 34 bd
       0.03354897 -0.11826256 -0.0723372 -0.043948267
000010 f9 00 e4 bd e9 6b e9 bd 82 c0 f4 3c 80 14 37 ba
       -0.11132998 -0.11397535 0.029876951 -0.0006983951
000020 6f 97 36 3c 69 8d f4 bd a4 4a 56 3d 72 5a a4 bd
       0.011144503 -0.11941034 0.052317277 -0.080250636
000030 2e 76 c2 3d 20 62 a5 bc 94 95 d7 3d 39 13 12 3d
       0.09495197 -0.020188391 0.10526577 0.035662863
000040 e0 e8 19 3b 2a b7 89 3d ad e4 86 3d 6d 97 04 be
       0.0023484752 0.06724389 0.06586585 -0.1294839
000050 b2 5d 07 be d9 5b 1e 3d 3e c2 48 3d e6 67 f5 bd
       -0.13219336 0.03866181 0.04901337 -0.11982708
000060 3d 2e 1c 3d f2 0d ab 3d 77 df 04 3e bb 3f e0 3c
       0.038130034 0.08352269 0.1297587 0.027374139
000070 31 62 3d bd 65 89 7d bc 4d c1 57 bd ff 82 88 3c
       -0.04623622 -0.015474652 -0.05267458 0.016664026
000080 94 8c be 3d 8d 64 bc bd 0d 60 df bc 9d 18 04 3d
       0.09304157 -0.09198866 -0.02726748 0.032250036
000090 6c 62 90 bd f0 98 5c 3d 15 53 2d bc 16 d4 a0 bd
       -0.070500225 0.05385679 -0.01057889 -0.07852952
0000a0 37 39 ab bd 48 d9 bc bd 59 a8 b8 bd 93 ef 15 3c
       -0.08360522 -0.092211306 -0.09016485 0.009151357
0000b0 f2 58 78 3d 7b d6 9a bd 80 78 a5 3d ab d5 3c 3b
       0.0606317 -0.0756044 0.08079624 0.002881388
0000c0 52 4b f3 bd 56 4a dc bc 0a 9b 44 bd fd bc 83 3d
       -0.118796006 -0.026890915 -0.04799942 0.06432531
0000d0 34 71 bf 3d be 11 d9 bd 3b 79 00 be 30 93 4c 3d
       0.09347764 -0.10599087 -0.12546246 0.049945056
0000e0 5b 5a 74 3d 2e 4b 6c bd ed fa a2 bd f3 0d c0 bd
       0.059656482 -0.057688884 -0.079580165 -0.093776606
0000f0 68 4e 90 bd 9a 8a c0 3d 4e 1e de bd 45 74 9a bd
       -0.07046205 0.09401436 -0.10845624 -0.07541708

mlp.2.weight f4 [32, 64]
000000 6f c0 7b bd 8a 48 1e bc 16 90 eb bd 56 45 7a 3d
       -0.061462816 -0.009660849 -0.115020916 0.06110128
000010 d0 3e e3 3d 4c 13 c0 3d 61 3a 03 bc c1 b6 d6 bb
       0.11095965 0.093786806 -0.008009524 -0.0065525477
000020 17 98 c6 3d 7c 48 d3 bd 07 a9 b4 3d 31 80 04 b8
       0.096969776 -0.1031656 0.08821302 -3.159064e-05
000030 a0 75 a5 3d 06 c4 b1 3d 6f 8c 77 bc 24 a0 b7 3d
       0.08079076 0.08679967 -0.015109166 0.08966091
000040 d8 99 d0 bd d3 ea 38 3d 0d c3 3d bd f6 ce a8 3d
       -0.10185593 0.04514582 -0.046328593 0.082426
000050 2b 04 01 3e 40 97 c5 3d 90 bd 75 3d 9b e0 80 bd
       0.12599246 0.09647989 0.059995234 -0.0629284
000060 54 fd dc 3d eb 1b 96 bd 15 8c 9c 3d 78 33 05 bd
       0.10790506 -0.07329544 0.07643906 -0.032519788
000070 e7 a4 09 3c 11 98 d2 3d cb b1 9c 3d e1 79 41 bd
       0.008401132 0.102829106 0.07651099 -0.047235373
000080 86 b3 50 bd 38 b8 3d 3d 9e b1 e3 bc 12 83 e5 bd
       -0.050952457 0.046318263 -0.027794655 -0.1120664
000090 c4 53 84 3d 1b 83 95 bc ce 05 63 3d 42 74 6c 3d
       0.064612895 -0.018250993 0.055425458 0.05772806
0000a0 0c 18 2e 3d 84 77 1e bd 97 85 cc bd 5c a8 d0 3d
       0.0425034 -0.038688198 -0.09986418 0.10188362
0000b0 32 52 a6 3c 95 3c c6 3d 7e 6f b7 bd 98 8e f1 3d
       0.020302866 0.09679524 -0.08956812 0.11794776
0000c0 69 7d da 3d ef d1 ce 3d db e8 56 3d 3c d6 92 3c
       0.10668451 0.100986354 0.052468162 0.01792442
0000d0 2d 61 8b bc 8e 5e 9e 3d 63 ec cd bd 32 fa 03 3e
       -0.01701411 0.077328786 -0.10054853 0.1288841
0000e0 03 cf fd 3d d4 81 88 3c f0 a7 bd bd 2a 57 53 bd
       0.12393 0.01666347 -0.09260547 -0.051596798
0000f0 a8 8d 57 3d 47 b6 9c bc 02 00 ff 3d 42 ff a1 bd
       0.05262533 -0.019129885 0.12451173 -0.07910015
000100 a9 8c e4 3d 3e 20 6d 3d 9f 88 6d bc 33 bc 80 bd
       0.11159641 0.057892077 -0.014497905 -0.06285896
000110 c8 1a 9e bd d3 ef 42 bd 08 77 16 3d ec 8a 7c 3d
       -0.07719952 -0.047591995 0.03673461 0.061655924
000120 47 a2 9e 3d c9 23 f5 bc fc c2 05 3d 0f f4 7f 3c
       0.07745796 -0.02992429 0.032656655 0.015622153
000130 42 eb 71 bc f7 73 72 bc 23 a4 cf bd 3c c6 85 3d
       -0.0147655625 -0.014798156 -0.101387285 0.06531951
000140 ca 47 8f bd 33 df 04 be 38 47 8f bd 21 64 57 3d
       -0.069961146 -0.12975769 -0.06996006 0.052585725
000150 65 df 71 bd 91 a7 23 3d 42 75 3e 3c 5e 72 89 bd
       -0.059050936 0.039954726 0.011624636 -0.06711267
000160 17 1a e7 3d ba 20 76 3c 02 30 e3 bd f1 9d a8 3c
       0.11284273 0.015022451 -0.11093141 0.020583125
000170 28 21 c8 3d fc d5 00 be 18 a1 d0 3d f3 ae ce 3d
       0.09771949 -0.12581629 0.10186976 0.10091963
000180 23 33 8b 3d 3c 06 cd 3c db 92 73 3d 9c d3 fd bd
       0.06796863 0.025027387 0.059466224 -0.12393877
000190 bc bf 4f 3d 01 61 84 bd 7a e8 3e 3d 63 fb 37 3d
       0.05071996 -0.064638145 0.046608426 0.044917475
0001a0 e8 90 2f bc f1 fd 10 3c 51 29 ba bd 41 6a bd bd
       -0.010715701 0.008849607 -0.09089912 -0.09248782
0001b0 70 4c 1f 39 e2 19 ca bd 46 c6 e3 bd 4a cc d6 3d
       0.00015191897 -0.09868218 -0.11121802 0.10488184
0001c0 e3 72 ac bd da 9b 3d 3d 6d ca 85 bd c2 1a ec bc
       -0.084203504 0.04629121 -0.0653275 -0.028821353
0001d0 88 23 d9 3d 3e cb 92 bc 74 af d1 3d 23 ae 46 bd
       0.1060248 -0.017919179 0.10238543 -0.048505913
0001e0 1f 7e 02 3b c3 02 77 3d ee 73 02 be 13 dd 9c 3c
       0.00199116 0.06030537 -0.12739536 0.019148385
0001f0 f7 4a 88 3d 70 f5 8d 3c 7b 74 4a bd f6 87 eb 3d
       0.066549234 0.017328948 -0.04942749 0.11500542
000200 da 64 13 3d 66 5f 00 3e c5 5e 73 bd 30 29 cd 3d
       0.03598485 0.12536392 -0.05941655 0.100176215
000210 22 4f f2 39 32 a3 74 bc 07 c2 44 36 50 16 48 3d
       0.00046216795 -0.014931487 2.9319215e-06 0.048849404
000220 1e af 93 3c 88 c9 c8 bd 89 8e b5 bd e3 ac c6 bb
       0.018027838 -0.09804064 -0.08865077 -0.00606309
000230 1a 6d a4 bd ee 32 dc 3d 06 3f 05 be f3 a0 65 3d
       -0.08028622 0.107519016 -0.13012323 0.056061696
000240 e8 41 52 3d c4 9f 68 3c 44 ca 90 ba 0d 07 a6 3d
       0.051332384 0.014198247 -0.0011046608 0.081068136
000250 be 51 2c 3d bd df d0 bd dc 5d c8 bd 40 4c 2b 3c
       0.042070143 -0.10198925 -0.09783527 0.010455191
000260 b3 3b 52 3d 20 f5 81 bd 7a c3 c2 bd 39 7b f1 bd
       0.051326465 -0.06345582 -0.095099404 -0.11791081
000270 c9 1b a2 bd 12 dc 52 bd 05 e0 f0 3c 76 a2 8e bd
       -0.07915456 -0.051479407 0.029403696 -0.06964581
000280 aa b8 e9 bd e1 7c 7f bd 90 6d fa 3d e6 d3 5e 3d
       -0.11412175 -0.062374953 0.12227929 0.0544013
000290 d2 1d b9 bc 3a c7 e5 3c 52 51 19 3d d9 9f ba 3c
       -0.022597227 0.0280491 0.03743107 0.0227813
0002a0 01 62 3f bd 3e 3b 20 3d ca 77 cd 3d 8e dc b6 3d
       -0.046724323 0.039118998 0.100326136 0.08928786
0002b0 9e 84 1e bd 06 86 73 3d 19 61 5a bc 40 0e b4 bd
       -0.038700692 0.059453987 -0.013328814 -0.087917805
0002c0 f2 79 c0 3d 27 93 b3 3d 70 18 7f bd 76 68 94 3c
       0.09398259 0.087683015 -0.062279165 0.018116217
0002d0 3e 4b f2 bd 63 9e a3 bd 86 32 13 bc f7 d5 8a 3c
       -0.118307576 -0.07989194 -0.008984214 0.01694773
0002e0 fd f8 dc bd b6 0b 99 3c 0b 78 9b bd 5f ab 17 3d
       -0.10789678 0.018682342 -0.07591256 0.037028667
0002f0 c4 4f 51 3d ac 53 40 3b 07 2d c4 3d 65 dd 92 3d
       0.05110146 0.0029346747 0.09578901 0.07171134
000300 51 37 e7 3d bc 31 da bd d9 cb 2b 3d 9c f2 3e bd
       0.11289848 -0.10654017 0.04194245 -0.04661809
000310 43 23 e8 3a 41 6c ce bd 9d 6f 18 bd 1e be 74 3d
       0.0017710704 -0.100792415 -0.037215818 0.059751622
000320 f1 8b 50 3d fd 57 83 3d c0 3c d8 bd 06 e3 93 bd
       0.05091471 0.06413267 -0.10558462 -0.07221036
000330 4a 55 cb bd 6d 65 ae 3d 13 44 72 3d b5 8f 19 bd
       -0.09928377 0.08515439 0.059146952 -0.037490565
000340 96 87 f2 bd f5 ee 31 bd cb 17 e9 bd 17 c2 a3 bd
       -0.11842267 -0.043440778 -0.11381491 -0.07996004
000350 7a 90 02 3e 04 c4 82 3d 38 0f 84 3d 5c 8e 01 3d
       0.12750426 0.06385043 0.06448215 0.031629905
000360 1f 8c 4b 3c ad 8d af 3d d0 3b 42 3d a2 b8 84 3d
       0.012423544 0.085719444 0.047420323 0.064805284
000370 51 57 31 bd 0b f1 26 3c 01 ba 57 3c 85 a0 c9 3d
       -0.043296162 0.010189305 0.013166905 0.0984507
000380 2b 58 e8 bd a6 cf e0 bc b0 67 c0 bd ad de 9c 3c
       -0.11344942 -0.027442764 -0.09394777 0.019149149
000390 f6 47 98 3c 8d 64 aa bd 44 d1 67 bc fc 73 06 be
       0.018589001 -0.0831996 -0.014149014 -0.13130182
0003a0 47 27 9f 3d 7a e1 c3 3c 98 a6 b9 bc e2 8d 23 3d
       0.077711634 0.023911227 -0.022662446 0.039930232
0003b0 89 1b 59 3d 34 e0 89 3d 65 28 2f bc 5b db 76 bc
       0.053004775 0.067322165 -0.010690783 -0.015066947
0003c0 e7 10 ae 3c 97 14 3e 3d 12 f1 3b bd 8b e7 1a bd
       0.021248294 0.046406355 -0.0458842 -0.037818473
0003d0 c6 78 e8 bd f8 fb 54 3d 01 50 03 3e e2 d7 a2 3d
       -0.11351161 0.05199811 0.12823488 0.07951333
0003e0 67 d2 cd bc b0 21 8a 3c a7 07 1e 3d 18 6c cf bc
       -0.025124742 0.016861767 0.038581517 -0.025320098
0003f0 0d 58 9b bd ff c8 5a bc fb e1 58 bd 99 9e f3 3d
       -0.07585154 -0.013353585 -0.052949887 0.118954845

mlp.2.bias f4 [32]
000000 86 84 d2 bd 3f d9 d2 3d 9d b6 16 bd 51 7e c0 3d
       -0.10279183 0.10295343 -0.036795247 0.09399093
000010 a3 75 6b 3c bc 86 7a bd 65 2f e3 bd e6 e2 ad ba
       0.0143713085 -0.06116365 -0.11093024 -0.0013266474
000020 08 69 c3 3d 69 13 16 3d a4 3b bc ba 25 7d e1 bd
       0.095415175 0.036639605 -0.0014361036 -0.110101976
000030 23 80 cf bd 71 26 42 3d 6e 7a 71 bc 2f f2 3e bc
       -0.10131862 0.04739994 -0.014738662 -0.011654421
000040 30 6a cf bc 46 31 c7 bd 42 cb 89 3d db 1f d4 bb
       -0.025319189 -0.09726195 0.067282215 -0.006473524
000050 1b 23 ab bd 44 3f bf 3d 04 fb d4 3d be 6c 1e bd
       -0.08356305 0.09338239 0.1039944 -0.038677923
000060 ca ab 59 bc 27 f7 94 3d a0 72 a7 bd fa c7 9b 3c
       -0.013285587 0.07273703 -0.0817616 0.019016255
000070 64 38 0a bd 27 d8 94 bc a1 83 ca bd ce 02 87 3d
       -0.033745185 -0.018169476 -0.098883875 0.06592332

mlp.4.weight f4 [16, 32]
000000 5b fc 9f 3c d0 bd 27 be 02 ab d7 3c 6a 02 80 3d
       0.019529512 -0.16381001 0.02632666 0.062504604
000010 4e 07 fb bd 29 87 eb bd 00 83 ef 3d 80 78 ff 3d
       -0.12257253 -0.11500389 0.11694908 0.124741554
000020 a6 f8 04 bd 2e 39 0e be 45 68 21 3e a0 24 81 bd
       -0.032463692 -0.13889 0.15762432 -0.06305814
000030 a1 45 20 3e c7 a2 e1 3d 87 66 63 3c f3 d6 98 bd
       0.15651561 0.110173754 0.013879425 -0.07462873
000040 1c 44 01 3e 4d 1c 20 3e 7d dd 4c 3d 40 83 43 bb
       0.12623638 0.15635796 0.050015915 -0.002983287
000050 08 98 e2 bc 29 67 a0 bd 00 6b fe 3a 7a 47 2d 3d
       -0.027660385 -0.07832176 0.0019410551 0.042304493
000060 62 b9 8d bd a4 6d 8f bd 74 62 27 3c 0a a8 14 be
       -0.069201246 -0.07003334 0.010216344 -0.14517227
000070 1a f2 93 3d dd 4b 63 bd df 85 94 3d 9a 75 05 3d
       0.072239116 -0.05549227 0.072520964 0.032582857
000080 e1 ee 03 3e 74 fc ab 3d 42 23 3b bc fe e0 2f 3d
       0.12884094 0.08397761 -0.01142198 0.04293918
000090 3b 7f d2 bd 86 55 3f bd c2 52 10 3d 8b 32 bd 3a
       -0.102781735 -0.04671242 0.035235174 0.0014434619
0000a0 0e 65 a0 3d 24 f9 09 be df 87 39 3d 26 77 0a be
       0.07831775 -0.13473946 0.045295592 -0.13522014
0000b0 f4 e9 16 3d 74 33 9d 3d 27 a7 08 3e 4b 7f 17 3e
       0.03684421 0.076758295 0.13345014 0.14794652
0000c0 08 20 46 3e 53 2d 2b 3d e0 0e 92 bc 98 d8 52 bd
       0.19348156 0.04179127 -0.017829359 -0.05147609
0000d0 d6 d5 3c bd 79 21 45 3e 61 f7 fb bd 2d 68 29 3e
       -0.046102367 0.1925105 -0.12303043 0.16543646
0000e0 0c 02 21 bd ae bf b6 bb af 7f fe 3d 05 ce 11 be
       -0.039308593 -0.005577049 0.124266975 -0.14238746
0000f0 31 36 25 3e 06 de d9 3d 98 80 13 3d cf 1d 1e 3e
       0.16133954 0.10638051 0.03601131 0.15441059
000100 3f 4e 6b bc e4 5c bf 3d d3 8d 1a bd be 7d 06 be
       -0.014361917 0.09343889 -0.03773291 -0.13133904
000110 ce d8 c4 3b 1b b6 87 3d 06 4a 3a be da cb a6 3d
       0.0060072904 0.06626531 -0.181923 0.0814435
000120 3f 2f 27 3e 20 43 16 be ca 0e 63 3d af a9 2c be
       0.16326617 -0.14674044 0.055434026 -0.16861604
000130 47 60 83 3d bf 7a ac 3d f6 b8 b2 bc 22 c0 2d be
       0.06414848 0.084218495 -0.021816712 -0.16967824
000140 25 b2 0e bd 14 cf 11 3e ff 1b 09 3e 85 df 07 bd
       -0.03483786 0.1423915 0.13389586 -0.03317215
000150 64 e2 67 3d 53 6c 18 3e 9d 1d 07 3c 4e e0 bc 3d
       0.056612387 0.14885072 0.008246806 0.0922247
000160 61 86 0f be c5 1b 9f bc 66 93 c1 bc bd 58 93 bb
       -0.14016105 -0.019422421 -0.023629855 -0.0044966624
000170 10 b5 39 bc 2e ac 0a be a9 68 3d be 48 b5 b7 bd
       -0.011334673 -0.13542244 -0.18496956 -0.089701235
000180 84 21 01 be 3e 1b bc 3d f8 f7 14 3e 71 9d 74 bd
       -0.12610441 0.091848835 0.14547718 -0.05972046
000190 90 30 2b be ac 7c 78 bd cb ec eb 3d 0f 85 e9 3d
       -0.16717744 -0.06066577 0.11519774 0.11402332
0001a0 9c 3d 11 be 55 a0 17 bd a7 a3 19 3e 3d 8f 07 be
       -0.14183658 -0.03701814 0.15003835 -0.13238235
0001b0 c5 b8 3b be 7a f0 cc 3d 39 d8 5e 3d 90 e3 22 be
       -0.18332203 0.10006805 0.054405425 -0.1590712
0001c0 08 84 a2 bd 2c 68 c8 bc 1b d6 34 bd 48 cc 88 3d
       -0.07935339 -0.024463736 -0.0441495 0.066795886
0001d0 fe f1 d0 3d 33 79 01 be 9b 54 8a 3d 6f 59 cc 3d
       0.10202406 -0.1264389 0.067544185 0.099779956
0001e0 95 9f 15 be 41 dc 88 bd 5a d9 39 bd 14 7b 30 3d
       -0.14611657 -0.06682635 -0.0453733 0.043086126
0001f0 51 0e 74 3c 48 9d 2e be 89 f1 f2 3d 7d 25 de bb
       0.014895991 -0.17052186 0.118624754 -0.0067793713
000200 dc bb 01 be 46 43 b1 bd de 23 ab 3c 5c 88 a6 bd
       -0.12669319 -0.086554095 0.020891126 -0.08131477
000210 1a 6b 1b 3e 49 cf 09 3e 5f 19 35 3d aa d8 02 3e
       0.15177575 0.1345798 0.04421365 0.12777963
000220 07 b6 e1 bd 50 75 96 3d 92 c6 26 be 17 04 1a 3e
       -0.11021047 0.07346594 -0.16286686 0.15040623
000230 6d 9f ec 3d b4 d8 f3 bd c8 6d ae 3d 32 e8 36 bc
       0.115538456 -0.11906567 0.08517033 -0.011163758
000240 72 b3 5a 3d 16 8b 91 3d 36 aa e3 3d a0 52 95 bd
       0.05339379 0.07106607 0.111164495 -0.0729115
000250 ff 5a 48 3d c3 c1 18 3d e6 99 27 3e 1f c5 d2 3d
       0.048914906 0.03729416 0.16367301 0.10291504
000260 3a c8 78 bd de 8f 3a be 32 4a 01 be 8f d4 f4 3d
       -0.060737826 -0.18218943 -0.1262596 0.11954605
000270 db 9b d7 bc 57 11 fd 3d dd 1b 0a 3e 64 b5 f7 bd
       -0.026319435 0.12356823 0.13487191 -0.120951444
000280 9c 44 9d 3d b8 5e 17 3e df d0 25 be 8c f3 06 3e
       0.07679102 0.14782226 -0.16192959 0.13178843
000290 20 b3 ca 3d 8f 8c 83 3d eb 28 1e 3e 08 1a 2d be
       0.09897447 0.06423294 0.15445296 -0.16904461
0002a0 ad 5e 26 be 2c 31 79 bd 0d c6 27 be aa 9e c5 3b
       -0.16247053 -0.06083791 -0.16384144 0.006030877
0002b0 9f 15 2a be 3a 52 03 3b 0b 07 02 3e c9 87 8f bc
       -0.1660981 0.0020038025 0.12697999 -0.017520802
0002c0 09 ae e2 bd d6 3c 3d 3d f1 b3 c8 bd 49 65 14 3d
       -0.11068351 0.046200596 -0.09799946 0.036229406
0002d0 95 7d fe 3c b2 3c a3 3d 49 a8 d4 3d 1c 04 26 be
       0.031065742 0.07970561 0.1038366 -0.16212505
0002e0 10 7a 22 3d 36 d2 19 bd 36 be ab 3d 4c cd 4a 3d
       0.03966719 -0.03755399 0.08385889 0.049512193
0002f0 b9 5d ee 3d 02 0f b2 3d d9 58 2a bc fe a0 25 3d
       0.1163897 0.08694269 -0.0103971595 0.040436737
000300 35 64 03 be 48 cc c5 3d 64 37 16 be aa 33 23 3e
       -0.12831195 0.09658104 -0.14669567 0.15937677
000310 3c 2e b8 bd 2c 52 c0 3d e1 6f 52 bd 94 3a 6a bd
       -0.089931935 0.09390673 -0.051376227 -0.05718477
000320 83 77 71 3b 66 cb da 3c 9c c6 8d 3d 6b 56 16 3e
       0.0036844916 0.026708316 0.06922647 0.14681403
000330 62 f1 22 be 52 a8 a5 bd b0 b5 ad 3d e0 48 b2 bd
       -0.15912393 -0.08088745 0.0848192 -0.08705306
000340 26 92 2a be c0 fe 41 3d 84 44 21 3e 92 dc fd bd
       -0.16657314 0.04736209 0.15748793 -0.12395586
000350 14 79 68 3d a3 97 e1 3d 93 2a 57 bd bc 41 f8 3d
       0.056756094 0.110152505 -0.052530836 0.12121913
000360 25 fc 0d bd 24 54 37 3d 93 c8 44 bc 40 b2 34 3d
       -0.034664292 0.044757977 -0.012010711 0.044115305
000370 20 ab 05 3e ca 5a cc bd c8 bb 09 3e a0 0f 27 bd
       0.1305356 -0.09978254 0.13450539 -0.040786386
000380 7d fe 16 be 46 69 d7 3d 52 10 8c bb e7 5b 14 bc
       -0.14745517 0.10518126 -0.0042744065 -0.009055114
000390 5b ed ea bd 7e 58 89 3c b0 ba 04 be 29 ca 0c 3e
       -0.11471053 0.01676583 -0.1296184 0.13748993
0003a0 a3 af 02 3e 02 5e 6c 3d 04 a3 d4 3d 99 4a c0 3d
       0.12762313 0.05770684 0.10382655 0.093892284
0003b0 b7 e0 e1 bd 6f e3 27 bc 28 9a cb 3d 9e 43 dd bd
       -0.11029189 -0.0102470955 0.09941512 -0.108039126
0003c0 6e d0 d4 3d 7a 6c 2e 3d 36 e9 8b bd a4 e7 26 3e
       0.10391317 0.04258392 -0.06831591 0.16299301
0003d0 1c 23 02 bc a4 01 88 bd 7e df 3f 39 87 85 59 bd
       -0.007942941 -0.06640938 0.00018298437 -0.053105857
0003e0 86 0c a7 3c 9f 59 df 3d 43 1f 54 3d 67 64 e3 bd
       0.020391714 0.10905766 0.051787626 -0.111031346
0003f0 a3 a7 1d bc 80 d4 10 be b2 2c 13 3e 52 86 9b bd
       -0.009622487 -0.14143562 0.14372519 -0.07593979

mlp.4.bias f4 [16]
000000 f4 28 c6 bd 12 88 26 3e 36 39 99 3d 29 59 8a 3c
       -0.0967578 0.16262844 0.07481615 0.016888218
000010 f1 89 93 bd 7c f9 c3 3b d3 0b 0d be 6a d0 8c bc
       -0.072040446 0.0059806686 -0.13774042 -0.017189223
000020 9f 1f d3 bd c1 e7 c1 3c cc 76 07 be 73 71 d0 bd
       -0.103087656 0.02367008 -0.13228911 -0.10177889
000030 6f 41 91 3d 0b 9a 24 3d 58 c4 f9 3d 30 2b c6 3d
       0.070925586 0.04018597 0.12195653 0.09676206

mlp.6.weight f4 [8, 16]
000000 b4 46 a9 bd 98 b7 4f 3e dc 04 74 be 6a 7e 7f be
       -0.08265439 0.20284879 -0.23829979 -0.24950567
000010 d6 8f 19 3e aa e2 5a be 38 81 a1 bd b8 3d ca 3d
       0.14996275 -0.21375528 -0.07885975 0.09875053
000020 38 e4 d9 bd 1a 01 0c be d8 8c 27 3e 74 11 69 3e
       -0.106392324 -0.13672295 0.16362321 0.22760564
000030 00 b9 f5 ba 68 13 48 be 68 92 11 3e f4 b6 58 be
       -0.0018747151 -0.19538653 0.14216006 -0.21163541
000040 88 ba 1c 3e 14 f9 b2 bd 00 53 4e 3e 84 6b f9 3d
       0.15305531 -0.08738914 0.2014885 0.1217871
000050 00 22 9b 3b 4c 6d 50 be 00 3b 42 3d 8c 09 f7 bd
       0.0047342777 -0.20354193 0.047419548 -0.12062368
000060 36 fd 68 be a0 6e 75 3e ac 08 de bd 14 8a a4 bd
       -0.22752842 0.23967981 -0.10841498 -0.08034149
000070 d4 d4 5e be a4 93 df bd bc eb d7 3d fc 7e 1f 3e
       -0.21760875 -0.10916832 0.1054301 0.15575784
000080 96 03 65 3e 07 f9 de 3d 7e 01 a4 3c 6b c3 79 3e
       0.22364649 0.10887342 0.020020243 0.24390952
000090 e0 57 c2 3d fb 57 92 3c 10 f0 54 be 7b 46 2f 3e
       0.09489417 0.017864218 -0.20794702 0.1711673
0000a0 a1 51 a8 3d 2b 92 c3 3c bc 26 55 be 06 68 6c be
       0.082186945 0.02387341 -0.20815557 -0.23086557
0000b0 ee 29 61 3d fd aa 57 be 01 45 91 3d 74 a2 21 3e
       0.054971628 -0.2106132 0.070932396 0.15784627
0000c0 f8 9c 27 3e de 28 68 be ab 49 d4 3d 3d 1f e7 3d
       0.16368473 -0.2267184 0.103656135 0.11285255
0000d0 5b 02 bc 3d aa d4 fc 3d f7 88 50 3e 29 dd ce bd
       0.09180137 0.1234525 0.20364748 -0.10100777
0000e0 87 98 b3 3b c6 72 ce 3d 71 4f 54 3e 27 41 98 bd
       0.005480829 0.10080485 0.2073343 -0.07434302
0000f0 df fa 1a 3e 95 66 78 be a0 09 26 3e 74 ca d2 bc
       0.15134762 -0.24257882 0.16214609 -0.025731303
000100 34 35 e2 bd d8 cd 6f 3d 42 f3 6b 3e e6 5c 51 3e
       -0.11045304 0.058545917 0.23042014 0.20445594
000110 6a ab 46 be 80 b6 55 3b 5e b8 0c be c0 4b 08 bc
       -0.19401327 0.003261 -0.13742206 -0.008318841
000120 d0 c6 0a be de 7e 68 be 4c 48 82 3d 1c cd c8 bd
       -0.13552403 -0.22704646 0.06361446 -0.098047465
000130 94 f5 e9 3d ca 9f 5d be 20 6e 8e bd 54 33 ca bd
       0.114237934 -0.21642986 -0.069545984 -0.09873071
000140 e4 99 12 3e eb b6 0a 3c f4 9e 4b bd ac b4 6a 3c
       0.14316517 0.008466463 -0.049712136 0.014325302
000150 9a 74 47 be 7d dd 52 3e 55 e1 24 be ac e7 5b 3e
       -0.19478074 0.20592304 -0.16101582 0.21475095
000160 74 fc 4f be 2b ee bb 3d 64 51 c4 3d d7 6b 80 be
       -0.20311147 0.09176286 0.095858365 -0.25082275
000170 4c b3 38 3d 2b 0e 3d be 48 f5 68 3c 19 2b 48 3e
       0.045092866 -0.18462436 0.014218636 0.1954769
000180 48 d7 63 3e 0f f6 c5 bd fe f1 54 3e fe 57 66 be
       0.22250092 -0.096660726 0.20795438 -0.22494504
000190 88 eb 6d bc 45 a6 01 3e b3 19 49 3e ce e5 0f 3e
       -0.014521487 0.12661083 0.1963871 0.14052507
0001a0 40 59 49 be b8 6d 52 be b0 fd e1 3c d2 a1 6c be
       -0.19662952 -0.20549667 0.027586788 -0.23108605
0001b0 70 be 2b 3e 73 ad ea 3d da f2 33 bd c3 19 2d 3e
       0.16771865 0.11458864 -0.043932773 0.16904359
0001c0 ac 75 68 3e cd e6 67 be 3a 6c 29 3e 42 d1 c2 bd
       0.22701138 -0.22646637 0.16545191 -0.09512569
0001d0 7b 1a 9d 3d 3e 7e 5e 3d 45 1e 3f be 19 d8 07 be
       0.076710664 0.054319613 -0.1866389 -0.13266028
0001e0 0f 17 58 be 3a dd b5 3c c0 4c 51 3c 8e 22 21 be
       -0.21102546 0.022200216 0.012774646 -0.15735838
0001f0 4d c9 2f 3e 1c 07 67 be 92 05 49 3d 69 a6 52 be
       0.17166634 -0.22561306 0.049077578 -0.20571293

mlp.6.bias f4 [8]
000000 40 18 06 be aa 18 0b be 64 3f ef bd 22 37 a8 3d
       -0.13095188 -0.13583627 -0.11682013 0.08213641
000010 fc ea 18 be 7d 77 f6 3d 53 d3 b9 bd 92 31 a5 3c
       -0.1493339 0.12034509 -0.0907351 0.020165239

mlp.8.weight f4 [1, 8]
000000 f8 db 47 be 06 c5 29 be 82 3f b1 ba f9 d6 9c 3e
       -0.19517505 -0.16579065 -0.0013522955 0.3063276
000010 4d 43 41 be 4c ed c6 3d 28 b6 1b 3e c8 ec ef bd
       -0.1887333 0.097132295 0.15206206 -0.11715084
