models/ncf_best.pt (torch, 113873 bytes, 11 tensors)

user_embedding.weight f4 [430, 32]
-0.44587383 -1.1722723 0.33298874 -0.17760684 -0.23047654 1.3326492 0.29881868 0.53057843
-1.3413684 0.43338025 -2.0440018 0.7385198 1.9586676 1.1590346 0.91345143 1.0832008
-0.25592402 2.071535 1.5742625 1.0249138 -1.2250423 -0.74886227 -0.8439563 0.5174965
1.8096632 -0.6476779 -1.026453 -0.18711992 -0.67387974 -0.029845215 -0.4990967 0.9070532
0.93608016 0.27996743 0.5149117 -0.5999709 1.0912772 -1.4536726 0.28331164 1.1365869
-0.7424381 -2.6877606 -0.49781638 -0.01236002 3.0781548 -0.19162351 -0.35442 -0.7607613
-0.03714384 1.5415456 1.5168473 -1.21656 -0.7800121 0.29355225 0.027032817 0.17850299
-0.6342203 -0.8343983 -0.37937996 0.0026084061 0.3663552 0.67659175 -0.023198325 -0.16636568
-1.2415112 -0.0531518 1.1457652 0.5939043 -0.027611066 0.5121621 0.43650267 0.622503
-0.9405151 -2.2429943 0.5604627 0.028821668 0.297282 -1.2451986 -0.15679453 -0.05804444
0.5888387 -0.37788635 -2.603058 0.034447767 -0.73414946 -0.20760058 1.0685278 0.09815219
-1.0708544 -1.0158795 -0.049156785 0.58224994 -0.051802173 0.7524764 0.25748685 0.5122601
1.2388669 -0.07898324 -0.6083922 -0.62499595 -1.2842643 0.5546198 0.45476913 -0.2354754
-0.94608563 -0.21465285 0.24965705 1.0462732 1.2403793 -1.8720355 0.6623546 -0.50702155
1.0954237 0.3172875 -1.3282559 -2.9384139 0.019784205 0.6769869 1.4818234 1.1766384
1.461675 -1.5286543 0.4303136 0.23726225 -0.73745453 1.3085545 1.2762208 1.0613672
1.2495593 -1.6493847 -2.2313168 0.7410672 0.1934934 -1.5714172 0.99814224 2.4173226
0.095138684 0.39588872 0.4653077 -0.25684312 0.40334618 0.13377753 -0.042509466 -1.4809308
1.2220749 1.6458725 0.58674103 0.6197517 1.4035101 -0.31891328 -0.7634901 -1.0425042
0.75066215 -0.64929914 -1.3607752 -0.06493651 1.6618217 1.7492496 -0.72582453 1.5490298
1.2213771 -1.9926431 -2.4087071 1.3232622 0.40683806 -0.68760717 0.81826895 -0.2772403
-0.82421625 0.44394594 0.45143315 0.10867808 -0.52815896 0.10553309 -0.9794387 -0.13078418
0.68743557 -0.5259597 0.022460397 -0.1773078 -1.3899794 -0.5239878 0.3349164 -0.9271927
-2.149488 1.7408946 0.044668905 0.49550915 0.23840319 0.6886453 1.0680625 0.06796454
0.516991 -0.8256477 -1.0345899 -0.53133655 0.76307863 1.0621252 1.6088631 -0.17875877
2.078813 0.2834756 0.37014046 -1.184569 0.80950814 0.26094392 1.2483908 -0.25216404
0.99387723 -1.0529791 1.0319158 0.02329271 1.9880656 1.8196998 -0.03863998 -0.64617294
-0.30594978 0.60256237 -0.33942053 -1.2133594 -0.67386395 -0.0071710325 2.0132465 -1.6530797
-0.53336835 2.2062762 2.1570106 1.5729251 -0.05197467 -0.48861343 -1.1484672 0.4975792
-1.3819214 -0.9526221 -0.33438942 1.2097734 -1.1457847 1.013046 -0.061633952 -1.1794502
1.6204532 0.14963683 1.2325993 -0.063628875 -0.5251187 -0.5991044 2.2201128 0.86479944
0.119586006 1.1432922 -0.8348403 -1.118522 -0.76938653 1.3433423 -0.032806564 -0.39930987
00000000: 9349 e4be 050d 96bf 807d aa3e 91de 35be
00000010: 0b02 6cbe 4094 aa3f c3fe 983e fdd3 073f
00000020: f6b1 abbf 04e4 dd3e edd0 02c0 a20f 3d3f
00000030: 9fb5 fa3f 3f5b 943f f4d7 693f 53a6 8a3f
00000040: 7908 83be 0894 0440 6f81 c93f 6030 833f
00000050: 30ce 9cbf 70b5 3fbf 850d 58bf a77a 043f
00000060: 0ba3 e73f 38ce 25bf d062 83bf 5d9c 3fbe
00000070: 6283 2cbf f47d f4bc 9a89 ffbe a334 683f
00000080: f3a2 6f3f e457 8f3e 41d1 033f b197 19bf
00000090: f9ae 8b3f f211 babf 390e 913e ae7b 913f
000000a0: 6c10 3ebf 4504 2cc0 cae1 febe ae81 4abc
000000b0: 7d00 4540 f438 44be 8a76 b5be 41c1 42bf
000000c0: 2424 18bd 5e51 c53f 0d28 c23f 3db8 9bbf
000000d0: dfae 47bf 7b4c 963e ed73 dd3c 7dc9 363e
000000e0: 435c 22bf 219b 55bf 173e c2be cbf1 2a3b
000000f0: e992 bb3e 1e35 2d3f 6a0a bebc c45b 2abe
00000100: d7e9 9ebf b4b5 59bd 6fa8 923f 1d0a 183f
00000110: 9a30 e2bc 0e1d 033f 477d df3e 5b5c 1f3f
00000120: 99c5 70bf 388d 0fc0 7c7a 0f3f 6b1b ec3c
00000130: 5935 983e ab62 9fbf bf8e 20be 02c0 6dbd
00000140: 22be 163f 527a c1be 8198 26c0 1a19 0d3d
00000150: 38f1 3bbf 3f95 54be 85c5 883f 0404 c93d
00000160: c211 89bf 5708 82bf a058 49bd 550e 153f
00000170: 842e 54bd 4ba2 403f 51d5 833e 7a23 033f
00000180: 3193 9e3f f7c1 a1bd 97bf 1bbf bcff 1fbf
00000190: c662 a4bf 90fb 0d3f 80d7 e83e 7720 71be
000001a0: ab32 72bf f5cd 5bbe 19a6 7f3e 48ec 853f
000001b0: c0c4 9e3f dc9e efbf 1290 293f 2acc 01bf
000001c0: d836 8c3f 8273 a23e 4a04 aabf f90e 3cc0
000001d0: 7c12 a23c 034f 2d3f 64ac bd3f 169c 963f
000001e0: 2b18 bb3f f2aa c3bf 1052 dc3e e0f4 723e
000001f0: d2c9 3cbf b77e a73f 345b a33f e1da 873f
00000200: 8ff1 9f3f 0a1f d3bf e5cd 0ec0 94b6 3d3f
00000210: 2223 463e 3324 c9bf 4086 7f3f 6ab5 1a40
00000220: 12d8 c23d edb1 ca3e d03c ee3e f180 83be
00000230: 6483 ce3e fafc 083e 681e 2ebd 248f bdbf
00000240: f36c 9c3f f3ab d23f a934 163f 0ca8 1e3f
00000250: 38a6 b33f 9a48 a3be 1674 43bf c770 85bf
00000260: 652b 403f 7838 26bf e22d aebf 6ffd 84bd
00000270: 93b6 d43f 69e7 df3f a3cf 39bf 9c46 c63f
00000280: 1656 9c3f ee0e ffbf 4228 1ac0 a860 a93f
00000290: 144d d03e 0607 30bf 137a 513f 71f2 8dbe
000002a0: d6ff 52bf e24c e33e 3f22 e73e 9d92 de3d
000002b0: 6d35 07bf bc21 d83d 7fbc 7abf 4aec 05be
000002c0: c7fb 2f3f 4ba5 06bf defe b73c 2d90 35be
000002d0: d8ea b1bf 1124 06bf 2a7a ab3e 805c 6dbf
000002e0: 3691 09c0 a2d5 de3f bef6 363d 60b3 fd3e
000002f0: f71f 743e 0f4b 303f 46b6 883f fe30 8b3d
00000300: 8659 043f a65d 53bf 716d 84bf ac05 08bf
00000310: 1f59 433f b8f3 873f 3aef cd3f 8a0c 37be
00000320: 460b 0540 b723 913e 0d83 bd3e f59f 97bf
00000330: ed3b 4f3f 719a 853e 45cb 9f3f a51b 81be
00000340: bd6e 7e3f 05c8 86bf d115 843f 5ad0 be3c
00000350: ef78 fe3f eceb e83f f544 1ebd 976b 25bf
00000360: 73a5 9cbe 8741 1a3f 87c8 adbe 5c4f 9bbf
00000370: 5982 2cbf fbfa eabb 08d9 0040 1e98 d3bf
00000380: d48a 08bf a133 0d40 760c 0a40 9c55 c93f
00000390: 64e3 54bd 8a2b fabe f900 93bf b3c2 fe3e
000003a0: cde2 b0bf 0bdf 73bf 1735 abbe dbd9 9a3f
000003b0: 13a9 92bf 7eab 813f e273 7cbd 39f8 96bf
000003c0: 036b cf3f 663a 193e d0c5 9d3f db4f 82bd
000003d0: 2e6e 06bf e85e 19bf 5416 0e40 7f63 5d3f
000003e0: 82e9 f43d 6657 923f 18b8 55bf bb2b 8fbf
000003f0: 84f6 44bf a4f2 ab3f 2d60 06bd 5872 ccbe

item_embedding.weight f4 [20, 32]
0.0838043 0.733391 1.830072 -1.1470217 -1.7652558 0.53507817 0.046138838 -1.9136823
0.91186327 0.6350514 0.31642684 0.14850165 -0.63264525 -1.9166123 -0.99746495 0.46159407
0.31066665 0.8240311 -0.816126 0.12669227 0.060462423 -0.28564647 -1.030954 0.14268486
-1.1079313 -1.386831 1.1917624 -0.23057874 0.72891074 -1.4791583 -0.0884408 -0.19540857
-0.28531975 0.56599087 -0.81665343 -1.2677335 0.5630329 -1.8681129 -1.152858 0.7873012
-0.18040246 1.1497961 -1.1777188 1.445726 0.7728284 -0.95036185 -0.44511315 -0.670033
0.56944615 -0.8359593 0.40687156 1.4597851 -0.5331516 -0.4529682 -0.023002073 0.87855184
0.24261479 -0.26699632 1.7044673 -2.0756 -0.4455825 -1.053515 1.0031416 0.8034331
-0.6862215 1.476101 -0.022947589 1.5656362 -1.785786 -0.50276196 0.33744538 -1.6323947
-0.34494662 0.8936428 0.71886814 2.7034407 -1.695799 0.12680107 -0.6456438 1.1472017
1.5665523 0.82644105 1.8799322 -0.32021952 -0.8306919 0.04590077 0.30492884 1.4886222
0.51943314 1.211671 -0.10464064 0.76517946 0.7905645 1.7674385 1.2795315 1.2829794
0.61118996 -0.5811505 0.7889353 -0.38613042 0.88222855 -1.8430507 -2.3020594 0.6370955
-2.455131 -0.17394204 -0.26329798 -0.2548345 0.90292066 -0.2041287 0.1063386 0.83127064
-0.5772338 -1.5695592 0.78903997 0.13648872 -1.0665624 0.47492877 2.2735624 -0.46811956
-0.044091143 -0.3215042 0.8250365 0.8802011 0.89350444 -0.41480148 2.261821 0.8699862
-1.6783307 0.11806486 -0.14882265 -1.9952632 0.26874697 1.0615642 1.2832377 -0.14252639
0.36543015 1.6727679 -1.2553796 0.58873296 0.7050289 0.6500032 0.76731944 1.0857723
-0.13529497 -1.7875569 0.90308684 0.7024672 1.1007049 -0.39969856 0.3648845 1.3629861
1.9727318 0.28281114 -1.9191204 -0.7325857 1.0260596 0.11196541 -0.64214116 -1.0820432
-1.4115171 0.44242623 -0.64136237 -1.9753609 -1.396516 0.37601945 0.073764265 0.88596183
0.9733427 0.8871425 1.2202288 2.3173873 1.5523293 0.6411845 0.06303582 -0.00017327811
-3.0172677 2.0705345 0.26546907 0.21298544 0.6666068 1.0818558 0.56332165 -0.6039862
-1.4918318 -1.5831096 0.090204425 -0.81032366 1.4636662 0.52871656 -0.045773808 1.3690984
-0.9400544 -0.23094267 0.19204149 -0.90175116 2.5744476 -3.2358336 0.32766852 -0.941284
1.1252421 1.3713737 -0.103976585 -0.07514146 -0.15011914 -0.69267386 0.43968242 -0.39796743
1.099156 1.9072146 -1.8695792 1.5042869 0.2055966 1.3229 1.1597967 0.40851325
-0.6519909 0.59382904 1.8121318 0.4660771 0.3630371 0.59235466 -0.51201695 0.8006145
1.6828847 0.072998546 -0.7291064 -0.045315847 1.5920936 0.44687182 -0.81621087 -1.6955338
1.4926081 0.9704863 -0.63563275 0.8635127 -1.0680248 -0.44258386 0.6480761 0.69180757
1.3626125 -1.3464133 -1.0317038 0.48121467 0.23367766 1.495764 0.36052823 -0.08223342
-1.0803622 -0.96350765 1.4322828 -1.2206236 -0.0841209 -0.33995438 1.4279879 0.98769855
00000000: 97a1 ab3d 83bf 3b3f cd3f ea3f 9bd1 92bf
00000010: e7f3 e1bf e2fa 083f 14fc 3c3d 8bf3 f4bf
00000020: df6f 693f bb92 223f b302 a23e d110 183e
00000030: 0af5 21bf 8d53 f5bf dd59 7fbf 0f56 ec3e
00000040: b30f 9f3e b4f3 523f a2ed 50bf 9ebb 013e
00000050: 72a7 773d 4140 92be 4df6 83bf fb1b 123e
00000060: b1d0 8dbf ae83 b1bf ac8b 983f d51c 6cbe
00000070: e599 3a3f 0f55 bdbf 7320 b5bd 2f19 48be
00000080: 6e15 92be c7e4 103f 3310 51bf 1745 a2bf
00000090: ed22 103f 531e efbf da90 93bf 928c 493f
000000a0: 6cbb 38be 852c 933f 7dbf 96bf 8d0d b93f
000000b0: 15d8 453f ea4a 73bf dfe5 e3be 4887 2bbf
000000c0: 39c7 113f 6e01 56bf 7851 d03e 3dda ba3f
000000d0: a07c 08bf 73eb e7be d86e bcbc c6e8 603f
000000e0: 0370 783e beb3 88be fc2b da3f a1d6 04c0
000000f0: 6423 e4be 94d9 86bf f266 803f cbad 4d3f
00000100: 36ac 2fbf e1f0 bc3f 95fc bbbc c466 c83f
00000110: a394 e4bf 02b5 00bf a4c5 ac3e 4ff2 d0bf
00000120: d89c b0be c6c5 643f be07 383f 2c05 2d40
00000130: f10f d9bf 24d8 013e e948 25bf 81d7 923f
00000140: c984 c83f a491 533f 9ea1 f03f d0f3 a3be
00000150: 39a8 54bf 7202 3c3d a21f 9c3e 2c8b be3f
00000160: 92f9 043f 0918 9b3f d54d d6bd cde2 433f
00000170: 6f62 4a3f 6d3b e23f b0c7 a33f ab38 a43f
00000180: f276 1c3f 47c6 14bf aaf7 493f e3b2 c5be
00000190: bbd9 613f 16e9 ebbf f154 13c0 b118 233f
000001a0: de20 1dc0 dd1d 32be fece 86be ab79 82be
000001b0: cf25 673f 1d07 51be 0dc8 d93d 27ce 543f
000001c0: 98c5 13bf 51e7 c8bf 86fe 493f b3c3 0b3e
000001d0: 1e85 88bf dd29 f33e 0c82 1140 5ead efbe
000001e0: ea98 34bd 339c a4be 9835 533f dc54 613f
000001f0: b5bc 643f dc60 d4be adc1 1040 6ab7 5e3f
00000200: 8ad3 d6bf fdcb f13d f764 18be c964 ffbf
00000210: 3499 893e 56e1 873f 2241 a43f 70f2 11be
00000220: a919 bb3e 421d d63f 47b0 a0bf 34b7 163f
00000230: c67c 343f 9c66 263f 0c6f 443f 96fa 8a3f
00000240: c48a 0abe aace e4bf b330 673f e4d4 333f
00000250: e6e3 8c3f 4aa5 ccbe 24d2 ba3e 5476 ae3f
00000260: 7a82 fc3f 9fcc 903e bda5 f5bf bd8a 3bbf
00000270: ec55 833f 1f4e e53d 5d63 24bf 6480 8abf
00000280: 98ac b4bf b185 e23e 5330 24bf a0d8 fcbf
00000290: 09c1 b2bf 9f85 c03e b811 973d 65ce 623f
000002a0: fd2c 793f c51b 633f 7530 9c3f 1350 1440
000002b0: bab2 c63f ab24 243f ed18 813d fdb1 35b9
000002c0: ea1a 41c0 a383 0440 90eb 873e db18 5a3e
000002d0: bea6 2a3f 407a 8a3f d935 103f d79e 1abf
000002e0: 58f4 bebf 56a3 cabf 19bd b83d 5f71 4fbf
000002f0: 6a59 bb3f f859 073f 517d 3bbd 9e3e af3f
00000300: 68a7 70bf 3c7c 6cbe 86a6 443e 2ad9 66bf
00000310: c0c3 2440 e617 4fc0 2bc4 a73e fdf7 70bf
00000320: ef07 903f 2c89 af3f adf1 d4bd c4e3 99bd
00000330: d5b8 19be 1353 31bf 0e1e e13e 63c2 cbbe
00000340: 25b1 8c3f 9c1f f43f 5f4e efbf 798c c03f
00000350: ea87 523e ca54 a93f 3874 943f a628 d13e
00000360: e0e8 26bf 2e05 183f eff3 e73f a8a1 ee3e
00000370: 00e0 b93e 8ea4 173f 8b13 03bf 12f5 4c3f
00000380: c468 d73f 4380 953d b8a6 3abf 1c9d 39bd
00000390: b9c9 cb3f 62cc e43e 32f3 50bf 4007 d9bf
000003a0: c80d bf3f ca71 783f d4b8 22bf 2b0f 5d3f
000003b0: 09b5 88bf 5a9a e2be 51e8 253f 4d1a 313f
000003c0: 166a ae3f 4557 acbf df0e 84bf c561 f63e
000003d0: 3249 6f3e 3275 bf3f 2897 b83e ff69 a8bd
000003e0: 4f49 8abf 70a8 76bf 0b55 b73f 653d 9cbf
000003f0: 9447 acbd 800e aebe 4fc8 b63f d0d9 7c3f

mlp.0.weight f4 [64, 64]
-0.049324583 -0.020320488 0.11727521 0.047308713 -0.11113566 -0.06538182 0.071974 -0.08941414
0.029908702 -0.11145404 0.04554697 0.029546546 -0.06643435 0.022197662 0.10248419 -0.11755359
-0.11052258 -0.101618685 0.10582285 0.106883205 -0.05503524 -0.01738235 0.052453794 0.09231524
0.0019645633 -0.11681791 0.048715495 0.110051654 -0.12308234 -0.011986948 0.0035619857 0.05929844
0.048133865 0.017290182 0.08320328 0.0024015163 0.12521715 0.0032640428 -0.040623806 0.08887151
0.0646325 0.03877588 -0.0015260413 0.11061478 0.096716344 0.09990858 -0.11808153 -0.009982212
0.062326927 0.06917503 0.07156226 -0.026118895 0.0842429 0.005382159 0.07810137 -0.0029255904
-0.10540546 0.10813663 0.029084913 -0.03801347 0.11134452 -0.062109925 0.0011138817 -0.056991667
0.097581714 0.10705549 0.01406274 -0.050256103 -0.05477166 0.022154748 -0.10930106 -0.041296948
0.047185224 -0.06831135 0.06691394 -0.0810603 -0.078399464 -0.105445236 -0.046955734 -0.015727738
0.0727837 -0.013210015 -0.03929872 -0.08143836 -0.0322644 0.07846912 -0.034102432 0.005185649
0.012125563 -0.07307224 0.07868222 0.047483094 -0.062342033 0.067498915 0.12434001 0.04352444
0.07042715 0.07970025 -0.055593383 0.11432392 0.03410378 -0.08443516 0.01929236 0.024180211
0.03243461 -0.050323494 0.11734876 0.07690138 -0.007890922 0.021234047 0.06656679 -0.055539552
-0.03988621 -0.025381958 -0.072495215 -0.06587951 -0.10940692 0.071580455 -0.10027466 0.065984406
-0.045473382 -0.062783636 -0.10320107 0.118818186 -0.044183746 0.004576355 0.01725456 -0.028930191
-0.033109337 -0.10916716 0.037555162 0.022404619 0.0120964935 -0.044060472 0.07840584 0.03267764
-0.03430205 0.07651961 -0.015039728 -0.07734807 -0.032366037 -0.12037859 -0.011453314 0.05921649
0.00103391 -0.048996035 -0.04891787 -0.023619099 -0.034733117 -0.04526737 0.10350394 -0.041443363
0.06452402 -0.053036936 0.09834257 0.02226546 0.048434693 -0.01745425 0.002130184 0.08565848
0.06021277 0.0057296017 -0.12328896 0.054097988 0.09509911 0.019082148 -0.09728872 -0.11498273
0.105443135 0.033978987 -0.11291815 0.09613675 -0.09688549 -0.02585314 -0.06709428 0.016058525
-0.056463856 0.11619832 0.114183836 0.07858413 0.06442694 -0.11666539 0.027964395 0.09296516
0.0020563665 0.11736938 -0.015163854 0.048306756 0.06512775 0.028403062 -0.03995237 -0.11935004
0.03276099 0.024705654 -0.11324047 -0.104237296 0.061529152 -0.060369965 -0.09140395 -0.033534
-0.11567673 0.06551027 0.09612331 0.1109529 0.040395778 0.03729217 -0.018402683 0.09498476
0.012514782 0.02279833 -0.096573 -0.07310414 -0.103487164 -0.061165426 0.033903718 -0.08266328
0.12409613 0.0060200132 0.065617554 -0.0006227573 0.09995782 0.007422323 -0.016731236 0.1221868
-0.023886262 0.1002802 -0.07232772 0.014081223 -0.10524176 0.11460643 0.07394107 -0.11422777
-0.06728078 0.0439755 -0.028457768 0.05443215 0.0592332 -0.09200015 0.046224177 -0.009434861
-0.0926846 0.0883768 0.0672739 0.06902751 0.016338862 -2.7680042e-05 0.0647229 -0.07313588
-0.059897736 0.12397816 0.060185485 -0.038313877 -0.03391653 0.00574044 -0.09586822 -0.056774233
00000000: 9308 4abd 2777 a6bc fc2d f03d c8c6 413d
00000010: 189b e3bd e7e6 85bd 1b67 933d c31e b7bd
00000020: 1803 f53c 0442 e4bd 768f 3a3d 990b f23c
00000030: bc0e 88bd dfd7 b53c 3be3 d13d f0bf f0bd
00000040: aa59 e2bd 751d d0bd a6b9 d83d 95e5 da3d
00000050: a26c 61bd 6e65 8ebc cad9 563d c60f bd3d
00000060: e7bf 003b 3a3e efbd e689 473d c362 e13d
00000070: 9812 fcbd e764 44bc 3470 693b ece2 723d
00000080: 0428 453d 24a4 8d3c 7b66 aa3d c262 1d3b
00000090: ed38 003e 8de9 553b 2665 26bd 4402 b63d
000000a0: 0b5e 843d 75d3 1e3d 7305 c8ba 008a e23d
000000b0: 3813 c63d df9c cc3d bbd4 f1bd 6f8c 23bc
000000c0: 854a 7f3d a3ab 8d3d 3c8f 923d 4bf7 d5bc
000000d0: 8b87 ac3d d25c b03b 9cf3 9f3d 43bb 3fbb
000000e0: d1de d7bd bd76 dd3d 7c43 ee3c 03b4 1bbd
000000f0: 9808 e43d fa66 7ebd abff 913a 1870 69bd
00000100: ecd8 c73d e93f db3d 6867 663c 58d9 4dbd
00000110: 4058 60bd e07d b53c 3cd9 dfbd fd26 29bd
00000120: 4b45 413d d2e6 8bbd 2d0a 893d f102 a6bd
00000130: e68f a0bd acf3 d7bd a854 40bd 75d7 80bc
00000140: 9f0f 953d d26e 58bc b2f7 20bd 28c9 a6bd
00000150: ad27 04bd 6bb4 a03d feae 0bbd 60ec a93b
00000160: 4caa 463c e6a6 95bd 2524 a13d a27d 423d
00000170: 5c5a 7fbd df3c 8a3d faa5 fe3d af46 323d
00000180: 1c3c 903d e239 a33d e3b5 63bd a922 ea3d
00000190: 68b0 0b3d 57ec acbd 030b 9e3c 9415 c63c
000001a0: 27da 043d 0220 4ebd 8c54 f03d 797e 9d3d
000001b0: ed48 01bc 06f3 ad3c 2b54 883d 717d 63bd
000001c0: b95f 23bd d3ed cfbc 5f78 94bd d6eb 86bd
000001d0: bc10 e0bd c698 923d cd5c cdbd d522 873d
000001e0: 4c42 3abd b594 80bd 155b d3bd f356 f33d
000001f0: 04fa 34bd 40f5 953b 6f59 8d3c 02ff ecbc
00000200: a89d 07bd 0893 dfbd 71d3 193d e489 b73c
00000210: 5f30 463c c178 34bd 3e93 a03d fdd8 053d
00000220: 4e80 0cbd 50b6 9c3d 3169 76bc aa68 9ebd
00000230: 4092 04bd 0d89 f6bd aea6 3bbc fd8c 723d
00000240: 4384 873a 11b0 48bd 1b5e 48bd d77c c1bc
00000250: 5044 0ebd 476a 39bd e0f9 d33d 84c0 29bd
00000260: 2b25 843d 423d 59bd d467 c93d 0e66 b63c
00000270: 7563 463d 37fc 8ebc 8f9a 0b3b b76d af3d
00000280: aaa1 763d 62bf bb3b ec7e fcbd da95 5d3d
00000290: 52c3 c23d 2a52 9c3c 4f3f c7bd 117c ebbd
000002a0: 92f2 d73d 8d2d 0b3d a241 e7bd 58e3 c43d
000002b0: e66b c6bd f7c9 d3bc ba68 89bd 2b8d 833c
000002c0: a546 67bd 63f9 ed3d 37d9 e93d b7f0 a03d
000002d0: 46f2 833d 44ee eebd 9615 e53c 8564 be3d
000002e0: 1bc4 063b 5c5f f03d d071 78bc 4edd 453d
000002f0: b361 853d 8aad e83c 19a5 23bd cb6d f4bd
00000300: 6330 063d 8363 ca3c 9fea e7bd 5d7a d5bd
00000310: fe05 7c3d 7f46 77bd fe31 bbbd f35a 09bd
00000320: ece7 ecbd 402a 863d 4cdc c43d 463b e33d
00000330: 0b76 253d adbf 183d 39c1 96bc 5f87 c23d
00000340: cd0a 4d3c 90c3 ba3c 11c8 c5bd a0b7 95bd
00000350: 14f1 d3bd 9988 7abd a0de 0a3d 5e4b a9bd
00000360: 1d26 fe3d 8843 c53b 7f62 863d 8940 23ba
00000370: afb6 cc3d f536 f33b f20f 89bc 133d fa3d
00000380: 1fad c3bc b55f cd3d 8e20 94bd eeb4 663c
00000390: fe88 d7bd c7b6 ea3d 6a6e 973d 40f0 e9bd
000003a0: 81ca 89bd a71f 343d 4420 e9bc 3ff4 5e3d
000003b0: 839e 723d 936a bcbd 9055 3d3d ad94 1abc
000003c0: 6cd1 bdbd e5fe b43d e6c6 893d 4c5e 8d3d
000003d0: 14d9 853c 7032 e8b7 718d 843d 44c8 95bd
000003e0: 5457 75bd 43e8 fd3d 0e85 763d 03ef 1cbd
000003f0: 0fec 0abd 4d1a bc3b 8f56 c4bd 198c 68bd

mlp.0.bias f4 [64]
-0.050024062 0.06732876 0.021987708 -0.007561197 -0.06874268 -0.1080468 0.069303885 0.030891163
0.06181717 -0.10767706 0.061422903 -0.047207024 0.023488032 0.06074055 0.11925667 0.03974047
-0.058130834 0.03976662 0.031486847 0.004235002 0.02111106 -0.018008558 -0.0211067 0.08810282
0.06784818 -0.042100005 -0.09048818 -0.08354657 0.10535787 0.10621244 0.087960154 -0.12277842
-0.026162853 -0.10653553 0.1145858 -0.06045992 -0.101560935 0.021178944 0.061919115 -0.11312819
0.04067573 -0.06864038 0.09571128 0.09613566 -0.084611125 0.08983907 -0.0024639296 0.08719271
0.12165507 -0.01216596 0.051610857 0.08764889 0.0028606341 -0.06099292 0.088223055 0.012687816
-0.048117504 -0.09434884 -0.090432696 0.10718364 0.094479665 0.12032363 -0.0017606517 0.10546756
00000000: 08e6 4cbd a9e3 893d 911f b43c ebc3 f7bb
00000010: f6c8 8cbd a447 ddbd 32ef 8d3d 770f fd3c
00000020: 0034 7d3d ca85 dcbd 9596 7b3d 275c 41bd
00000030: f969 c03c 15cb 783d d73c f43d e7c6 223d
00000040: 991a 6ebd 53e2 223d 5af8 003d c6c5 8a3b
00000050: 1af1 ac3c af86 93bc f5e7 acbc 406f b43d
00000060: fdf3 8a3d 0e71 2cbd de51 b9bd 771a abbd
00000070: dec5 d73d e885 d93d 7424 b43d 4173 fbbd
00000080: 7b53 d6bc 4d2f dabd f6ab ea3d d2a4 77bd
00000090: 2eff cfbd 777f ad3c e69e 7d3d c1af e7bd
000000a0: 989b 263d 5493 8cbd 4704 c43d c6e2 c43d
000000b0: 9948 adbd 8cfd b73d e179 21bb 1792 b23d
000000c0: 4b26 f93d bc53 47bc e865 533d 4381 b33d
000000d0: 7a79 3b3b b6d3 79bd 4aae b43d 8fe0 4f3c
000000e0: dc16 45bd f739 c1bd c734 b9bd 1983 db3d
000000f0: 8e7e c13d 3c6c f63d abc5 e6ba 60ff d73d

mlp.2.weight f4 [32, 64]
-0.10067784 -0.019369664 -0.09281345 0.072607435 -0.011791104 0.11417612 0.03017158 -0.020460011
0.08635818 -0.026932053 -0.019093782 0.06293147 -0.056149732 -0.098884694 0.076790035 -0.03810609
0.021782769 0.09759816 -0.12310789 -0.044114098 0.0059245867 -0.12270724 -0.011451132 -0.11622451
0.08442573 0.019895695 -0.108836554 0.11438173 0.010766312 -0.012651622 -0.11936774 -0.120411985
-0.099625014 -0.039802097 -0.030739715 -0.00020791302 -0.0514945 0.08637418 -0.073172905 0.12326667
0.10841207 0.030777216 0.036431808 -0.059765093 -0.09347953 -0.03812226 -0.017854627 0.0012931558
0.030131206 -0.01594206 0.08583719 -0.0038715715 -0.11964621 0.0803336 -0.115217455 -0.03800856
-0.11024231 0.06587628 0.07266386 -0.11463621 -0.1239276 -0.030783385 -0.11786219 0.04658156
-0.08819764 -0.023700766 0.053286172 -0.06049742 -0.09622217 -0.06573758 0.04355512 -0.005011575
-0.02413613 -0.072817594 -0.06758252 -0.00280489 0.12281657 -0.037356578 -0.10406377 0.06444522
0.0929219 0.059051394 0.119418465 0.019767994 -0.07835092 -0.057258748 0.037058447 -0.105761126
0.01322675 0.124851644 0.0144820325 0.052400716 0.09466824 0.034943108 -0.11360834 0.08596608
-0.08704412 0.0005132741 0.07282693 0.092058964 0.10225062 0.019175665 0.09893145 -0.07719503
0.063421234 -0.08900131 0.020035766 0.07475895 0.120421074 -0.0112810675 0.014173041 0.025831584
0.022067366 -0.0038857078 -0.024561929 0.02780708 -0.043266024 0.10521228 0.11102 0.008770586
0.10387685 -0.01940142 -0.022407524 -0.037383247 -0.09677321 0.11786796 0.006069265 -0.03284542
-0.049151335 0.110012196 -0.1215814 -0.030180996 -0.03449938 -0.056674715 0.10353743 -0.0044057914
-0.0990769 -0.107644774 -0.020449044 0.054529563 -0.08975655 0.09483391 0.017550996 -0.01327511
-0.053762723 0.11366124 -0.08463423 -0.061807055 0.11528957 0.05353387 -0.024911182 -0.07918208
0.012161268 -0.11210721 0.0022441277 -0.06666035 -0.033201613 0.015615462 -0.026022302 -0.080131926
-0.088595405 0.11195312 0.0074563604 0.082581684 0.09495912 0.07810463 -0.10979348 -0.04177677
-0.05181434 -0.07382177 -0.024926664 0.10924684 -0.06823457 -0.08021823 -0.06476521 -0.080996014
-0.040556625 0.046207774 -0.1123576 -0.099990994 0.045369722 0.018833635 -0.015934646 -0.058415875
0.08181038 0.02008286 -0.013621625 0.076782405 -0.079230115 -0.017395837 0.033274792 0.07175839
0.05313114 0.07691441 -0.0057157627 0.009503177 0.121646896 -0.07129903 -0.11957284 -0.102014445
0.06999028 -0.06596219 0.06015949 -0.018989146 -0.1247292 -0.09875665 0.07932354 0.022994988
0.014154546 -0.11769303 0.11480739 0.10518925 -0.06866516 -0.09589097 0.08218978 -0.06666878
-0.03969159 -0.039539326 -0.06718249 -0.06302115 0.038196217 -0.0048096045 0.043958146 -0.07092445
-0.024058815 0.036661405 -0.008325141 -0.07214787 -0.017835138 -0.069475785 0.024578992 -0.063203484
-0.052394263 -0.015438261 -0.09688682 0.052644886 -0.0638919 -0.030740077 -0.083115 -0.054540046
0.03165987 0.020740276 -0.058852587 -0.121772006 0.0047446815 0.06739863 0.12345718 -0.068072945
-0.034137275 0.037348844 -0.08925288 0.04791108 -0.124284945 -0.09661756 0.08014345 -0.06461116
00000000: 2f30 cebd 21ad 9ebc fa14 bebd 35b3 943d
00000010: 7a2f 41bc 2bd5 e93d 642a f73c c19b a7bc
00000020: 8fdc b03d 9ca0 dcbc 906a 9cbc 37e2 803d
00000030: 43fd 65bd 0f84 cabd 1844 9d3d 2215 1cbd
00000040: c771 b23c 8be1 c73d fd1f fcbd fcb0 34bd
00000050: 0923 c23b ef4d fbbd 879d 3bbc 1e07 eebd
00000060: 66e7 ac3d 4cfc a23c b3e5 debd f840 ea3d
00000070: 2f65 303c c048 4fbc 1377 f4bd 8f9a f6bd
00000080: 3308 ccbd 8607 23bd dbd1 fbbc 3a03 5ab9
00000090: e6eb 52bd f2e4 b03d addb 95bd 3c73 fc3d
000000a0: 2607 de3d 8020 fc3c 8539 153d 3ecc 74bd
000000b0: 3272 bfbd 1626 1cbd de43 92bc 1c7f a93a
000000c0: b8d5 f63c ec98 82bc 69cb af3d 31ba 7dbb
000000d0: 1209 f5bd f185 a43d 21f7 ebbd ddae 1bbd
000000e0: b8c6 e1bd 25ea 863d cad0 943d 64c6 eabd
000000f0: c1cd fdbd 702d fcbc bb61 f1bd 4ecc 3e3d
00000100: f7a0 b4bd 1c28 c2bc 9a42 5a3d 25cc 77bd
00000110: 2110 c5bd 6da1 86bd da66 323d 2338 a4bb
00000120: 22b9 c5bc 6421 95bd b468 8abd 3fd2 37bb
00000130: 4187 fb3d 3603 19bd 631f d5bd dbfb 833d
00000140: d64d be3d e0df 713d ab91 f43d 7df0 a13c
00000150: 7276 a0bd 2688 6abd 99ca 173d 4a99 d8bd
00000160: 03b5 583c 38b2 ff3d 0c46 6d3c 22a2 563d
00000170: 6ce1 c13d 8120 0f3d 7dab e8bd fc0e b03d
00000180: 3044 b2bd 3e8d 063a 4926 953d 6989 bc3d
00000190: c668 d13d 4916 9d3c 929c ca3d 6e18 9ebd
000001a0: fee2 813d 5246 b6bd 0c22 a43c 381b 993d
000001b0: 539f f63d 3ad4 38bc 0b36 683c c29c d33c
000001c0: 9fc6 b43c 5ca7 7ebb 1936 c9bc accb e33c
000001d0: b737 31bd 8979 d73d 745e e33d 81b2 0f3c
000001e0: 63bd d43d baef 9ebc fc8f b7bc 2d1f 19bd
000001f0: 0831 c6bd c264 f13d afe0 c63b eb88 06bd
00000200: e952 49bd 134e e13d abff f8bd 233e f7bc
00000210: 394f 0dbd bf23 68bd 6f0b d43d 755e 90bb
00000220: d4e8 cabd dd74 dcbd c184 a7bc 645a 5f3d
00000230: 48d2 b7bd 4838 c23d 1bc7 8f3c d97f 59bc
00000240: 4d36 5cbd 39c7 e83d b654 adbd 6529 7dbd
00000250: f01c ec3d 5546 5b3d 8912 ccbc 372a a2bd
00000260: 0e40 473c 7798 e5bd 3712 133b 3985 88bd
00000270: 6afe 07bd ffd7 7f3c b92c d5bc 351c a4bd
00000280: 8271 b5bd ad47 e53d 7c54 f43b 9620 a93d
00000290: ed79 c23d 52f5 9f3d 67db e0bd 1e1e 2bbd
000002a0: 463b 54bd de2f 97bd 0133 ccbc cfbc df3d
000002b0: 91be 8bbd 7549 a4bd 9fa3 84bd 3de1 a5bd
000002c0: b41e 26bd 5d44 3d3d be1b e6bd 14c8 ccbd
000002d0: 9ad5 393d ff48 9a3c 6089 82bc 7c45 6fbd
000002e0: 338c a73d cf84 a43c 3c2d 5fbc 1840 9d3d
000002f0: 6643 a2bd b781 8ebc 264b 083d 10f6 923d
00000300: 0aa0 593d 4d85 9d3d 4b4b bbbb 37b3 1b3c
00000310: 0222 f93d 3a05 92bd 9be2 f4bd f3ec d0bd
00000320: 1057 8f3d 2f17 87bd cc69 763d 208f 9bbc
00000330: 0672 ffbd ed40 cabd 6174 a23d fc5f bc3c
00000340: 78e8 673c 0b09 f1bd 2320 eb3d 766d d73d
00000350: 52a0 8cbd 7c62 c4bd 1e53 a83d a489 88bd
00000360: a693 22bd fdf3 21bd f996 89bd 3c11 81bd
00000370: a373 1c3d e399 9dbb 750d 343d d740 91bd
00000380: fe16 c5bc 452a 163d 2c66 08bc 43c2 93bd
00000390: ff1a 92bc 5249 8ebd e259 c93c d470 81bd
000003a0: 5e9b 56bd c3f0 7cbc 996c c6bd 2aa2 573d
000003b0: c2d9 82bd 9dd2 fbbc 3238 aabd 6265 5fbd
000003c0: c8ad 013d 83e7 a93c 690f 71bd 9a63 f9bd
000003d0: 4679 9b3b 4b08 8a3d 1ed7 fc3d d469 8bbd
000003e0: 87d3 0bbd 1afb 183d 37ca b6bd 693e 443d
000003f0: 1b89 febd 6ddf c5bd 4022 a43d db52 84bd

mlp.2.bias f4 [32]
0.058620572 0.06984818 -0.09523225 0.040922675 0.03131343 -0.04486927 -0.07836545 0.034072213
0.100131035 0.05227315 0.108225785 0.061521232 0.01073012 0.040944967 0.040254835 -0.05052537
0.0351843 -0.018493293 -0.0150535125 -0.111152455 -0.08604147 0.005160371 -0.0608689 -0.110526904
0.03797463 0.053872604 0.11276342 -0.049754456 -0.007237571 -0.072151266 -0.07411852 -0.09881588
00000000: 201c 703d 900c 8f3d 2009 c3bd 899e 273d
00000010: 8342 003d d7c8 37bd 117e a0bd 4e8f 0b3d
00000020: 8011 cd3d 5f1c 563d 7ba5 dd3d b0fd 7b3d
00000030: 63cd 2f3c e9b5 273d 41e2 243d b1f3 4ebd
00000040: 6a1d 103d 3f7f 97bc 02a3 76bc e6a3 e3bd
00000050: 8336 b0bd 5418 a93b ab51 79bd ee5b e2bd
00000060: 498b 1b3d 85a9 5c3d 82f0 e63d 54cb 4bbd
00000070: 2529 edbb 0bc4 93bd 73cb 97bd fb5f cabd

mlp.4.weight f4 [16, 32]
0.11284396 0.15538414 0.162555 0.11416803 0.16658106 0.030886183 -0.09647372 0.042979933
-0.08116719 0.13857202 -0.050024487 -0.14956328 0.17686157 0.017180853 0.02114587 -0.049739894
-0.010299875 -0.00698661 -0.16945338 0.0005129593 -0.16654544 -0.13505343 0.03344494 -0.034632374
-0.026990637 0.08161459 -0.16722451 0.0074367165 0.05581942 0.058454156 0.09218159 -0.0878011
-0.10762463 0.08471678 0.10324553 -0.15355167 -0.17670359 0.09521025 0.116302274 -0.09674677
0.06964265 0.1285184 0.10038418 -0.074816115 0.077468835 -0.13885775 -0.11791742 -0.042863663
-0.16813913 -0.048479717 0.08721089 -0.14994173 0.10811186 0.12983076 -0.14012188 -0.13499457
-0.014341487 -0.16678697 0.11245017 -0.047684025 -0.13625789 -0.013278949 -0.14629075 0.0075560426
-0.044415276 -0.14800698 0.10437873 -0.014099216 0.16995636 -0.011951603 -0.034794077 -0.012569139
-0.02251276 -0.10640808 -0.15820786 -0.11517418 -0.052744273 0.0476016 0.020671174 -0.15308233
0.17450285 -0.08272672 -0.04625724 0.06995843 0.004484193 0.066442356 -0.005560265 0.06928963
0.06725075 0.047353607 0.11267182 -0.17617787 -0.040660538 -0.12855807 -0.15311433 -0.13158056
0.109249055 0.0064595463 0.004547149 -0.15753548 0.089760534 0.012496164 0.089232 0.033748206
0.118610784 -0.155618 -0.04428663 -0.12693626 0.16705152 -0.018268418 0.16254245 0.10534556
-0.17738475 -0.018005366 0.17071211 -0.0450605 0.15843996 0.10324247 -0.10327053 0.09299215
-0.09571921 0.024178993 0.0069156485 0.117378615 0.023454858 0.14821064 0.14281651 0.047948863
0.018655887 0.033535924 0.027090028 0.14408676 0.14454402 0.1470927 0.0064910245 -0.002066184
0.01778262 0.1156428 0.13001655 -0.023250107 -0.0062077357 0.11700523 -0.06867466 -0.00668827
-0.16553468 0.050555844 0.14813377 0.07941658 0.16521402 0.13811837 0.04848143 -0.056732107
0.15552357 0.108803675 -0.0123541085 -0.065464474 -0.12562282 -0.006131671 -0.08468422 0.013586235
0.1129151 0.09477345 0.11662203 0.013210599 -0.14250985 0.11354804 -0.14422813 -0.17139757
-0.023966225 -0.02577366 -0.14416231 -0.15989769 -0.12798154 -0.06536576 0.03772427 -0.04258062
0.16420819 0.0009105821 -0.03243452 -0.08304408 0.10471469 0.1472198 0.12379116 0.010826447
0.05295271 0.036809612 -0.08852147 -0.023765799 -0.12229206 -0.116380095 -0.067683704 -0.13447191
-0.10450365 0.029850056 0.17193246 0.15502006 0.049472418 -0.0036815254 0.15119174 -0.14164934
0.060842987 -0.040130492 -0.12001921 -0.063357756 0.03582115 0.123756 -0.08028261 -0.10540706
0.164234 -0.13814759 0.052380547 0.033663344 0.065124765 0.058000132 0.01661432 0.05440102
0.14640485 -0.07011631 -0.17512819 -0.035858072 -0.015648663 -0.121747114 0.09243226 -0.051871683
-0.08828594 -0.08092008 -0.052579034 -0.16853361 -0.079342835 0.028245114 -0.042816345 0.12553741
0.10647461 0.03936058 -0.09494342 0.06575816 -0.11344645 -0.14374499 0.11775553 -0.16840218
0.082901314 -0.0055614337 -0.06769098 -0.02818407 -0.17377682 -0.049838033 -0.15551619 -0.16257249
0.116007395 0.0680104 -0.014047905 0.15454102 -0.0028121981 0.031973127 -0.037133057 0.15041414
00000000: bc1a e73d 051d 1f3e d174 263e eed0 e93d
00000010: 3a94 2a3e 0505 fd3c 0494 c5bd ba0b 303d
00000020: fc3a a6bd d3e5 0d3e 7ae6 4cbd 1e27 19be
00000030: 331b 353e dcbe 8c3c 1b3a ad3c 0fbc 4bbd
00000040: cfc0 28bc efef e4bb 3085 2dbe 1e78 063a
00000050: e38a 2abe 724b 0abe 90fd 083d adda 0dbd
00000060: 781b ddbc 8d25 a73d e73c 2bbe b3af f33b
00000070: e7a2 643d a06d 6f3d b4c9 bc3d 10d1 b3bd
00000080: 4d6a dcbd fe7f ad3d 6472 d33d a63c 1dbe
00000090: c9f1 34be 97fd c23d e32f ee3d 2c23 c6bd
000000a0: cea0 8e3d 549a 033e 3996 cd3d 3139 99bd
000000b0: fba7 9e3d ba30 0ebe b07e f1bd cf91 2fbd
000000c0: aa2c 2cbe ab92 46bd a09b b23d 538a 19be
000000d0: c069 dd3d 5bf2 043e 1c7c 0fbe 043c 0abe
000000e0: 8ef8 6abc 34ca 2abe 464c e63d 5350 43bd
000000f0: 3087 0bbe f38f 59bc 3ecd 15be ae98 f73b
00000100: cbec 35bd 248f 17be 84c4 d53d 6600 67bc
00000110: 0a09 2e3e a8d0 43bc 3c84 0ebd caee 4dbc
00000120: ae6c b8bc 7bec d9bd 3e01 22be 71e0 ebbd
00000130: 610a 58bd e5f9 423d 9856 a93c 9dc1 1cbe
00000140: e0b0 323e a06c a9bd 3b78 3dbd 5e46 8f3d
00000150: 23f0 923b ee12 883d e232 b6bb b9e7 8d3d
00000160: c3ba 893d dbf5 413d 7cc0 e63d f967 34be
00000170: aa8b 26bd baa4 03be 01ca 1cbe 0ebd 06be
00000180: f8bd df3d 9aaa d33b 4000 953b fb50 21be
00000190: 5fd4 b73d b6bc 4c3c 44bf b63d 8f3b 0a3d
000001a0: 36ea f23d 535a 1fbe e665 35bd 94fb 01be
000001b0: 8e0f 2b3e a6a7 95bc 8771 263e 6abf d73d
000001c0: 59a4 35be fd7f 93bc 28cf 2e3e 5c91 38bd
000001d0: 163e 223e ca70 d33d 807f d3bd ab72 be3d
000001e0: 6f08 c4bd 0613 c63c aa9c e23b 3364 f03d
000001f0: 6724 c03c 88c4 173e 7e3e 123e 0766 443d
00000200: 3bd4 983c f75c 093d e8eb dd3c 7b8b 133e
00000210: 5903 143e 789f 163e a9b2 d43b d168 07bb
00000220: dbac 913c 22d6 ec3d 0f23 053e 0277 bebc
00000230: 436a cbbb 70a0 ef3d 4da5 8cbd 4629 dbbb
00000240: ec81 29be a513 4f3d 61b0 173e 29a5 a23d
00000250: dd2d 293e e76e 0d3e 7794 463d ed5f 68bd
00000260: 9241 1f3e 76d4 de3d e368 4abc 3d12 86bd
00000270: 45a3 00be 2fec c8bb ec6e adbd cd98 5e3c
00000280: 0840 e73d 9518 c23d 88d7 ee3d 4571 583c
00000290: 1aee 11be e08b e83d 8ab0 13be d882 2fbe
000002a0: d154 c4bc 4823 d3bc 499f 13be 38bc 23be
000002b0: 980d 03be 7cde 85bd c484 1a3d 0469 2ebd
000002c0: 3126 283e 21b4 6e3a 0fda 04bd 0413 aabd
000002d0: a874 d63d cac0 163e 3886 fd3d 6961 313c
000002e0: f1e4 583d adc5 163d bf4a b5bd 7eb0 c2bc
000002f0: 4274 fabd b058 eebd c19d 8abd 01b3 09be
00000300: 0206 d6bd 1b88 f43c 100f 303e 94bd 1e3e
00000310: 97a3 4a3d bf45 71bb 02d2 1a3e 860c 11be
00000320: 7f36 793d df5f 24bd a2cc f5bd b6c1 81bd
00000330: 33b9 123d c973 fd3d 366b a4bd a8df d7bd
00000340: f52c 283e 9076 0dbe fc8c 563d 93e2 093d
00000350: 2260 853d 8c91 6d3d c11a 883c 9bd3 5e3d
00000360: 27eb 153e 2499 8fbd ce54 33be eadf 12bd
00000370: a031 80bc 8d56 f9bd 204d bd3d 6777 54bd
00000380: 42cf b4bd 6db9 a5bd 1d5d 57bd 1394 2cbe
00000390: 7f7e a2bd 4c62 e73c 3160 2fbd e18c 003e
000003a0: 5c0f da3d 8f38 213d b271 c2bd 37ac 863d
000003b0: 9d56 e8bd e331 13be d029 f13d 9f71 2cbe
000003c0: 2ac8 a93d b03c b6bb 92a1 8abd 47e2 e6bc
000003d0: 8df2 31be f722 4cbd a33f 1fbe 6779 26be
000003e0: 4995 ed3d 0949 8b3d 2f29 66bc 0040 1e3e
000003f0: db4c 38bb 41f6 023d d518 18bd 2a06 1a3e

mlp.4.bias f4 [16]
-0.017714288 0.0690427 -0.11309613 0.052297812 -0.10482933 0.121864915 -0.09079587 -0.02986649
0.14897281 0.056688488 -0.16241452 0.1299836 -0.08463554 -0.07847052 0.14133981 0.11321443
00000000: 8e1d 91bc 4266 8d3d f29e e7bd 3b36 563d
00000010: c3b0 d6bd 5094 f93d 2ff3 b9bd 92aa f4bc
00000020: 548c 183e 3032 683d fe4f 26be 6c1a 053e
00000030: 6655 adbd 27b5 a0bd 62bb 103e f8dc e73d

mlp.6.weight f4 [8, 16]
0.062414434 -0.18613096 -0.027660072 -0.14748305 -0.09159157 -0.19712871 0.07791978 0.06422809
0.027557425 -0.02111342 0.012188077 0.14560279 0.06884419 0.23585236 0.23907599 0.10855183
-0.002921939 -0.2230987 0.248436 -0.013672829 0.07588574 0.06482789 0.1449394 0.157323
-0.033052444 0.032637984 -0.24733427 -0.12449983 0.027516395 -0.023136348 0.059093893 -0.15755528
-0.18576697 0.047878418 -0.22694677 0.037101727 -0.16448882 0.21235569 -0.2135214 0.23409265
0.22337143 0.23083526 0.14399692 0.020158254 0.14205046 -0.16349435 0.11901904 0.081770696
-0.027666956 0.15862502 -0.23049766 -0.17272598 -0.118980706 0.045220315 -0.16495675 0.06823161
0.18985619 0.22751479 0.17268282 0.102111064 0.015624404 0.004211217 -0.02371976 0.12330514
0.09099531 -0.2039161 -0.23589072 0.20107514 0.21567619 0.15910119 0.06803405 0.10921252
0.07254213 -0.16070274 -0.017088622 -0.23637646 -0.044792354 0.2100732 0.12973595 -0.20088565
0.07362572 0.21215892 0.17936012 0.047764253 -0.18679272 -0.068807475 0.096310236 0.20850572
0.043425635 -0.034578815 -0.021973306 0.013708675 0.22772177 -0.15149157 0.12348888 -0.23771352
0.20935531 0.06261635 0.085178256 -0.12278249 0.1574529 0.17388748 -0.08488625 0.1353922
0.21837531 -0.20984443 0.108604215 0.22766735 0.20152788 -0.08713592 -0.18818714 -0.19704539
-0.22336031 -0.065638654 0.075010836 0.16029473 0.07471605 -0.20855461 0.029870963 0.006758809
-0.15132526 -0.085176796 -0.00090220047 0.2052677 0.16503 -0.17699844 -0.23083366 0.17111614
00000000: 47a6 7f3d 1d99 3ebe 6097 e2bc cc05 17be
00000010: 5c94 bbbd 1cdc 49be 6894 9f3d 048a 833d
00000020: 1cc0 e13c 0df6 acbc 80b0 473c e618 153e
00000030: 2ffe 8c3d 4883 713e 56d0 743e 6c50 de3d
00000040: 007e 3fbb fc73 64be 0266 7e3e 0004 60bc
00000050: fc69 9b3d 7cc4 843d fe6a 143e 4819 213e
00000060: 0062 07bd 68af 053d 3245 7dbe c4f9 febd
00000070: 106a e13c 7088 bdbc 700c 723d 2c56 21be
00000080: b239 3ebe 291c 443d bc64 68be fbf7 173d
00000090: c26f 28be c573 593e 5ba5 5abe fcb5 6f3e
000000a0: 7bbb 643e 1460 6c3e ee73 133e ec22 a53c
000000b0: ad75 113e 106b 27be 41c0 f33d 6577 a73d
000000c0: d0a5 e2bc 996e 223e 9407 6cbe 14df 30be
000000d0: 28ac f3bd f038 393d 6cea 28be 04bd 8b3d
000000e0: a969 423e a3f9 683e c4d3 303e 9b1f d13d
000000f0: 80fd 7f3c 40fe 893b f14f c2bc 6887 fc3d
00000100: c05b ba3d 62cf 50be 568d 71be a4e6 4d3e
00000110: 38da 5c3e 6ceb 223e 7055 8b3d d0aa df3d
00000120: f890 943d 428f 24be 70fd 8bbc ac0c 72be
00000130: 3078 37bd 6e1d 573e 80d9 043e f8b4 4dbe
00000140: 15c9 963d 3040 593e 2eaa 373e 73a4 433d
00000150: 9746 3fbe efea 8cbd 4d3e c53d 8682 553e
00000160: 14df 313d 84a2 0dbd 5d01 b4bc 5a9a 603c
00000170: e52f 693e 9b20 1bbe bde7 fc3d 2c6b 73be
00000180: 3d61 563e 003d 803d f071 ae3d 6375 fbbd
00000190: 553b 213e 8f0f 323e d8d8 adbd 41a4 0a3e
000001a0: c79d 5f3e 75e1 56be e36b de3d a121 693e
000001b0: 535d 4e3e 5174 b2bd 21b4 40be 44c6 49be
000001c0: 91b8 64be 8f6d 86bd 489f 993d 4d24 243e
000001d0: ba04 993d 578f 55be f3b3 f43c 0079 dd3b
000001e0: 02f5 1abe 2c71 aebd a681 6cba b231 523e
000001f0: a0fd 283e 143f 35be a95f 6cbe 1239 2f3e

mlp.6.bias f4 [8]
-0.08266449 -0.2170803 -0.13951074 -0.09450092 -0.20906508 0.18825707 0.029605316 -0.024063928
00000000: 004c a9bd 4c4a 5ebe e7db 0ebe b389 c1bd
00000010: 2815 56be 76c6 403e d986 f23c b721 c5bc

mlp.8.weight f4 [1, 8]
-0.020707164 0.2346637 0.102265686 -0.21268329 0.16361314 -0.14283456 0.28112325 -0.07814829
00000000: 12a2 a9bc ae4b 703e ac70 d13d a6c9 59be
00000010: 348a 273e 3943 12be 63ef 8f3e 360c a0bd
