models/ncf_best.pt (torch, 113474 bytes, 11 tensors)

user_embedding.weight f4 [430, 32]
000000 3a 9f f2 3e e5 74 c9 be 8f 78 5b 3f f0 7d b9 3f
       0.47387105 -0.39346996 0.8573083 1.4491558
000010 a6 43 6a bf 47 14 15 3f 91 4e 16 be ef 5c 01 3f
       -0.91509473 0.58234066 -0.14678408 0.5053243
000020 fa f2 47 3f 78 c5 d1 3e 83 91 fc 3d 43 fa ea 3c
       0.7810513 0.4097097 0.12332442 0.028683787
000030 61 4c c6 3f fb b1 85 3f 51 54 d5 3f 1c 85 93 3f
       1.5492059 1.044494 1.6666356 1.1524997
000040 05 b2 b4 3e 43 af 9a 3f 5e cd 0e bf ff a2 24 3d
       0.35292068 1.2084736 -0.55782115 0.040194508
000050 59 27 3a 3e 3f a0 9f be 80 f3 ff 3e 87 db c4 bf
       0.18179072 -0.31176946 0.49990463 -1.5379494
000060 27 4e b0 3f 22 da 87 bf 96 6f 4d bc 01 24 3c bf
       1.377385 -1.0613444 -0.012538811 -0.7349244
000070 1c 8f 24 c0 82 2c 7e be 4f e5 65 3f be 26 6f 3e
       -2.5712347 -0.24821666 0.8980302 0.23354623
000080 c4 92 4e 3e b1 2e ae bc 67 02 c1 3e b7 4e 71 bf
       0.20173174 -0.021262499 0.37697145 -0.94260734
000090 6f 7e 2e 40 41 b4 6d 3e 55 2f 22 be d8 18 88 bf
       2.726467 0.23213293 -0.15838368 -1.0632582
0000a0 81 c3 6d 3f 63 1b 28 bf 43 02 62 bf 18 ac 45 3f
       0.9287644 -0.6566679 -0.882847 0.7721572
0000b0 56 8c c2 3f 74 c6 a2 bd eb 90 ff 3e 08 9d 46 3f
       1.5199077 -0.07948008 0.4991525 0.7758336
0000c0 ee 69 a0 3e fb 7e 23 bf 6f 2f 05 be 3d 4a 3c c0
       0.31330818 -0.6386563 -0.13006376 -2.9420311
0000d0 c9 93 83 be 2d ee 97 3d 6c f7 03 3f ae 56 f7 3f
       -0.2569869 0.07418475 0.5154941 1.9323328
0000e0 f2 0d b2 be 7a c2 d9 bd ce 57 f2 3e 61 e9 ce bf
       -0.34776264 -0.106327966 0.47332615 -1.6164972
0000f0 34 69 31 3f c8 dc ae bd d1 b0 84 be ca 43 bc bf
       0.6930115 -0.085382044 -0.2591615 -1.4708188
000100 6c 60 0d 3f 80 d2 8d 3f cd b0 68 3f fc d0 21 3f
       0.55225253 1.1079865 0.90894777 0.6320951
000110 91 ea 00 40 7b f2 32 3f 06 93 cc 3e a1 03 0f 3e
       2.0143168 0.69901246 0.3995592 0.13966228
000120 2a 36 41 3f 23 2e 72 be 29 99 b3 bf c8 92 a3 3f
       0.7547327 -0.23650412 -1.4031116 1.2779169
000130 5b 96 78 bf 2d 86 91 3d fe 25 e8 be 51 d3 8d bf
       -0.97104424 0.0710567 -0.45341486 -1.1080114
000140 98 4e f2 3f ed 6d 28 3f 65 ce b6 bf 2b a3 f3 be
       1.8930235 0.65792733 -1.4281737 -0.47585425
000150 5b e7 0d 3f 4e 48 5f 3d 43 15 12 bf 36 85 81 3f
       0.55431145 0.054512314 -0.5706369 1.0118778
000160 60 76 e7 3e 55 22 11 bf 89 2d 68 3f f8 12 cb bf
       0.452075 -0.5669301 0.9069448 -1.5865164
000170 97 48 cc 3f f3 72 20 3f 9f d2 5c 3e e8 13 81 3f
       1.5959653 0.626754 0.2156472 1.00842
000180 62 b1 c1 3f 4d d1 e2 bd 55 fc b9 bf 06 02 a5 be
       1.5132258 -0.11075077 -1.4530131 -0.32228106
000190 f4 bf c1 3e a5 5a 5c bf 21 fd df bf b5 d1 4a 3d
       0.3784176 -0.8607581 -1.7499124 0.0495164
0001a0 bb 46 2d 3e 21 80 9b bd 3f ac 4a 3f 05 93 7a bd
       0.16921513 -0.07592798 0.79169077 -0.061175365
0001b0 dc 9b 23 3f 27 cb d0 bf 18 04 d6 3f fd a3 8b bf
       0.639097 -1.6311997 1.6719999 -1.090942
0001c0 99 db c4 3f 47 38 8e 3e 79 7b 60 bd a3 63 c7 3f
       1.5379516 0.2777731 -0.054805253 1.5577282
0001d0 68 ca 8f 3f 64 e6 d7 3f 1c 81 e7 3e c3 6c d7 3e
       1.1233644 1.6867185 0.4521569 0.42075166
0001e0 40 7d c0 3f 84 81 bf 3f 99 b1 5e bf cf 6c b8 bf
       1.5038223 1.49614 -0.8698974 -1.4408206
0001f0 3f 9e cb 3e 8a 5e 08 bf b8 68 77 be dd 29 f3 3f
       0.3976917 -0.53269255 -0.24161041 1.8997151
000200 e8 75 71 3f 61 c6 96 3f f9 16 c5 3e ee 0b 4c 3f
       0.94320536 1.177929 0.3849409 0.79705703
000210 29 b1 22 bd e7 88 10 3f 68 64 ba be e8 f1 a7 3d
       -0.039719734 0.56458896 -0.3640473 0.08200437
000220 2d 3d 75 3e 6d 26 8d 3f b7 4f f1 be f1 6f 9f 3f
       0.23949118 1.1027352 -0.4713113 1.2456037
000230 e8 6c 20 bf 98 79 87 be d7 53 5d c0 3b 93 41 3f
       -0.6266618 -0.26459956 -3.4582422 0.7561528
000240 a9 18 c9 3f fc 57 e5 bc 73 9c 1b be b4 bd 1a 3d
       1.5710651 -0.027996056 -0.151964 0.03777857
000250 75 45 b6 bf d9 e4 4a 3f 31 37 d0 be db 5f ee 3e
       -1.4239947 0.79255444 -0.40667108 0.46557507
000260 31 43 08 40 09 54 02 40 b0 61 5e 3e 72 14 57 3f
       2.129101 2.036379 0.21716952 0.8401557
000270 19 c0 19 3f 11 92 2e 3f b6 16 2d be e4 a7 b1 3f
       0.6005874 0.6819163 -0.16903195 1.3879361
000280 60 2d 72 3e cf 66 97 bc 45 02 71 3f e4 1d 75 3d
       0.23650122 -0.01848164 0.9414409 0.05984296
000290 53 d5 8f 3f 30 be 52 3f 92 51 9a bf d5 25 06 3f
       1.1236976 0.82321453 -1.2056143 0.5240148
0002a0 50 d5 1c bf d0 6d b0 3e fc 27 7f bf c3 ff 01 c0
       -0.6126299 0.3445878 -0.99670386 -2.0312355
0002b0 dd e9 25 bf 4b d5 69 3f bc 58 8d 3f 10 c9 74 3f
       -0.6480997 0.91341084 1.1042705 0.956193
0002c0 af 79 a1 3f c8 f3 7b 3f db f6 9c 3f 69 de 8a bf
       1.261526 0.98418856 1.2262834 -1.0849124
0002d0 3f 32 02 bf 5c 53 a6 3f f3 82 f7 bf 36 f8 86 3e
       -0.5085792 1.2994189 -1.9336838 0.26361245
0002e0 6a 26 0a bf 11 96 16 3f 5d 3f 21 3d 13 7e 97 bc
       -0.53964865 0.58822733 0.03936707 -0.018492734
0002f0 2a 37 df be 41 8f 8e 3f f5 4b 38 bf a1 66 10 3f
       -0.43596774 1.1137468 -0.719909 0.564066
000300 ff 06 81 bf 40 99 06 bd d7 fc 91 3e ef 27 7e bf
       -1.008026 -0.032860994 0.28513214 -0.99279684
000310 52 17 c0 be 04 20 8f 3f e1 b1 6f 3f 44 e3 27 3e
       -0.37517792 1.1181645 0.93630797 0.16395289
000320 e8 aa 0e 3e 84 80 8d bf 5f 8c af 3e fe e9 27 3f
       0.13932383 -1.1054845 0.34286782 0.6559142
000330 c4 bf aa be 5c d7 af 3f da 90 8f 3e 29 1b 95 3e
       -0.3334943 1.3737597 0.280402 0.29122284
000340 e5 94 e5 be 22 9e 25 3b 46 26 f8 3e 83 d0 b1 3f
       -0.4484016 0.0025271256 0.484667 1.3891758
000350 b4 2d 27 bf c8 10 ec 3e 21 e3 fb be 76 28 42 be
       -0.6530411 0.46106553 -0.49196723 -0.18960747
000360 bb f0 8f 3f d1 8a a2 bf 21 0c 06 bf 77 86 8c bf
       1.124534 -1.2698613 -0.5236226 -1.0978535
000370 a9 8f db 3e 34 bc 71 bf 63 13 f5 be e7 61 57 3e
       0.42883042 -0.944278 -0.47866353 0.2103344
000380 52 4d d9 3e c0 e1 49 3f 31 2b e6 3f 06 25 04 40
       0.42441803 0.7886009 1.7981931 2.0647597
000390 30 73 69 bf ea 86 55 3f b3 01 17 40 8c 79 9d 3e
       -0.9119139 0.8340899 2.3594787 0.30756795
0003a0 ed 03 3a bf ff e8 1c bf 1f b7 fd 3e df f5 05 c0
       -0.7266224 -0.61293024 0.49553773 -2.0931318
0003b0 9b ea 0b 3f bd a1 e5 3e 3f ad b4 bf f5 f2 5f 3d
       0.54654855 0.4484996 -1.411537 0.05467506
0003c0 82 8e 31 bf 50 91 85 3f 9f 47 99 3f 24 24 8b bf
       -0.69358075 1.0434971 1.1974982 -1.0870404
0003d0 91 ad 07 3f 4a f3 9a 3f 76 87 27 be 65 aa f3 bf
       0.52999216 1.2105496 -0.16360268 -1.9036375
0003e0 2c ba 15 3f 19 dd b2 be dc 5a 1f bf 6b aa eb be
       0.584872 -0.3493431 -0.62248015 -0.46028456
0003f0 a0 a7 fd be 14 92 cb 3e 91 89 27 3c 71 49 0a 40
       -0.4954195 0.39759886 0.0102256695 2.1607325

item_embedding.weight f4 [20, 32]
000000 7c 85 ae bf 40 87 10 bf ab a9 7b bf 23 99 4b 3f
       -1.3634486 -0.56456375 -0.9830577 0.79530543
000010 d1 56 ae bf 50 53 54 bf e1 85 5a 3e a3 72 78 3f
       -1.3620244 -0.82939625 0.21340133 0.9704992
000020 a0 43 be 3f 4c 30 c3 3f 80 43 08 c0 2d 1b e4 3f
       1.4864388 1.5249114 -2.1291199 1.7820793
000030 28 86 ea 3f ae fe 32 bf ee 6e cb 3f 76 fa 0b bf
       1.8322191 -0.6991986 1.5893228 -0.5467905
000040 b3 88 cb 3e 8f 1e 78 3f 53 88 04 c0 c8 a2 c7 3f
       0.3975273 0.9692163 -2.0708206 1.5596552
000050 26 3f 3f 3f d1 b2 35 3f c4 08 92 bf fc 2e 96 3f
       0.7470573 0.7097598 -1.1408925 1.1733088
000060 f9 47 d0 3e 92 06 30 3f 2a e8 f8 be c4 52 07 bf
       0.4067991 0.68760026 -0.48614627 -0.52860665
000070 83 93 4c 3f 3b ba 3a bf 3c 36 68 3f d1 82 ed 3d
       0.79912585 -0.72940415 0.90707755 0.11597217
000080 26 e9 91 bf d2 66 1c bf aa 57 7e 3f d9 47 dd 3c
       -1.1399276 -0.6109439 0.99352515 0.027011799
000090 15 c3 9a 3f 2f 94 e1 3f 88 e8 1e 3e 62 4b 7f be
       1.2090784 1.7623347 0.15518391 -0.249311
0000a0 45 a9 e4 bf 09 36 7f be e1 3e 1a be d7 1a cd bf
       -1.7864157 -0.24922957 -0.15063049 -1.6023816
0000b0 26 fc d5 bd 3d 01 a6 be b9 85 36 3f 97 89 45 bf
       -0.10448484 -0.3242282 0.71297795 -0.7716307
0000c0 02 d1 38 40 df c1 65 bf 0a 0e 85 3f d1 6e 11 40
       2.8877568 -0.8974895 1.0394909 2.2723887
0000d0 67 27 c8 3e e2 11 9c bf 73 32 a9 3f 2d 5d 66 be
       0.39092562 -1.2192957 1.3218521 -0.22496481
0000e0 db 65 58 3f 55 0b dc 3f 67 29 a3 bf 11 cb a9 be
       0.8453042 1.7190958 -1.274701 -0.3316274
0000f0 44 0f 60 bf 92 ff 81 bf 12 b6 d9 bd 58 42 c2 3f
       -0.87523293 -1.0156119 -0.1063043 1.5176497
000100 19 2b 90 3f e1 91 2d be 6d a4 fc 3e e4 dc 4e bf
       1.1263152 -0.1695018 0.49344197 -0.808058
000110 38 d1 05 3d 5a ab 79 bf d6 45 46 3f 30 10 80 bf
       0.03267023 -0.97527087 0.7745031 -1.000494
000120 b6 cd 0f bf c7 cc d7 be 88 3b 27 bf dd d3 e7 3e
       -0.56173265 -0.4214842 -0.6532521 0.45278826
000130 26 78 94 be 20 30 57 bf b9 b0 53 3f f7 b2 32 3e
       -0.28997916 -0.8405781 0.8269153 0.17451082
000140 34 3b 7b be 53 eb 26 3f 20 03 e0 3e 04 3a d8 be
       -0.24534303 0.65202826 0.43752384 -0.42231762
000150 39 55 a0 be a5 aa 4f 3f cd f6 98 3f 05 76 a9 bf
       -0.3131502 0.8111976 1.1950318 -1.3239142
000160 81 21 f0 3f 3c 57 18 3f f4 fd 89 3f fd d6 81 3f
       1.8760225 0.5950811 1.0780625 1.0143734
000170 3b 52 7d be 95 cc c0 3e 61 84 f0 3f 77 f4 88 3e
       -0.247384 0.37656084 1.8790399 0.26749012
000180 27 8c 95 3f c9 e5 d7 3f 8e a1 70 bf 73 0c cc 3e
       1.1683396 1.6867 -0.9399651 0.39853248
000190 83 30 2a 3e 92 24 b8 bf 25 62 b5 bf e8 5e 8a bf
       0.16620068 -1.438616 -1.4170576 -1.0810213
0001a0 66 13 13 3f 96 30 e6 bf 0b fa 6a bf e3 2a 00 40
       0.57451475 -1.7983577 -0.91787785 2.0026176
0001b0 d4 a6 6e bc 25 74 88 3d 02 e1 ea 3e 70 8e 57 3f
       -0.014566142 0.06662778 0.45874792 0.8420172
0001c0 72 cf 24 bf fc 89 c2 bc 8a 05 9f bf 7f 7f f4 bb
       -0.64379036 -0.023747437 -1.2423565 -0.007461488
0001d0 6b f1 02 3e 44 fe 2a 40 1e 19 17 bf 51 9d 7a 3e
       0.12787406 2.6717691 -0.590227 0.24474074
0001e0 b2 98 b7 bf aa e8 d9 be bf c5 fb be a9 d4 38 3f
       -1.4343474 -0.4256032 -0.49174306 0.72199494
0001f0 7b 5b 05 3f 1b 93 29 bf b7 e6 91 3e 45 b5 4f be
       0.52092713 -0.6624009 0.28496334 -0.20283993
000200 7b 51 9a 3f 0b 13 89 bf 7a 46 03 bc d8 c5 1d 3e
       1.2056116 -1.0708936 -0.008012408 0.15407503
000210 72 2b a8 bf df 44 ce 3f 5f d5 8c bf 29 49 97 bf
       -1.3138258 1.6114768 -1.1002616 -1.1819202
000220 09 69 56 3f 01 2e 03 bf a8 74 2c be b4 71 1e bf
       0.8375402 -0.5124207 -0.16841376 -0.6189225
000230 9d fc 9a bf 30 02 a1 3f 47 63 6b bf 82 65 0d c0
       -1.2108341 1.2578793 -0.9194836 -2.2093205
000240 28 21 83 be b5 26 61 3e a4 b1 ee be ff 50 79 bf
       -0.25611234 0.21987422 -0.46619904 -0.97389215
000250 46 6b 96 bf ad c6 54 bf 9d ad b8 bd 61 7c 14 3f
       -1.1751487 -0.83115655 -0.09017489 0.5800229
000260 e0 41 d0 be 0c 72 24 3e ee 74 24 3c df bd e5 3e
       -0.4067526 0.1605913 0.010037644 0.44871423
000270 d9 a2 86 3f 3a 52 7e 3f 25 83 c5 bb 79 6f 24 bf
       1.0518447 0.9934422 -0.0060275965 -0.64232594
000280 6c 27 39 3e 20 c7 a4 be d8 94 0b bf 78 04 e2 bf
       0.18081445 -0.3218317 -0.5452399 -1.7657614
000290 77 c4 a8 be db 6e 1a 3f 46 0a aa 3e 46 bb 19 3d
       -0.3296239 0.603254 0.33210963 0.037532113
0002a0 df 00 00 40 e2 03 72 bf f1 e0 e4 be 5c cc c0 3f
       2.0000532 -0.94537175 -0.44702867 1.5062366
0002b0 7d 94 75 bf 91 95 44 3f b6 28 17 3f af 73 6b be
       -0.959297 0.7679072 0.59046495 -0.22993349
0002c0 71 10 f6 bf d9 a8 7c bf 97 74 29 bf 1d 5d ee 3f
       -1.9223768 -0.9869514 -0.66193527 1.8622166
0002d0 2d d0 62 bf 01 d9 b1 3e 40 00 0c 40 7a ba 34 3e
       -0.885989 0.34735873 2.1875153 0.1764926
0002e0 cc f1 82 bf 60 9f 74 3f c4 89 b4 3f e8 65 17 3f
       -1.023004 0.95555687 1.4104543 0.5913987
0002f0 f6 8c 95 3e 55 1d de bf 42 ae 05 40 89 dd 18 bf
       0.29209107 -1.7352701 2.0887609 -0.59713036
000300 67 b2 19 bf e7 7b 2f c0 0b 7c 07 be 93 b7 b5 bf
       -0.60037845 -2.7419374 -0.13230912 -1.4196647
000310 ba 1e 13 40 17 cb 98 3f 86 75 8e bf 87 6d 69 3f
       2.2987504 1.1936978 -1.1129615 0.9118275
000320 6f d3 4b bf 9d c5 b8 3e 34 e7 e4 bf 37 cd 2f 3f
       -0.796195 0.36088267 -1.7883058 0.6867251
000330 5b aa ab bf 80 a6 bc 3e 4e 42 02 3f e0 24 da bf
       -1.3411363 0.3684578 0.5088242 -1.7042503
000340 a8 fc 3b bf 27 e0 93 3f 4a af bd 3d bf 1a 05 bf
       -0.734324 1.1552781 0.09261949 -0.51993936
000350 98 5a e7 3e 99 c5 16 bf 30 c2 db 3f c6 94 80 3b
       0.45186305 -0.5889526 1.7168636 0.003923985
000360 46 15 32 3f 98 d5 01 bf cd 57 c0 3e 2a f2 c4 bf
       0.6956371 -0.50716543 0.37566987 -1.5386403
000370 2f 8e 9e 3f 7f a1 7b 3e 82 38 e7 be 86 01 9b bf
       1.2387141 0.24573325 -0.451603 -1.210984
000380 b1 6d e1 3f a8 1d 25 c0 c5 b1 15 bf 38 c6 f1 3f
       1.76116 -2.579935 -0.5847438 1.8888617
000390 ff bf 51 3f c6 7f 65 bf b7 16 73 be b0 a1 0c 3f
       0.8193359 -0.8964809 -0.23739134 0.54934216
0003a0 7b 73 0b 3f d4 98 20 3e 15 5e f3 3f 0f f3 23 be
       0.54473084 0.156833 1.9013087 -0.16010688
0003b0 7f 28 0e bf 92 74 11 40 c0 ea 4e bf 59 3c 35 3f
       -0.5553054 2.27274 -0.8082695 0.7079521
0003c0 57 b8 31 3f 2e 69 1c 3f 39 70 a6 3f 46 16 52 bd
       0.69421905 0.6109799 1.3002998 -0.051290773
0003d0 94 22 8e 3e 4b 74 1b bf 21 91 89 bf b1 9b e1 3e
       0.27760756 -0.60724324 -1.0747415 0.44064096
0003e0 35 c8 20 3e 01 2a da 3f 0b e6 e3 bf 2c f4 17 be
       0.15701373 1.7044069 -1.7804579 -0.14839238
0003f0 4a ff a8 3e 00 04 bf bf 33 41 95 3d 66 bb 93 bf
       0.3300727 -1.4923096 0.072878264 -1.1541564

mlp.0.weight f4 [64, 64]
000000 aa a4 d0 bc 4f bf a0 3d 50 ce 66 bd 1d df b0 bd
       -0.025469143 0.07848989 -0.0563491 -0.086363055
000010 4b 2c d8 bd 0b 88 ae 3d e1 6f 9b bd 18 e0 07 be
       -0.10555323 0.08522042 -0.075896986 -0.13269079
000020 4b c9 3d bd 6c 7d c9 bd b9 0f db 3d 6a 67 87 bd
       -0.046334546 -0.098383754 0.10696358 -0.066115215
000030 2b d5 d8 3d 02 d3 80 bd dd a4 dc bd 98 68 df bd
       0.105875336 -0.062902465 -0.10773633 -0.109086215
000040 75 22 ca bd 18 98 ca bc 3a 35 a5 3d ad 41 c3 bd
       -0.098698534 -0.024730727 0.08066793 -0.09534011
000050 71 86 51 3d ce f7 8c bd 13 20 bb 3d ba 4d 9c 3d
       0.051153604 -0.068832025 0.09136977 0.07632013
000060 23 f0 3a 3d d6 23 9b bc 53 bd c8 3c de 15 a8 bd
       0.04563917 -0.018937986 0.02450434 -0.08207296
000070 ed dc 87 bd 43 09 bd bd d5 ef 06 3c d9 77 d9 bc
       -0.06633935 -0.09230282 0.008235891 -0.026546406
000080 78 87 ac 3d b9 6e e0 3d e4 cc d1 bd ab 5a e9 3c
       0.08424276 0.10958619 -0.10244158 0.028485617
000090 da 43 4b bd 6a e4 5c 3c f6 d3 fd 3d 29 fd ca bc
       -0.049625255 0.0134821925 0.12393944 -0.02477892
0000a0 e4 6e 56 3d 3d d6 ce 3b c9 de 94 bc 4c 5a bc bd
       0.052351847 0.0063121603 -0.018172638 -0.0919691
0000b0 da 83 4e bb 15 a9 b6 3d 73 b9 ad 3d 21 83 8c bb
       -0.0031511695 0.089189686 0.08482637 -0.0042880927
0000c0 ab 29 9d bc f9 f1 12 bd a8 8c 9f bd 91 a4 9f bd
       -0.019184908 -0.035875294 -0.077905 -0.077950604
0000d0 51 c7 2e bd ca d3 93 3d a5 1c 9f 3d 32 10 b9 bd
       -0.04267055 0.0721813 0.077691354 -0.09036292
0000e0 88 5a 4d bb f2 92 d2 3d 36 9e a2 bd c2 43 01 bd
       -0.0031334478 0.10281934 -0.079403326 -0.03155876
0000f0 62 be 97 3d d3 b1 0e 3d 10 17 03 be f0 eb 4d 3d
       0.074093595 0.034837555 -0.12801766 0.050273836
000100 e7 1c 94 bd fd 3b 9a bd ce c7 b0 bd 78 76 8d bd
       -0.07232075 -0.07530973 -0.0863186 -0.06907362
000110 7a 04 20 3d 9d a5 bb 3d 48 c2 c9 bb 7f 0c ef 3d
       0.03906677 0.091624476 -0.0061571933 0.11672305
000120 2a 60 9f bd 05 98 e1 bd 47 fa 9c bc d6 6d 09 3c
       -0.07782014 -0.110153235 -0.01916231 0.008388003
000130 1b e2 4c 3d 74 dd db bd 59 8f d8 bd 12 11 9c 3d
       0.05002032 -0.10735598 -0.105742164 0.076204434
000140 ed 32 3e 3d 92 b8 45 bc b2 ef 25 bd ae 03 ea bd
       0.046435285 -0.012067931 -0.040511794 -0.11426483
000150 8b 12 e7 bd a4 e0 c3 bc 77 47 9a 3c 57 18 0f bb
       -0.11282834 -0.023910828 0.018832905 -0.0021834576
000160 62 52 f9 3c ab c9 97 3d 5c 63 9d bd 80 c4 e0 3c
       0.030434791 0.07411512 -0.07684967 0.027437449
000170 5a 1d 29 bd e7 87 61 3d c8 e0 7f bd a1 9c 7d bd
       -0.041287757 0.055061247 -0.062470227 -0.06191695
000180 e6 71 91 3d 19 eb f0 bd 1e 5e ce bd c6 2f ca bd
       0.071018025 -0.11763591 -0.10076545 -0.09872393
000190 04 ff f2 3d a8 38 e3 3c 13 56 92 3d 76 61 40 bd
       0.118650466 0.027736977 0.071453236 -0.046967946
0001a0 90 62 89 3d b8 07 ab bd 28 af 74 bd d0 60 a7 3c
       0.067082524 -0.083510816 -0.059737355 0.020431906
0001b0 2f 19 b0 bd 69 60 3d bb 2b af a6 bd b3 1a 08 3e
       -0.085985534 -0.0028896576 -0.081388794 0.13291435
0001c0 68 57 a7 38 47 86 69 bd 43 1b 02 bd 73 68 1d bc
       7.979461e-05 -0.057012822 -0.03176428 -0.009607422
0001d0 31 44 71 bd f0 5b e0 3d 6e 75 57 3d a7 aa 8c bb
       -0.058902923 0.10955036 0.052602224 -0.0042928043
0001e0 52 8e bc bd 94 1c 15 bd 31 20 db bc fe 1a 8d 3d
       -0.09206833 -0.036404207 -0.026748748 0.06889914
0001f0 a0 a9 b0 bd 53 4b ab 3c d7 9b d1 3c 68 c2 c9 bc
       -0.086261034 0.02090994 0.025587006 -0.024628833
000200 b4 4d d3 3d 2f 90 37 bd e6 11 4a 3b 11 77 e0 3c
       0.10317555 -0.04481524 0.0030833422 0.027400525
000210 8f 0f 8f bd 04 9c 56 3d 08 a9 ce bd 2c cc d1 bd
       -0.069853894 0.05239488 -0.10090834 -0.10244021
000220 9f 94 41 bd 46 48 84 bd 86 ae fd bb a5 a0 6b bd
       -0.047260877 -0.064590976 -0.007741752 -0.05752625
000230 91 90 70 bd 02 f6 cb 3c 9d 97 f3 3d 3a 81 f3 bd
       -0.05873162 0.02489758 0.11894152 -0.118898824
000240 57 d3 eb bd f7 35 e9 3d 8f ae dc 3d e5 f7 e4 bd
       -0.11514919 0.11387246 0.10775482 -0.11180095
000250 c6 a7 09 bc ec b7 a3 3c fb 33 02 3d ff c5 95 3c
       -0.008401817 0.019985162 0.031787854 0.018282888
000260 95 44 45 bc 75 5c 9d ba 8a 16 de 3d ac e1 b1 bd
       -0.012040277 -0.0012005704 0.10844143 -0.086856216
000270 50 8b 02 bc c9 86 db ba 52 47 89 3d c9 ca a1 3d
       -0.007967785 -0.0016748543 0.067030564 0.07900006
000280 62 97 bb 3d f4 1e 26 3c 70 3d 9c bd 1a 89 5e 3d
       0.09159733 0.010139216 -0.07628906 0.05432997
000290 3f c6 6e 3d 3f f8 ba bd 5b e7 96 bd 63 c9 d0 3b
       0.05829453 -0.091293804 -0.07368346 0.0063716634
0002a0 9e e2 86 3d 86 d5 40 3c 03 f9 d7 3d 64 a0 d2 3d
       0.065861925 0.011769658 0.10545542 0.10284498
0002b0 a0 17 aa bd 3d 66 08 3e a6 36 c9 3d ce c1 0f bd
       -0.08305287 0.13320251 0.098248765 -0.035096936
0002c0 2a 03 e4 bd c4 c5 94 bd 56 c9 ae bc 57 c5 c8 3d
       -0.11133416 -0.07264283 -0.021336239 0.098032646
0002d0 8e eb fb 3c c1 3c 6c 3d 40 eb a2 3d a8 ca 60 3d
       0.03075197 0.057675127 0.079550266 0.054880768
0002e0 19 06 e8 bd 49 60 87 bd e4 4f a5 bc 3d df 9c 3d
       -0.11329288 -0.06610162 -0.020179696 0.07659767
0002f0 6c 27 d5 bd cc 3b c2 bc e6 41 59 bc ae 96 a6 3d
       -0.1040791 -0.023710154 -0.01326034 0.081342086
000300 b6 e8 8d 3c c1 51 d6 3c e2 fc 3c 3d 1f 49 e9 bd
       0.01732288 0.02616203 0.046139605 -0.113909
000310 f3 46 40 3d b7 f5 d0 bd c8 c0 83 bd 0c 91 c7 bd
       0.046942662 -0.102031164 -0.064332545 -0.09744462
000320 d5 9b f9 3d 55 75 00 3e 94 f9 6e b9 1f 07 ca bd
       0.12187926 0.12544759 -0.00022790424 -0.098646395
000330 5f 00 ef bc 06 d1 c1 3d 85 97 e2 3d 33 6a 82 3d
       -0.029174982 0.09463696 0.11064056 0.06367912
000340 e6 8d cc bc d5 2b 4f 3d b0 79 81 3d 43 2b 74 3b
       -0.024970006 0.05057891 0.06322038 0.0037257231
000350 b9 3c da 3c e2 38 87 bd d7 84 96 3c 75 ff 25 bd
       0.026640283 -0.066026464 0.01837389 -0.040526826
000360 8e 4e 99 3d e0 32 8c 3d 21 d8 db bd 29 fb 95 3d
       0.07485686 0.06845641 -0.10734583 0.073232956
000370 06 6c a7 bd e4 c8 c4 3d a3 0b 97 3d 3f cf 6c 3d
       -0.08174901 0.09608629 0.073752664 0.057814833
000380 f2 18 15 bd 9c 1f 79 3b 42 e9 a5 3d 90 07 e0 bd
       -0.036400743 0.0038013225 0.08101131 -0.109389424
000390 77 8d 54 bd d3 98 a1 bd cd d4 e2 3c 73 24 54 3c
       -0.051892724 -0.07890477 0.027689362 0.012948143
0003a0 b4 de ea 3c 7d 87 ca 3c 98 0d 1c 3c e2 60 5a ba
       0.028670646 0.024722809 0.009524725 -0.00083304767
0003b0 65 6a 90 3d a0 5f a1 3d 44 f1 d3 3d 2f 58 5c bc
       0.07051543 0.07879567 0.10348752 -0.013448759
0003c0 31 3b 02 3e c0 ac 88 3d 4e c6 88 bc f7 e5 a5 3b
       0.12717892 0.066735744 -0.016696122 0.0050628143
0003d0 41 8e 0c 3c 38 6f e1 bc 2d 2c 1a bd ee 06 ce 3d
       0.008578838 -0.027518854 -0.037639786 0.100599155
0003e0 97 cb 20 bd 90 f4 c4 3d 45 f0 5e 3c 23 8a ad bd
       -0.03925666 0.09616959 0.013607089 -0.08473613
0003f0 2e 5d 6c bc d6 6e e1 3d 4b 54 c8 3c ed 03 1f 3c
       -0.014426513 0.110074684 0.024454257 0.009705526

mlp.0.bias f4 [64]
000000 1c 81 93 3c 4a fa c3 bd ac c1 24 bd 15 06 02 3e
       0.0180059 -0.09569223 -0.040223762 0.12697633
000010 5b cb fa bc b8 b8 a5 3d b8 41 0e bd 17 a7 ee bd
       -0.030614546 0.08091873 -0.034730643 -0.116529636
000020 e7 a5 a6 bd 98 d7 d7 bd ce 70 bc 3c 60 24 d1 3c
       -0.08137112 -0.10539168 0.023003008 0.02553004
000030 91 5f 67 bc 85 de b5 3c be c9 33 3d 17 ae 9c 3d
       -0.014121906 0.022200832 0.04389357 0.076503925
000040 e3 13 66 3d a0 cf 4c bd 27 19 ac 3b 1f ff 5a 3d
       0.05617131 -0.050002694 0.005252022 0.05346596
000050 19 e3 23 bd d3 15 72 bd 32 08 65 3b 57 01 00 3c
       -0.0400115 -0.059102844 0.0034947512 0.007812819
000060 93 90 e5 bc 78 d2 ca bd 65 7f 10 bc c8 45 90 bb
       -0.02802304 -0.09903425 -0.008819436 -0.00440285
000070 38 80 b5 bd a0 2e 0a 3d 96 6d 75 bd f5 a0 f3 3d
       -0.088623464 0.03373587 -0.059918962 0.118959345
000080 97 67 a5 bd 17 40 3c 3d ae 2c b7 3d 6b d9 5a bc
       -0.08076399 0.04595956 0.08944069 -0.013357501
000090 5c 55 a5 3d 9c a8 a6 3d a4 df 32 bd f9 ad 02 3e
       0.08072922 0.081376284 -0.04367031 0.12761678
0000a0 b2 0e 1c bd 03 27 00 3e 68 ab 38 3d 85 65 f8 3b
       -0.038099952 0.12514882 0.04508534 0.0075804614
0000b0 2b 68 ac bd a9 ec 64 bc 3f 50 b9 bd 74 ac d7 bd
       -0.08418306 -0.01397244 -0.09048509 -0.1053094
0000c0 3a cd cb 3d b8 2f 92 bc fb f4 b2 bd aa 46 8c bd
       0.09951253 -0.01784502 -0.087381326 -0.068494156
0000d0 52 e6 0e 3d f3 57 1c bb ab 7f 9e bd af 4e 99 bb
       0.03488762 -0.0023856133 -0.077391945 -0.0046785693
0000e0 50 29 a1 3d 92 3f ab bc ee 1d 0f 3e ce 93 76 3d
       0.07869208 -0.020904336 0.13976261 0.06019955
0000f0 6c 0a bc bd 38 18 65 3d 6d ae 97 3d 61 ba cf bd
       -0.09181675 0.0559313 0.07406316 -0.10142971

mlp.2.weight f4 [32, 64]
000000 cc a6 a6 3d ef 6c d3 3d 2a da bf 3d 89 60 dd 3d
       0.08137283 0.10323512 0.09367783 0.10809428
000010 38 e6 8d 3d 88 2b c7 bd a8 9b 3f bb f1 e8 fd bd
       0.06928676 -0.097251 -0.0029237065 -0.12397946
000020 0e aa f2 3b 5e 71 9e bd 3c 96 f9 bd 7e 3c c9 3d
       0.007405526 -0.07736467 -0.12186858 0.09825991
000030 d4 06 62 bd e7 3f ad 3d bb 69 00 3d d9 55 d6 3c
       -0.055182293 0.08459454 0.031350832 0.026163982
000040 7d 26 ae bd ee c1 cd 3d 19 78 e9 3c 90 1d f6 bd
       -0.08503435 0.10046755 0.02849965 -0.12017357
000050 43 af 82 bd 73 7b 8a 3d c2 1a 44 3d 56 1f d2 bd
       -0.06381085 0.06761827 0.04787708 -0.10259883
000060 cc f6 35 bc 35 41 76 3d 47 52 42 3d 40 08 7f 3d
       -0.011106204 0.06012078 0.047441747 0.062263727
000070 36 09 d7 bd 31 8c cb 3d e6 f8 ef 3d f7 fa ed 3d
       -0.10499804 0.09938849 0.117173955 0.11620133
000080 68 fe 28 3d 43 7c 1f 3c ee c9 4e 3c 1b c1 95 3d
       0.041258246 0.009734216 0.012621386 0.073122226
000090 88 47 b9 bd 4d 1c bd 3d 8a 5f 0f 3c 1d f0 5d bd
       -0.09046847 0.092339136 0.008750806 -0.054184068
0000a0 1d c3 ab 3d 7c 6e ff bd 50 49 12 bc cd 0f 67 bd
       0.08386824 -0.12472245 -0.008928612 -0.056411553
0000b0 23 9f 50 bc 8e 4d 16 3d 03 56 3b 3c 4a ef f7 bc
       -0.012733254 0.036695056 0.011434081 -0.03026547
0000c0 22 70 e3 3d ee 53 d3 bd c4 5d f5 3c f4 b1 ba bd
       0.11105372 -0.10318743 0.029951937 -0.09115973
0000d0 4b e1 59 bd b6 e6 95 bd cf 66 79 3d a2 e9 f2 bc
       -0.05319337 -0.07319395 0.06088906 -0.02965242
0000e0 3d ef c7 bd 2d 50 94 bd 2d 59 c4 bd fd f3 eb 3d
       -0.09762428 -0.07241855 -0.095873214 0.115211464
0000f0 63 d5 d1 3c d0 c8 bb bd 58 86 9a bd 80 3c bd 3d
       0.025614446 -0.09169161 -0.07545155 0.09240055
000100 0e 59 48 3d 5f 3d 8e bd fc 4d 8b bd 8d 12 b8 bd
       0.048913054 -0.06945299 -0.06801984 -0.08987913
000110 c1 4d e8 3d 5d d5 f1 bc c1 c2 b7 bd 4b c0 ab 3d
       0.113429554 -0.029520685 -0.08972693 0.08386286
000120 b3 a6 db 3d 96 9e da 3b 47 f0 b3 3d 18 a0 cf 3d
       0.10725155 0.006671737 0.08786064 0.10137957
000130 61 6c cc 3d a2 24 a1 3d 8f 0b 89 bd c5 0d f2 3d
       0.09981609 0.07868315 -0.06691658 0.118190326
000140 c6 07 00 3e d3 2a 4f bd 89 9d f2 3d 24 bc b0 bc
       0.12502965 -0.05057795 0.11846454 -0.021574087
000150 aa fb 96 bd 9a 54 8c 3d 20 b4 da bd aa 4c 40 bd
       -0.0737222 0.06852074 -0.10678887 -0.046948113
000160 08 85 f1 bc f0 24 1d 3d 92 60 f4 bc bb e9 fe bc
       -0.02948238 0.038365304 -0.029831205 -0.03111731
000170 a7 32 98 bd 97 57 d1 bd 39 18 81 bd 66 e6 00 3d
       -0.07431536 -0.102217846 -0.06303448 0.031469725
000180 3c f0 05 3e 0f 21 df bc 24 8c 49 bd f8 fb c1 3d
       0.13079923 -0.027237443 -0.049205914 0.09471887
000190 7d 9f d2 bd f0 1c a8 3d 33 30 29 bc 4c 56 2b bd
       -0.10284326 0.082086444 -0.010326433 -0.041830346
0001a0 eb ac be 3d 62 d5 4e bd 65 f8 5c 3d 31 2f b3 bc
       0.09310325 -0.050496466 0.053947825 -0.021873089
0001b0 e2 25 a7 3c e3 ce df bd 57 90 61 bd c5 e3 77 bd
       0.020403806 -0.109281324 -0.055069294 -0.060519952
0001c0 a3 c4 53 bd 2b 1e 1f 3d 99 36 aa bd ff a0 60 3d
       -0.0517012 0.03884713 -0.08311195 0.054841038
0001d0 77 05 de bd 62 b8 cb 3c b2 6a b8 3d e9 a8 ab 3d
       -0.10840886 0.024868194 0.090047255 0.083818264
0001e0 78 e7 b6 3d 02 fe 35 3b ec f7 74 3c 5c ed 37 3c
       0.08930868 0.0027769809 0.014951687 0.0112260245
0001f0 51 42 20 bd 0b 2e fa 3d 1f d7 cf 3d ce 08 64 bc
       -0.039125744 0.12215813 0.10148453 -0.013918115
000200 ce c5 c5 3d b1 2c dc bb 15 92 80 3d d6 22 5a bb
       0.09656869 -0.006719195 0.06277863 -0.0033284924
000210 58 46 13 3d ca 02 0c bd 17 b1 c3 bd 86 68 e4 bd
       0.035955757 -0.034182347 -0.095552616 -0.11152749
000220 ff 3c 85 3b 3f 6a 54 bd 12 85 24 3c ca c0 4a 3d
       0.004066109 -0.051859137 0.010041492 0.049500264
000230 f3 08 75 bd 97 91 d4 bd 8a cb b8 bb 75 23 ff 3d
       -0.059822988 -0.103793316 -0.005639498 0.12457935
000240 79 bf 35 3d 2c 35 e0 bd 5c 86 cf bc e9 57 e8 3d
       0.044372056 -0.10947642 -0.025332622 0.113448925
000250 48 82 9f bd 37 50 f8 3d 4e bb 8a 3d 86 d5 47 bd
       -0.07788521 0.12124675 0.06774007 -0.048787616
000260 d1 8b b4 bd 68 81 6b bd 80 51 38 bc 0a 3f 8c bd
       -0.0881573 -0.05749646 -0.0112499 -0.06847961
000270 8e c4 06 3e 44 2c bd bd c5 15 da 3d 4f 1c b0 bc
       0.13160917 -0.092369586 0.106486835 -0.021497874
000280 74 8f c8 bd ce 30 d5 bd 17 91 95 bd ea 8b 19 3d
       -0.097929865 -0.104096994 -0.07303064 0.037486948
000290 73 2c a8 bc dd d9 cc 3d 6e d0 d2 bd 9e 27 8c bd
       -0.020529008 0.100024916 -0.10293661 -0.06843494
0002a0 3c 20 c4 3b 38 1e 94 3d 90 c6 93 bc 09 cc 0b 3d
       0.005985288 0.07232326 -0.018039018 0.03413013
0002b0 11 1a a0 bd ef b0 98 3d bd c3 a7 bd bb 10 18 3d
       -0.07817472 0.074556224 -0.08191631 0.03712533
0002c0 63 0e f6 3a 99 75 05 3c 10 80 ce 3d 99 18 49 bd
       0.0018772598 0.008145713 0.1008302 -0.049095724
0002d0 18 85 e9 bd eb fe ab bd 7f db 43 bd 12 f1 b4 bd
       -0.11402339 -0.08398231 -0.04781675 -0.08835043
0002e0 c7 1d e0 3d c4 6b 0c bd 3f 68 b5 3d 76 c8 0c 3d
       0.109431796 -0.03428246 0.08857774 0.034370862
0002f0 7f 44 c0 3d 30 89 8e 3d dc 36 a3 3c fb 07 b8 3c
       0.093880646 0.0695976 0.01992362 0.022464743
000300 cd 5a de 39 c8 fb 06 bd 5e 1a ec bc 6e 7f 24 bd
       0.00042410792 -0.03295496 -0.028821167 -0.04016059
000310 64 8d e2 bc 9d 3a 3b bd 0c 9b 10 3d 84 e8 2a 3d
       -0.02765531 -0.045710195 0.035304114 0.04172565
000320 a6 c3 d7 bd c1 6f d2 bb 0e 85 36 3d 5a c6 31 3c
       -0.10535364 -0.0064220135 0.044560485 0.010850513
000330 a3 42 cb 3d aa 59 b9 3d ca 3a a0 bd 1e e3 56 bc
       0.09924819 0.09050305 -0.07823713 -0.013115672
000340 ea ce b1 bd ff 5c f6 3c c8 d9 cc bd ff 2d 08 3d
       -0.08682044 0.03007364 -0.10002476 0.03324699
000350 4e 56 e1 3d 4d 0f 8c bd 00 25 43 bd 49 3a 4d 3d
       0.110027894 -0.06838856 -0.047642708 0.050104413
000360 0e b5 db 3d c6 b7 fb 3c 58 f6 97 3d f3 dd 6b bd
       0.10727893 0.030727278 0.07420033 -0.057584714
000370 32 8a 08 bd 9f 6f b9 3d 41 e7 a9 bd c4 08 f1 bd
       -0.03333492 0.09054493 -0.08296061 -0.1176925
000380 f6 da d2 3d c8 98 a2 3d da aa 99 3d 07 cf bd bd
       0.1029567 0.07939297 0.075032905 -0.09268003
000390 82 e6 b7 3c b8 40 0f bd 37 90 d6 3d 6f e8 9c bd
       0.022448782 -0.03497383 0.104767255 -0.07661521
0003a0 d0 e9 e8 bd a9 61 a0 bd ea a8 c8 bd 07 0c ad 3d
       -0.11372721 -0.07831127 -0.09797843 0.0844956
0003b0 ed 73 e0 bc c3 87 63 bd 4f 0d 34 3b 47 5f be 3c
       -0.027399028 -0.055549394 0.0027473753 0.023238791
0003c0 ea 63 3f 3d 2d b5 ab bd fa 3e c1 bd 80 d3 bb 3d
       0.046726145 -0.08384166 -0.0943584 0.091712
0003d0 51 e7 da 3d ac df 20 3b c1 f1 b1 bd 71 d4 bc bc
       0.10688651 0.0024547381 -0.08688689 -0.023050519
0003e0 2a ad f4 3d 8e 32 b0 3d 16 56 93 bd d0 a1 e3 3d
       0.11947091 0.086033925 -0.07194154 0.11114848
0003f0 1e 2d 74 3d bf d7 88 bd 20 86 fa bd e5 25 ee 3d
       0.05961334 -0.06681775 -0.122326136 0.116283216

mlp.2.bias f4 [32]
000000 85 27 d6 bc 6d e5 d2 bb bb 4b 34 bd 43 67 f7 bc
       -0.026141891 -0.006436041 -0.044017535 -0.030200606
000010 13 b1 3e bc 69 30 98 bd 73 9a 4a bc c8 bc ca bd
       -0.0116388975 -0.074311085 -0.012365925 -0.098992884
000020 1b 1a 9d 3d 66 c1 f0 bd ba cc 61 3d 28 b6 4d bc
       0.07670995 -0.11755638 0.055126883 -0.012555636
000030 1f 5c ec 3d f4 72 b8 bb e5 3e bd bd ff a4 f5 bd
       0.11541008 -0.005628938 -0.09240512 -0.11994361
000040 da 63 ba 3d 6a d1 ed bd e0 34 9b 3d 9c 3e 4f 3d
       0.091010764 -0.11612208 0.075784445 0.05059682
000050 15 c5 22 bd 63 fa d8 bd ee 6d 43 3d 5a 5c 70 3d
       -0.039738733 -0.105946325 0.04771226 0.058681823
000060 39 b1 fe 3d 5a 6f 18 3d 95 28 dc bd 23 48 8a 3c
       0.12436146 0.037215568 -0.10749928 0.0168801
000070 d5 d6 d2 bd fa 76 3b 3d d0 96 ee bd 3c 58 bb bd
       -0.10294882 0.04576776 -0.11649859 -0.09147689

mlp.4.weight f4 [16, 32]
000000 6a 58 83 bd 5c 33 bd 3d 2c 68 5a 3d 5c 98 58 3d
       -0.06413348 0.09238312 0.053322002 0.052879676
000010 69 11 54 bd 36 80 b6 bd 88 e5 19 3e 3f 58 2e 3e
       -0.051774416 -0.08911173 0.15028965 0.1702585
000020 51 c1 32 be 4c 17 b4 bd ed 90 aa 3d 64 2f 6a 3d
       -0.17456557 -0.08793506 0.08328424 0.0571741
000030 10 53 c2 bd 4d b8 80 bb 4f 26 02 3e cb 04 24 be
       -0.09488499 -0.0039282204 0.12709926 -0.16017453
000040 53 73 21 be 05 2a 00 be 93 99 cc bc 68 9e 02 3d
       -0.15766649 -0.12516029 -0.024975574 0.03188935
000050 08 4d fa bd f5 e1 af 3d 36 86 07 be 71 3a 38 bd
       -0.12221724 0.0858802 -0.13234791 -0.04497761
000060 d6 7a 7c bd 89 de c0 bd 0d 76 0f 3d a9 21 a1 bd
       -0.061640583 -0.09417445 0.03502469 -0.07867748
000070 d7 18 0f 3e 37 43 f3 3a 1b d2 07 3d c5 94 2a 3e
       0.1397432 0.001855946 0.033159357 0.16658314
000080 01 96 b0 bd 64 ef 24 3e 2f e8 e3 3d 15 41 46 bd
       -0.08622361 0.16106945 0.1112827 -0.04840191
000090 15 a9 e3 bd 35 c4 86 bd 0d 50 dd 3d 0e 8c 91 3d
       -0.11116234 -0.06580392 0.10806284 0.071067914
0000a0 6f e5 25 3e 9b cf 04 be 06 b6 b0 3d 7d 02 63 3d
       0.16200803 -0.1296982 0.08628468 0.055422295
0000b0 6f 7d 10 3e cf 96 a7 bd fd c3 24 3e 62 b5 f4 bc
       0.14110349 -0.08183061 0.16090389 -0.029871646
0000c0 e4 c6 c3 3b b2 22 b4 3d d8 c0 0f 3e d2 eb 0b 3e
       0.0059746373 0.0879568 0.14038408 0.13664177
0000d0 3e 7d fe 3d 95 d7 5a 3d 9b 50 cb 3d 72 e2 83 bc
       0.12426232 0.05342825 0.09927484 -0.016099188
0000e0 03 30 30 3e 50 d9 ff 3c 3b 3f 8a 3d 10 0f bc 3d
       0.17205815 0.031231552 0.067503415 0.091825604
0000f0 09 29 05 3e a1 55 2c be 7a 19 16 be e2 12 a1 3c
       0.13003935 -0.1682954 -0.14658156 0.019662324
000100 4a 0e d9 3d 06 a1 1f 3e 02 3b 3e bd 49 8b 85 bc
       0.105984285 0.1558877 -0.046442993 -0.016301768
000110 b9 1e 1d 3e 95 8d a2 3d 0a 5f ad 3d 99 f0 2c bd
       0.15343751 0.07937161 0.08465393 -0.04222164
000120 fb bd c6 3d 7a 94 29 3d 71 bf ec bd dc 82 1e 3d
       0.09704205 0.041401364 -0.11559952 0.038699016
000130 b2 af aa bd 66 23 42 3d 59 5c e1 bd d3 06 7d 3d
       -0.083342925 0.04739704 -0.11003942 0.061774086
000140 e3 74 10 bd a0 1b ec 3c e1 1e 9c bd 24 c9 e0 3c
       -0.03526772 0.028821766 -0.07623077 0.027439661
000150 dd ae 31 be d6 7b 4d bb 4b 4e ee 3d bb ae 16 3d
       -0.17351861 -0.003135433 0.11636027 0.03678773
000160 a1 68 24 be 90 c8 33 bd f9 e3 a8 bd b6 02 24 be
       -0.16055538 -0.043892443 -0.08246607 -0.16016659
000170 8c f2 fe 3d ca ee 8d bc f2 78 92 3d 10 a0 a1 3d
       0.12448606 -0.017325778 0.07151975 0.078918576
000180 03 9d 5d 3d b4 4e b0 bc d7 25 3f be 5b eb 0f 3e
       0.054104816 -0.021521904 -0.18666779 0.14054625
000190 f7 14 c5 bd 13 f7 84 bd 10 84 1d be 0b 64 bb bd
       -0.09623139 -0.06492438 -0.15382409 -0.09149941
0001a0 08 7a c4 3d 6b 1e 30 3c c2 31 b8 3d 1b d1 1f 3e
       0.09593588 0.01074944 0.089938655 0.15607111
0001b0 05 71 01 be 28 1c 3c 3d e1 c0 89 3d f8 65 9d 3d
       -0.1264077 0.04592529 0.06726242 0.076854646
0001c0 42 20 89 3d d3 b8 0e bd 9f 86 a1 3d 82 c0 94 3d
       0.06695606 -0.03484423 0.07887005 0.072632805
0001d0 a6 bb 3e bd 7a 1b 87 bc b1 bc 19 3e a5 b4 2a be
       -0.046565674 -0.016492594 0.15013386 -0.16670473
0001e0 75 d3 ee bd 43 11 03 3e dc 94 1a be a4 48 2f 3d
       -0.11661426 0.12799554 -0.15095848 0.042793885
0001f0 ec ba cb bc c7 bb b0 bd 00 ad fe bd 48 64 bd bd
       -0.024869405 -0.08629566 -0.12435341 -0.09247643
000200 c8 fd f7 bc d0 52 82 3c 15 02 eb 3d 6b 8e 36 3b
       -0.03027238 0.015908629 0.114750065 0.0027855884
000210 5f 77 ce 3d f8 cf 20 be f5 ef d8 3d f1 2f c9 bd
       0.10081362 -0.15704334 0.10592643 -0.09823597
000220 a8 8d ef bc b6 8d a2 bb 5f 08 e4 bd 77 6b fb 3c
       -0.029242352 -0.004960741 -0.11134409 0.030690892
000230 d2 fe 0a be 7a 1c 1c be ea 95 d7 bd 60 be 0b be
       -0.13573769 -0.15245238 -0.10526641 -0.13646841
000240 71 f0 35 bd ab 7d e1 3d 7d 3b 0d be c1 e3 b8 3d
       -0.044418756 0.110102974 -0.13792224 0.090278156
000250 14 54 67 bd 58 7d d9 3d 91 ea 80 bd 5d b3 b0 3d
       -0.056476668 0.106196105 -0.0629474 0.08627961
000260 cc 80 02 3e eb f2 07 be c4 9a 2c be 1f df 02 be
       0.12744445 -0.1327626 -0.16855913 -0.12780426
000270 84 ae b0 bc 77 48 16 3e b8 89 00 be 2d bd 80 bd
       -0.02156759 0.1467608 -0.12552536 -0.062860824
000280 d5 49 91 3d f5 fe f1 bc 43 1a 3c 3d a1 3d d7 3c
       0.070941605 -0.029540518 0.045923483 0.026274504
000290 60 6c 31 3e 3a ea 1d 3e c5 87 e0 3d 96 74 f3 bc
       0.17326498 0.15421382 0.10963396 -0.029718678
0002a0 6c d6 3f bc e7 84 10 be f3 7c fb bd 49 b8 16 bd
       -0.011708837 -0.14113198 -0.122796915 -0.03679684
0002b0 b5 4f c6 3d a4 f2 b6 bd b7 43 bb b9 71 5f e3 bd
       0.09683172 -0.08932999 -0.0003571787 -0.111021884
0002c0 cd 74 e8 bd 60 95 46 3d 4d 86 17 3e c0 92 68 bc
       -0.11350403 0.0484823 0.14797325 -0.014195144
0002d0 00 28 ee bd 4f e3 ab bd 1d eb bb 3d a1 3b 75 3b
       -0.11628723 -0.08392965 0.09175704 0.0037419575
0002e0 f6 19 dc 3d 9d 9a 2a be 51 3e db 3d 32 55 ee bd
       0.10747139 -0.16660543 0.10705245 -0.116373435
0002f0 01 3e 0a 3e 72 c5 c2 bd b6 bd 9a 3d 34 36 26 bd
       0.13500215 -0.09510316 0.07555716 -0.040579036
000300 e4 73 fc 3d 52 7b 20 3e 8e 14 e7 bc 68 c4 e4 3d
       0.12326792 0.15672043 -0.028208043 0.11170274
000310 12 da 4b 3c cb 62 0c be 80 8c 23 be b1 4c a3 bc
       0.012442129 -0.13709562 -0.15971565 -0.01993403
000320 5e 8a fd 3d 0c f4 1a 3e c2 0a 15 be d8 38 3c 3e
       0.12379907 0.15132159 -0.14554885 0.18381059
000330 09 05 ab bc d1 11 8c ba 05 ce 14 3e a2 d2 31 be
       -0.020876424 -0.0010686462 0.14531715 -0.17365506
000340 12 ca 99 bc 2f 5f 92 bb 17 b2 88 3d 1a d6 10 be
       -0.018773112 -0.004466913 0.06674593 -0.14144173
000350 fa 1e e0 3d 06 af 0c 3e 52 d5 0e 3e b7 93 a0 bb
       0.10943408 0.13738641 0.13948563 -0.0049004215
000360 66 2e d6 3d 9e 60 0d bc d6 a5 dd 3d 1d 5d 0c be
       0.104580685 -0.008628992 0.10822646 -0.13707395
000370 f2 11 1b 3e 3b 61 25 bd 33 2c 25 3d 34 28 6e bd
       0.15143564 -0.04037593 0.040325355 -0.05814381
000380 0f e4 b4 bd 8d c1 0b be 51 7c 9b 3d 85 e4 a9 3d
       -0.08832561 -0.13648053 0.07592071 0.0829554
000390 28 2f 25 be eb fa 93 3d 3d e1 3e 3e 90 be 84 bd
       -0.1613127 0.07225593 0.18640609 -0.064816594
0003a0 0d 46 7e 3d 6f 35 76 bd 0d 40 b1 bd 00 48 8c bc
       0.062078524 -0.060109552 -0.08654795 -0.017124176
0003b0 4a 07 80 3c 00 c2 93 3d 7d 93 1c 3d b7 af a6 bd
       0.015628476 0.07214737 0.038226593 -0.08138984
0003c0 bf b1 00 3d 2d 22 9a bd b3 8f 62 bd b0 8d 04 be
       0.031419512 -0.0752605 -0.055312824 -0.12944674
0003d0 58 0d af bd 83 19 e1 bd 95 39 8a 3d 74 c8 f1 bd
       -0.08547467 -0.10991194 0.06749264 -0.118058115
0003e0 84 9e 9d 3d 01 12 72 bd 1b 4f d4 bd ab e5 ae bd
       0.0769625 -0.0590992 -0.10366651 -0.085398994
0003f0 5e a7 3a 3d bd 54 6d 3d e0 e3 21 3e fe 5c 16 be
       0.04556977 0.05794214 0.15809584 -0.14683911

mlp.4.bias f4 [16]
000000 68 2d 83 bd 26 37 79 3c c1 6f 19 3d 21 22 f3 3d
       -0.06405145 0.015210902 0.037460092 0.11871744
000010 80 9f c0 bb 43 50 f1 bd ed 85 ad bd 4b 5d c5 bd
       -0.005878389 -0.11782887 -0.0847281 -0.09636935
000020 67 da 05 be d1 ef 52 bd ea 3d 28 3d 7f cd d0 bd
       -0.13071595 -0.051498238 0.04107467 -0.10195445
000030 f5 45 1f be 86 e1 bc bd 28 2f ec 3d 8b 41 d3 bc
       -0.1555403 -0.09222703 0.11532432 -0.02578809

mlp.6.weight f4 [8, 16]
000000 a2 d4 2d 3e 59 da 85 bd 09 c2 b6 3d d3 15 b7 3d
       0.16975644 -0.06535787 0.08923728 0.089397095
000010 d8 14 59 be 4c 3d 2a 3e a9 9b 5c 3e ec 4f 5b be
       -0.21199358 0.16624945 0.21543755 -0.21417207
000020 8f 8f 4d 3e 5e 31 44 3d d0 8a 5b 3e 24 e4 68 3e
       0.20074295 0.047898643 0.21439672 0.22743279
000030 00 ad 8a bc 9b 04 21 be 73 6c 3e 3d dd c1 ee bd
       -0.016928196 -0.15724413 0.046490144 -0.1165807
000040 8e b2 85 bc f4 61 64 3e 4a 58 40 3e 9c 9b c9 3d
       -0.016320493 0.22302991 0.1878368 0.09844133
000050 80 c4 62 bd 6f 35 63 bd cb b5 5a 3e d8 31 31 3d
       -0.05536318 -0.05547088 0.21358411 0.043260425
000060 99 f2 66 3d 07 06 72 be 9d 59 b1 bd bb 0e 98 bc
       0.056383703 -0.23635112 -0.086596705 -0.018561712
000070 70 9a e9 3d 95 b2 30 3e c2 37 58 3e 78 4b 43 be
       0.1140641 0.17255624 0.2111502 -0.19071758
000080 20 00 07 be ff 44 9e bd 66 f9 a5 3c f1 90 62 be
       -0.13183641 -0.07728004 0.020260524 -0.22125603
000090 7d 0b 7d be ba 93 d1 3d 0c 30 b5 3c c0 cc 79 bd
       -0.24711414 0.10233255 0.022117637 -0.06098628
0000a0 c2 fd 64 bd 3e be 5c 3e 43 db da bd 25 b7 1f 3e
       -0.055906065 0.21556947 -0.10686352 0.15597208
0000b0 80 4b 92 bb 7a 62 65 bd f1 0b 10 3d 22 53 ed 3d
       -0.0044645667 -0.056002118 0.03516764 0.11588122
0000c0 76 ff 63 3e 00 81 92 3b 3e b6 0e be ac 93 50 be
       0.2226542 0.0044709444 -0.13936707 -0.20368832
0000d0 b8 87 3e 3d a8 3b 99 bd de 2d 50 be a0 6a e0 bd
       0.04651615 -0.07482082 -0.20329997 -0.10957837
0000e0 18 5b 20 bd 14 8e 3e be a8 22 61 bd 60 69 5a 3c
       -0.039149374 -0.18608886 -0.05496469 0.013330787
0000f0 a0 a1 32 3d ba c5 78 3e b4 58 3e be 92 19 55 3e
       0.04361117 0.24294177 -0.18588525 0.20810536
000100 6b b7 ef bd a1 e6 83 3e b8 2f 89 3d 44 9f 63 be
       -0.11704906 0.25761893 0.06698555 -0.22228724
000110 7f 65 d3 bd f0 90 e5 bb 54 26 4c 3e 78 33 76 be
       -0.10322093 -0.0070058033 0.19936496 -0.24043071
000120 c1 58 b1 bd d6 88 92 3d fe 1d c1 bc 8b c1 eb bb
       -0.086595066 0.07155006 -0.023573872 -0.007194703
000130 ea 28 6e be 41 52 e8 bc 7e a9 11 3e c8 8d 45 be
       -0.23257795 -0.028359534 0.14224812 -0.19292367
000140 52 ec 33 be 1c 9d 88 3d a8 a0 4c 3e ae 26 79 be
       -0.17570618 0.06670591 0.1998316 -0.24331161
000150 80 ac c9 bc b0 40 c0 bc fa ec 6f be e4 54 2d 3e
       -0.024618387 -0.023468345 -0.23430243 0.16926914
000160 30 d5 57 be 4c 5f 3c be f2 be 0e 3e 32 7b 24 be
       -0.21077418 -0.18395728 0.13940027 -0.1606262
000170 04 56 94 3d 4a 46 4b be d0 6f 92 bc 14 dc 74 be
       0.07242969 -0.19851032 -0.017875582 -0.23912078
000180 fe d3 4f bd a9 b1 d8 3c 0e b8 de bd f3 d1 84 3e
       -0.05073928 0.026451902 -0.108749494 0.2594143
000190 8d 0c 29 be 97 8b ef bd d8 da 2a be bf 90 05 be
       -0.16508694 -0.116965465 -0.16685045 -0.13043498
0001a0 18 79 5f be 92 12 50 bd 77 a1 12 bd 00 d8 47 3e
       -0.21823537 -0.05079896 -0.035798516 0.19515991
0001b0 20 7f 74 3d 79 52 4a 3e 00 d1 00 bc a6 6e 23 bd
       0.05969155 0.19758023 -0.0078623295 -0.039900444
0001c0 4e 43 db bd 3d c6 85 3e 7c 17 36 be 4b 97 19 bd
       -0.10706197 0.26127806 -0.17782396 -0.0374978
0001d0 32 07 f8 3d 3e db 99 bd ab 5b 4a 3c fb d7 96 bd
       0.121107474 -0.0751252 0.012350957 -0.07365414
0001e0 5f 5e 7f 3e c7 ca 64 be 8e 65 09 3e c2 3e f3 3c
       0.24938343 -0.22342978 0.13417646 0.029693011
0001f0 d2 56 47 be 5d 89 41 bc 19 7e 28 be 43 0f ff 3d
       -0.19466713 -0.011812535 -0.16454352 0.12454083

mlp.6.bias f4 [8]
000000 d4 fd c4 bd 3d af 73 be 3f 02 60 3c 30 f5 27 bd
       -0.096187264 -0.23797317 0.0136724105 -0.041005313
000010 ba 22 d5 bc 4c be cd bd 49 4f 21 3e df 81 1c 3e
       -0.026017535 -0.10046062 0.15752901 0.15283917

mlp.8.weight f4 [1, 8]
000000 b2 de 5f 3e 4c 83 67 be 78 ed 9f be 4a 30 6f 3e
       0.21862295 -0.2260868 -0.31235862 0.23358265
000010 f2 6b 81 3e 4a 6c 10 3e d5 57 e0 3d f0 ef 2b 3e
       0.25277668 0.14103809 0.10954253 0.16790748
