models/ncf_best.pt (torch, 113745 bytes, 11 tensors)

user_embedding.weight f4 [430, 32]
0	0xbf618eec	-0.88108706
1	0x3fa87419	1.316043
2	0xbf84612a	-1.0342152
3	0x3fe7bca3	1.8104442
4	0xbf8e819c	-1.1133304
5	0xbd11d8af	-0.035607036
6	0x3ee501e6	0.4472801
7	0xbf09b928	-0.5379815
8	0x3ecaf53c	0.39640224
9	0xbf61a8b1	-0.8814803
10	0xbe3fbd7c	-0.18724626
11	0x3f298307	0.66215557
12	0xbe6e0a35	-0.23246081
13	0xbfa2e37d	-1.2725674
14	0x3ea11391	0.3146024
15	0x3f7e4ac3	0.9933283
16	0x3e8a8dc7	0.27061293
17	0x3c060f06	0.008182293
18	0x3fb04886	1.3772132
19	0x3dfb13ef	0.122596614
20	0xbe2ea559	-0.17055263
21	0x3e9222aa	0.28542072
22	0xbf2c6d6f	-0.6735448
23	0x3f48b4d5	0.7840093
24	0xbe83f52e	-0.25772995
25	0x3f34d0c4	0.7063105
26	0x3fa2f397	1.2730588
27	0x3ed015e0	0.4064169
28	0xbea7542a	-0.326814
29	0xbdcae588	-0.09907061
30	0xbfd96dd7	-1.6986645
31	0x3e4d9ea6	0.20080051
32	0xbe8b6bd4	-0.27230704
33	0x3fc69af3	1.5516037
34	0xbebd05ec	-0.3691858
35	0x3efeec2a	0.49789554
36	0xbf7ca873	-0.98694533
37	0xc003f2e4	-2.0616999
38	0x3e4c4116	0.19946703
39	0x3f1698e8	0.58827066
40	0xbf37b994	-0.71767545
41	0xbf75c835	-0.96008617
42	0xbf8c0a3c	-1.0940623
43	0xbc8181d3	-0.015808975
44	0xbf4943b4	-0.7861893
45	0x3f922451	1.1417333
46	0xbf9f2703	-1.243378
47	0x3d9c3551	0.07627357
48	0xc004bbd9	-2.0739653
49	0xbd80da43	-0.0629163
50	0xbf36e108	-0.7143712
51	0xc017744f	-2.366474
52	0x3f641ec8	0.8910947
53	0x3d53c5d1	0.051702324
54	0xbf358e1e	-0.7091998
55	0x3df328e3	0.11873033
56	0xbf148b88	-0.5802541
57	0x3f3dd83d	0.7415808
58	0xbea40603	-0.32035837
59	0xbee7980a	-0.45233184
60	0xc020e4c4	-2.5139627
61	0xbee93bc3	-0.45553407
62	0xbe5fa679	-0.21840848
63	0xbf162550	-0.58650684
64	0x3f55c59b	0.83504647
65	0x401c52fb	2.4425647
66	0x3f90ba9d	1.130695
67	0x3f0c9f98	0.5493102
68	0xbf34b647	-0.70590633
69	0x3fef2674	1.868361
70	0x3f96f078	1.1792135
71	0x3f42dfba	0.7612263
72	0x3ea169da	0.3152607
73	0x3edcc68d	0.43120232
74	0xbef10b63	-0.47079
75	0xbf0fd925	-0.5619071
76	0xbe42fe33	-0.19042282
77	0x3f5962c6	0.8491634
78	0xbda15b1d	-0.078787066
79	0x40289578	2.6341228
80	0x3f9966a7	1.1984452
81	0x3f6671b1	0.9001723
82	0x404a3017	3.1591852
83	0x3e010a00	0.12601471
84	0xbdb004a3	-0.085946344
85	0xbea1b326	-0.31581992
86	0x3fe94a48	1.8225794
87	0x402debeb	2.7175243
88	0xbfcd50c6	-1.6040275
89	0xbddeaf8a	-0.10873325
90	0x3e9afe17	0.3027198
91	0xbe8aa418	-0.2707832
92	0xc01530dd	-2.3311074
93	0xbf975bc3	-1.1824878
94	0x3f2bba40	0.6708107
95	0xbfed11d8	-1.852107
96	0x3ec89d20	0.39182377
97	0x3fa3a08c	1.278337
98	0x3f80b091	1.0053884
99	0xbe60637f	-0.21912955
100	0xbe392dad	-0.1808383
101	0x400dd8e4	2.216363
102	0x3e9644d6	0.29349393
103	0x3be4b380	0.006979406
104	0xbf682704	-0.90684533
105	0xbf24bb92	-0.6434871
106	0x3f8456c7	1.0338982
107	0x3eac7acc	0.33687437
108	0x40169d90	2.3533669
109	0xbf5fe5d5	-0.8746007
110	0xbf8b1fb0	-1.0869045
111	0xbfe8b50b	-1.818025
112	0xbf52f3dd	-0.82403356
113	0xbda932c2	-0.082616344
114	0xbf7813a3	-0.96904963
115	0xbf3ee72f	-0.7457151
116	0x3f0c07fc	0.54699683
117	0xbf5bb457	-0.8582205
118	0xbe058a23	-0.13040976
119	0x3f31f706	0.6951755
120	0x3cb4b0d9	0.022056984
121	0x3dfc0ec0	0.12307501
122	0xc006c242	-2.1056066
123	0xbfeba955	-1.8411051
124	0xbd97b9c9	-0.074084826
125	0xbf7193a7	-0.94365925
126	0x3f0a1dd1	0.53951746
127	0x3fe311ad	1.7739769
128	0xbf77575a	-0.9661766
129	0xbf0d58c3	-0.55213565
130	0xbf8ad346	-1.0845726
131	0x3f3bb521	0.73323256
132	0x3f241e60	0.6410885
133	0xbf793fc0	-0.973629
134	0xbd04fd97	-0.032468405
135	0x3f426c80	0.7594681
136	0xbdcfdadf	-0.10149168
137	0x3fc13647	1.5094689
138	0x3fc7e2a1	1.5616037
139	0x3ecc784f	0.39935538
140	0xbeff93c6	-0.4991743
141	0x3fa9f31b	1.3277315
142	0xbf6f5b23	-0.9349844
143	0xbf24d7d6	-0.6439184
144	0x3e246435	0.16053851
145	0x3e8b3d54	0.27195227
146	0x3f23576e	0.6380528
147	0xbf4f4681	-0.80966955
148	0x3e65f4a6	0.22456607
149	0xbe516291	-0.20447756
150	0x3e72dbec	0.23716706
151	0xbf1826d4	-0.59434247
152	0x3f6f92ce	0.9358338
153	0x3f13922c	0.57644916
154	0x3fab367f	1.3376006
155	0xbf3753fd	-0.7161253
156	0x3e849532	0.25895077
157	0x3f9988a8	1.1994829
158	0x3efe6432	0.49685818
159	0xbf75c2fe	-0.9600066
160	0xbeb757de	-0.35809225
161	0xbf1dd87e	-0.61658466
162	0x3f579974	0.84218526
163	0x3eaf7c2a	0.34274417
164	0xbe9ad964	-0.3024398
165	0xbf83570f	-1.0260943
166	0xbf5171be	-0.8181418
167	0x401f219f	2.486427
168	0x3fb71c63	1.4305538
169	0xbf828275	-1.0196062
170	0x3fa6b2a9	1.3023273
171	0x3fbd5d0f	1.4794024
172	0xbf67ba6b	-0.90518826
173	0x3f98abce	1.1927431
174	0xbe5e35d0	-0.21700215
175	0xc00af897	-2.1714227
176	0x3eaf97da	0.3429554
177	0x3e956d6a	0.2918504
178	0xbeeafb63	-0.45894918
179	0xbe17f131	-0.14838101
180	0xbfa224e2	-1.2667506
181	0xbe9432df	-0.28945062
182	0xbf5ba0d9	-0.8579231
183	0xbf28cb63	-0.65935344
184	0xbdb0ea34	-0.08638421
185	0x3ea8997e	0.32929605
186	0xbeded9d3	-0.43525562
187	0xbf8269b8	-1.0188513
188	0xbe4ac1b9	-0.19800462
189	0x3f0eb090	0.55738163
190	0x3f3d1131	0.73854357
191	0xbf12edad	-0.57393914
192	0x3c57ef5f	0.013179629
193	0x3f229fc3	0.6352503
194	0xbed68956	-0.41901654
195	0xbf753bed	-0.95794564
196	0x3f0c6cb2	0.54853356
197	0xbfe613f0	-1.7974834
198	0x3e47a68b	0.19497125
199	0xbf2384c3	-0.63874453
200	0x3fc8d7ae	1.569082
201	0x3fd9d15d	1.7017018
202	0x3ea829cc	0.32844388
203	0xbf37b923	-0.7176687
204	0xbf8a6ff9	-1.0815421
205	0xbeca5c33	-0.39523467
206	0x3feaaa36	1.8333194
207	0xbfc15853	-1.510508
208	0x3fdd6a09	1.7297984
209	0x3f9930b1	1.1967984
210	0x3f2230cf	0.63355726
211	0xbf998911	-1.1994954
212	0xbffddcd0	-1.9833012
213	0xbeb117be	-0.34588426
214	0xbf4c3739	-0.79771763
215	0x3ec4f0ce	0.3846497
216	0xbfb388cb	-1.4026121
217	0xbf44c2f1	-0.76859957
218	0xbf9c5af7	-1.221526
219	0x3f97cc0e	1.1859148
220	0xbf8c9982	-1.0984347
221	0x3ea50094	0.32227004
222	0xbe9518de	-0.29120535
223	0xbf966ffa	-1.1752923
224	0xbf8249f4	-1.0178819
225	0x3e0ca929	0.13736404
226	0xbf447297	-0.7673735
227	0xbfa749dc	-1.3069415
228	0xbee800a9	-0.45313004
229	0xbf787f50	-0.97069263
230	0x3fcdc26a	1.6074955
231	0x3f9a2dbf	1.2045211
232	0x3ec828ca	0.3909362
233	0xbeda2395	-0.42605272
234	0xbfc1af4b	-1.513162
235	0x3e140199	0.14453734
236	0xbf78b8bc	-0.9715688
237	0x3fdb575b	1.7136034
238	0x3f551db7	0.83248466
239	0x3e7702be	0.2412214
240	0x3d0d2bed	0.03446572
241	0x3f9b372f	1.2126216
242	0x3d24669b	0.040136915
243	0x3ec27e9c	0.3798722
244	0xbeae5924	-0.34052384
245	0xbf7c5af9	-0.98576313
246	0x3f0ecf81	0.55785376
247	0xbf8f04e3	-1.1173366
248	0x3f37d0d1	0.71803004
249	0xbfd8b552	-1.6930335
250	0x3fbdcd59	1.4828292
251	0x3fccdbd0	1.6004581
252	0x3f074862	0.5284482
253	0xbe656bf7	-0.22404467
254	0xbfbdbd93	-1.4823478
255	0x3f087ae0	0.5331249

item_embedding.weight f4 [20, 32]
0	0x3b85ea52	0.004086771
1	0xc009d937	-2.1538827
2	0xbf99c31b	-1.2012666
3	0x3f5d86ea	0.8653399
4	0x3e8ddf90	0.27709627
5	0xbee36540	-0.44413185
6	0xbf49ba0c	-0.7879951
7	0x3e082458	0.13295114
8	0xbed808db	-0.42194256
9	0x3c2e29fa	0.010630125
10	0x3faae4da	1.335109
11	0xbe5c36ca	-0.21505275
12	0x3d35bbb6	0.04436847
13	0xbf9aafc5	-1.2084891
14	0xbffbd2a4	-1.9673657
15	0xbd2a0ac5	-0.041514177
16	0xbfb07763	-1.3786434
17	0xbf877033	-1.0581115
18	0x3f92a999	1.1458007
19	0xbf7fac8b	-0.99872655
20	0xbe86873e	-0.26275057
21	0xbe099c8f	-0.13438629
22	0x3e9bf281	0.30458453
23	0x3eb3433c	0.35012233
24	0xbf1bdf3c	-0.60887504
25	0xbed0b57e	-0.40763468
26	0x3f4eba62	0.8075315
27	0x3dcbc326	0.09949331
28	0x3f29d769	0.66344315
29	0xbeffcfd5	-0.4996325
30	0xbeb9e67d	-0.3630866
31	0x3e5bf2d6	0.21479353
32	0xbf8152b4	-1.0103364
33	0x40119b66	2.2751098
34	0x3f91533a	1.1353524
35	0x3e539b8c	0.20664805
36	0xbd8285ca	-0.063731745
37	0xbefb7a7e	-0.49116892
38	0xbf3c7608	-0.736176
39	0x3f2fd910	0.68690586
40	0x3eb6acc6	0.3567869
41	0xbf4b3940	-0.7938423
42	0x3e590482	0.21193126
43	0xbf27b6b0	-0.65513134
44	0xbe944b9a	-0.2896393
45	0xbebe8fd0	-0.37219095
46	0x3e2ba53d	0.16762252
47	0xbfbf13b2	-1.4927886
48	0x3eddb7c6	0.4330427
49	0x3f8305ca	1.0236142
50	0x3f47e305	0.7808078
51	0xbf5d0327	-0.86332935
52	0x3f02a23a	0.5102879
53	0xbf96ad85	-1.1771704
54	0xbfb6a361	-1.4268609
55	0xbf301303	-0.6877901
56	0xbb910281	-0.0044253473
57	0xbfe92a6d	-1.8216072
58	0x3e8f32a8	0.27968335
59	0xbed536d4	-0.41643393
60	0x3e112076	0.14172539
61	0xbe3a2bb1	-0.1818073
62	0x3fa481b9	1.2852088
63	0x4017dcbc	2.3728476
64	0x3f408599	0.75203854
65	0xbea7753f	-0.3270664
66	0xbd38a4ad	-0.045078922
67	0xbfc81804	-1.5632329
68	0xbfd5e347	-1.6709985
69	0xbdfe9e1b	-0.124325
70	0xbda72cd2	-0.08162846
71	0x3f2d21f4	0.67629933
72	0x3efab65a	0.48967248
73	0x3f8b0e30	1.0863705
74	0xbf8bb030	-1.0913143
75	0x3f01d719	0.5071884
76	0x3f43f3fc	0.76544166
77	0x3f93599f	1.1511725
78	0x3fe19f6f	1.762678
79	0x3f10cbfa	0.56561244
80	0x3f2683cb	0.6504485
81	0xbed16872	-0.40899998
82	0x3f9067d2	1.1281683
83	0xbf9abb3c	-1.2088389
84	0xbe0a828c	-0.13526362
85	0xbf08809c	-0.5332124
86	0xbecbea56	-0.39827222
87	0x3c880654	0.01660458
88	0xbfa89e44	-1.3173299
89	0x3f1ed260	0.62039757
90	0xbfaf2d90	-1.368578
91	0x3fa91c9b	1.3211855
92	0x3f8f5f49	1.1200954
93	0x3f2f59c7	0.68496364
94	0x3f140928	0.5782647
95	0xbf49e403	-0.78863543
96	0xbee613bc	-0.4493693
97	0x3fabdfd7	1.3427685
98	0x3f673ce7	0.90327305
99	0x3ebd0654	0.3691889
100	0xbcb73cb0	-0.022367805
101	0xbe0699d7	-0.13144623
102	0x3ef6aded	0.4817957
103	0x3e4b6c7c	0.19865602
104	0x3f81d90d	1.0144364
105	0xbfa2336c	-1.2671943
106	0x3f40bebc	0.7529104
107	0xbec9adab	-0.3939031
108	0xbee68b4e	-0.45028156
109	0xbffb0036	-1.9609439
110	0x3fabad86	1.341233
111	0x3d1b9522	0.03798402
112	0x3ecacdca	0.3961013
113	0x3f613661	0.879736
114	0xbf51d9b4	-0.81972814
115	0xbf30aca0	-0.69013405
116	0x3f33ca69	0.7023073
117	0x3e546af0	0.20743918
118	0xbfb176a8	-1.3864336
119	0x3faaf190	1.3354969
120	0xbf027124	-0.5095389
121	0xbf7b2a15	-0.9811109
122	0xbfc7c81f	-1.5607947
123	0xbe6f8ecc	-0.23394316
124	0xbf093e80	-0.5361099
125	0x3fb3633f	1.4014663
126	0x3f984373	1.1895584
127	0x3f2dc8cb	0.6788451
128	0xbea55809	-0.32293728
129	0x3f7b2d39	0.9811588
130	0x3f36b217	0.71365494
131	0xbecc87a3	-0.39947233
132	0xbcb4d574	-0.022074439
133	0xbf4a80c7	-0.7910275
134	0x401475dc	2.3196936
135	0xbf356d90	-0.70870304
136	0xbfbcd168	-1.4751406
137	0x3daf185d	0.08549569
138	0xbf86d467	-1.053357
139	0x3fce09b9	1.6096717
140	0x3f830d31	1.0238401
141	0xbfa8ac24	-1.3177533
142	0x3f2d0481	0.67585
143	0xbf3ddb4f	-0.74162763
144	0x3e9a5a95	0.30147234
145	0x3f5ebcd4	0.8700688
146	0xbeec7ff1	-0.46191362
147	0xbf9e5d51	-1.2372228
148	0x3fb3cb10	1.4046345
149	0xbfe9a4f3	-1.8253464
150	0x402ef787	2.7338579
151	0x3f8c2d0f	1.0951251
152	0xbf19c3c8	-0.60064363
153	0x3e3e1bda	0.18565312
154	0x3f853473	1.0406631
155	0x3f7d107e	0.9885329
156	0x3fb3a028	1.4033251
157	0x3eaad8fd	0.33368674
158	0xbfaf2fd5	-1.3686472
159	0xbfec6d34	-1.8470826
160	0x3f35b58f	0.7098016
161	0xbd9d3066	-0.07675247
162	0xbf7fc7d7	-0.99914306
163	0x3f25191c	0.6449144
164	0x3ede91df	0.43470666
165	0x3f6d874f	0.9278459
166	0xbf108f95	-0.5646909
167	0xbb25705d	-0.0025243976
168	0x3f98fa6d	1.1951424
169	0xbee165be	-0.44022936
170	0x3fcd35f3	1.6032089
171	0xbf063253	-0.5242054
172	0xbf890a31	-1.0706235
173	0x3e4543ff	0.1926422
174	0xbfa490fa	-1.2856743
175	0xbfbc0a6b	-1.4690679
176	0xbf1ee54a	-0.6206862
177	0x3f1e60c2	0.6186639
178	0xbc877e3d	-0.016539687
179	0x3eb58d0c	0.35459173
180	0x3fa3bb94	1.2791619
181	0x3fc07fd0	1.5039005
182	0x3ae75685	0.0017649686
183	0x3ebf4ffe	0.37365717
184	0x3ecbfa6c	0.39839494
185	0xbf18ff75	-0.59764796
186	0xbe0e9e34	-0.13927537
187	0x3e831fa6	0.25610083
188	0xbf3f7e7c	-0.74802375
189	0x4015ba4d	2.339496
190	0xbf3fedfc	-0.7497251
191	0x3fc9442c	1.572393
192	0x3f27d40d	0.6555794
193	0x3f6b0f72	0.9182044
194	0xbf0370ad	-0.51343805
195	0xbfc64e27	-1.54926
196	0xbf893f12	-1.0722373
197	0x3eebed0a	0.46079284
198	0xbed67fc9	-0.41894367
199	0xbf49b3e5	-0.7879012
200	0x3f86f5ec	1.0543799
201	0x3f53931f	0.82646364
202	0x3d97054b	0.073740564
203	0xbf06f6dd	-0.52720433
204	0xbf08ed39	-0.53486973
205	0x3e29eebe	0.16594979
206	0xbfa38918	-1.2776213
207	0xbf0627aa	-0.5240427
208	0xbf4600bb	-0.77344865
209	0xbf33bb51	-0.702077
210	0xbf6e77b5	-0.9315141
211	0xbf3c8f04	-0.73655725
212	0x3eee5ace	0.46553653
213	0xbf1ce6f6	-0.6128992
214	0xbfcec42b	-1.6153616
215	0x3eeb4ea1	0.45958427
216	0xbefafc3e	-0.4902057
217	0x3f9401ed	1.1563088
218	0xbf93b44a	-1.1539395
219	0x3fe47d68	1.7850771
220	0xbd131192	-0.03590543
221	0x3f3e876c	0.7442539
222	0x3f8a83ef	1.0821513
223	0xbfccd1f4	-1.6001573
224	0x3e93ee39	0.28892687
225	0x3dbaffd3	0.09130826
226	0x3eea6281	0.45778278
227	0xbfd0171d	-1.6257054
228	0xbe64045f	-0.22267292
229	0x3f867df1	1.0507184
230	0xbefcd380	-0.49380112
231	0xbfb769ef	-1.4329203
232	0x3f4c499d	0.79799825
233	0x4009fc72	2.156033
234	0x3fb64624	1.4240155
235	0x3f3cc309	0.737351
236	0xbf3ee7be	-0.7457236
237	0x3fc9e880	1.5774078
238	0x3f8d4bd1	1.1038762
239	0x3fb4879e	1.4103887
240	0x3fa6ecbe	1.3040998
241	0xbeca1dd1	-0.39475873
242	0xbfb04cf6	-1.3773487
243	0xbeea3680	-0.45744705
244	0x3c898734	0.016788103
245	0x3de36126	0.11102514
246	0xbe7a09c9	-0.24417795
247	0xbf9e5e99	-1.2372619
248	0x3f5ece6b	0.8703372
249	0x3db34acc	0.08754501
250	0x3fa7e943	1.3118061
251	0xc053e2c4	-3.3107157
252	0x3ec25e57	0.379626
253	0x3f394342	0.7236825
254	0xbfdeee84	-1.7416539
255	0x3f98b468	1.1930056

mlp.0.weight f4 [64, 64]
0	0x3dfb1a42	0.12260868
1	0xbd66f49b	-0.056385618
2	0xbde6e4c6	-0.11274104
3	0xbdb286f9	-0.0871715
4	0xbcafe073	-0.02146933
5	0xbdfb1fd8	-0.12261933
6	0xbc1beda3	-0.009517106
7	0xbb92a231	-0.004474901
8	0xbd0d70cb	-0.034531396
9	0x3d6a9eb4	0.057280257
10	0x3d907fa2	0.07055594
11	0x3dccbb2b	0.09996637
12	0x3d93d508	0.07218367
13	0x3dedc1fb	0.116092645
14	0x3cfb926d	0.03070947
15	0xbdd36cf7	-0.10323518
16	0xbdd808ac	-0.10548529
17	0xbd977766	-0.0739582
18	0x3d77010c	0.060303733
19	0xbdb9844f	-0.09058439
20	0x3cc1b680	0.023646593
21	0x3d69de08	0.05709651
22	0x3d948501	0.07251931
23	0xbcb90dd3	-0.0225896
24	0x3d3d17f0	0.046165407
25	0xbd8ccc49	-0.06874902
26	0xbcf0f5d9	-0.029414104
27	0x3dc00a37	0.09376948
28	0xbc6d0b34	-0.014468003
29	0x3d1c91d7	0.03822502
30	0x3cc9276d	0.024554932
31	0x3cc5532a	0.024087507
32	0xbccf6ba7	-0.025319887
33	0xbd24fb88	-0.04027894
34	0xbde692f1	-0.112584956
35	0xbd2e08e1	-0.042488936
36	0x3d5a5d88	0.053311855
37	0xbd7d4712	-0.061835356
38	0x3db31037	0.08743327
39	0xbc8528a6	-0.016254734
40	0xbd1e188b	-0.038597625
41	0x3c371f74	0.011176933
42	0xbbf64563	-0.0075155958
43	0xbbe6d4c8	-0.0070444085
44	0x3bfd1952	0.0077239657
45	0x3df5c51a	0.12000485
46	0xbd1149ce	-0.035470776
47	0xbd495262	-0.049150832
48	0xbde7f7f5	-0.11326591
49	0x3dfaa038	0.122375906
50	0x3d913aba	0.07091279
51	0x3b85aa75	0.004079158
52	0xbbadc1c9	-0.005302642
53	0xbbb2b9ac	-0.0054542627
54	0xbdb73eca	-0.08947523
55	0xbd6202bc	-0.05517839
56	0xbb9ffbcf	-0.004882313
57	0x3d089bfa	0.033351876
58	0xbdca1302	-0.09866907
59	0xbc67fc78	-0.014159314
60	0xbdc25918	-0.094896495
61	0x3d88ec56	0.066857025
62	0x3ddc355f	0.10752367
63	0x3cf33457	0.029688044
64	0xbb6b8470	-0.0035937093
65	0x3d894c27	0.06703978
66	0xbdde90ab	-0.10867437
67	0xbda2e928	-0.07954627
68	0x3cbf2001	0.02333069
69	0x3d994505	0.074838676
70	0x3da91018	0.08255023
71	0xbdc577d1	-0.09641994
72	0x3d948aa9	0.0725301
73	0x3d8adb28	0.06780082
74	0xbd14bac0	-0.03631091
75	0x3d8d7688	0.06907374
76	0xbd3883e6	-0.045047663
77	0xbdc69221	-0.096958406
78	0x3d6de823	0.05808271
79	0xbcc0cdd1	-0.02353564
80	0x3d0a7426	0.033802174
81	0x3d08fec6	0.033446096
82	0xbdb1c217	-0.08679598
83	0xbd512922	-0.051064618
84	0xbd5fd4f4	-0.054646447
85	0x3dee4cce	0.11635743
86	0x3bfc4923	0.0076991483
87	0xbd9b6867	-0.075882725
88	0xbd3d8838	-0.046272486
89	0x3bf61c4a	0.0075106965
90	0x3d3ea7e6	0.04654684
91	0x3d556034	0.0520937
92	0x3dcb43ab	0.09925016
93	0xbd12aaa1	-0.035807256
94	0xbda0e497	-0.078561
95	0xbd432c60	-0.04764974
96	0xbdc6f857	-0.09715336
97	0x3d58c932	0.05292625
98	0x3be66cd3	0.007032016
99	0xbde1e0c7	-0.11029201
100	0x3dcc4696	0.09974401
101	0xbde29748	-0.11064011
102	0xbd427f14	-0.047484472
103	0x3ddfde33	0.10931053
104	0x3db7c762	0.08973576
105	0x3d9bed26	0.07613592
106	0x3d4b828e	0.049685054
107	0xbd1a6176	-0.037690602
108	0x3da8a619	0.082348056
109	0xbdc69626	-0.09696607
110	0xbdb891b7	-0.09012168
111	0x3d66d320	0.05635369
112	0xbd444ae1	-0.047922973
113	0x3de2f32d	0.11081538
114	0x3d6d5d01	0.057950024
115	0xbd58cd57	-0.052930202
116	0x3dce3d59	0.10070295
117	0x3da2e15e	0.07953142
118	0xbc56d954	-0.0131133385
119	0xbd89b974	-0.067248255
120	0x3db7431d	0.08948348
121	0xba3a9b11	-0.00071184436
122	0x3def6bfd	0.11690519
123	0x3dd542e1	0.10413147
124	0xbdf2d63a	-0.11857267
125	0xbd71f5fa	-0.059072472
126	0x3d02a49e	0.031895272
127	0x3d9db36d	0.077002384
128	0xbd80a783	-0.0628195
129	0x3de2ea43	0.11079838
130	0x3c999ad1	0.01875058
131	0xbc12fb09	-0.008970984
132	0xbdb682f5	-0.08911697
133	0x3dc05c32	0.09392585
134	0xbbb51fd1	-0.0055274745
135	0xbd5759a8	-0.052575737
136	0x3ca85a82	0.02055097
137	0x3be929c9	0.007115577
138	0xbdcf655c	-0.10126755
139	0xbd0dfefe	-0.034667008
140	0xbda7692c	-0.08174357
141	0xbdee640a	-0.11640175
142	0x3d1a511d	0.037675012
143	0x3cdc73da	0.026910711
144	0x3dd2eae5	0.10298709
145	0xbde0a408	-0.109687865
146	0xbd02dad4	-0.031946972
147	0x3d69b7ba	0.05705998
148	0xbd22e465	-0.039768595
149	0x3c8432d4	0.016137518
150	0xbd7e5250	-0.062090218
151	0xbc7b96d7	-0.015355787
152	0xbda71a8c	-0.0815936
153	0x3b7b81b3	0.0038376867
154	0xbc2b58e3	-0.010458204
155	0xbd391518	-0.045186132
156	0xbdba69bc	-0.091021985
157	0xbd80de1d	-0.06292365
158	0xbd060c2b	-0.032726448
159	0x3df4a6c4	0.119458705
160	0x3de0401f	0.1094973
161	0xbd620964	-0.055184737
162	0x3d2eefb4	0.042709067
163	0xbd95881d	-0.07301352
164	0x3a998876	0.0011713642
165	0x3db5a1cb	0.0886875
166	0xbb1801e2	-0.0023194482
167	0x3c3714c5	0.011174385
168	0x3ddff754	0.10935846
169	0x3d740618	0.059576124
170	0x3c8b378e	0.016994264
171	0x3d12388a	0.03569845
172	0xbd346802	-0.044044502
173	0x3d8c7067	0.068573765
174	0xbda1107c	-0.07864472
175	0x3dec07b8	0.1152491
176	0xbde59d63	-0.1121166
177	0xbb7df62e	-0.003875147
178	0x3db6d765	0.08927802
179	0x3dee1666	0.11625366
180	0xbd02b9dc	-0.03191553
181	0x3d06665e	0.03281247
182	0xbde116ee	-0.109907016
183	0xbb3457ac	-0.0027518077
184	0x3da6c364	0.081427366
185	0x3ddd6585	0.10810379
186	0xbd1d9215	-0.038469393
187	0x3d925df7	0.071468286
188	0x3dc97190	0.098361135
189	0x3d6043f8	0.05475232
190	0xbc20ef99	-0.0098227495
191	0x3dba8808	0.09107977
192	0xbd79f54a	-0.06102494
193	0xbd7a125a	-0.061052658
194	0x3d4c78f3	0.049920034
195	0x3dd53c22	0.1041186
196	0x3b854404	0.004066946
197	0xbdefc6f5	-0.1170787
198	0xbd96ff82	-0.07372953
199	0x3d18567c	0.037191853
200	0x3d5211d0	0.05128652
201	0x3d0008b1	0.03125829
202	0xbdb61ff2	-0.08892812
203	0xbdfb6b4e	-0.12276326
204	0x3d2f7405	0.042835254
205	0xb9b2e41a	-0.00034120755
206	0x3ddec968	0.10878259
207	0x3d70b52f	0.05876654
208	0x3de4a752	0.11164726
209	0x3dc7d309	0.09757049
210	0x3da53985	0.080676116
211	0x3c77f723	0.015134606
212	0x3dbfae4a	0.09359415
213	0x3deb13e1	0.11478401
214	0xb9a839c8	-0.00032086507
215	0xbde6b7fd	-0.11265562
216	0x3d1ef90e	0.038811736
217	0xbd72be43	-0.05926348
218	0x3deda573	0.116038226
219	0x3db0551e	0.08609985
220	0x3c8346fa	0.016025055
221	0x3dd1b5c4	0.10239747
222	0xbd9633e4	-0.07334116
223	0xbde3643e	-0.11103104
224	0x3cb66c6d	0.022268498
225	0xbdbdaafa	-0.09261127
226	0x3ca3accc	0.019979857
227	0x3d25e9fa	0.04050634
228	0x3dc8ed30	0.09810865
229	0x3da8039c	0.082038134
230	0xbdf55cce	-0.11980592
231	0x3da0dc1a	0.07854481
232	0x3dc9c74e	0.098524675
233	0x3dbd9b0d	0.09258089
234	0x3d60dd5f	0.054898616
235	0xbdaac5cb	-0.08338507
236	0x3de74d3b	0.112940274
237	0x3ce04648	0.027377263
238	0x3de193ec	0.11014542
239	0xbd7f375c	-0.062308654
240	0x3bf29e69	0.007404138
241	0x3d44befa	0.048033692
242	0x3dd5bd1d	0.10436461
243	0xbdc3dba5	-0.09563378
244	0xbdc33892	-0.09532274
245	0x3d2c0bb4	0.04200335
246	0x3c9108c2	0.017704371
247	0xbd286cd2	-0.041119404
248	0xbdbfcd80	-0.09365368
249	0xbdf59eaa	-0.119931534
250	0xbdb2ecc6	-0.08736567
251	0x3da20980	0.07911968
252	0xbd043794	-0.032279566
253	0x3d5d24f0	0.053990304
254	0xbde3eef9	-0.11129565
255	0xbd998de4	-0.074977666

mlp.0.bias f4 [64]
0	0x3dbfec13	0.093711995
1	0xbd85ee49	-0.0653959
2	0x3cda7da3	0.026671236
3	0x3d72667a	0.05917976
4	0xbc9b4ee8	-0.018958524
5	0x3d29f67a	0.041494824
6	0xbde917d1	-0.11381496
7	0x3dc48bee	0.09597002
8	0x3df039b0	0.11729753
9	0xbd54699c	-0.05185853
10	0xbdcf8c0d	-0.101341344
11	0xbd6b7343	-0.05748297
12	0x3ca49439	0.02009021
13	0xbd2fa93c	-0.042886004
14	0x3982dddc	0.0002496083
15	0xbcddcade	-0.027074274
16	0x3df1bc54	0.11803499
17	0x3df90cfc	0.1216068
18	0x3d95497a	0.07289405
19	0x3de75d52	0.11297096
20	0x3d60bb7a	0.05486629
21	0xbc0aaa44	-0.008463446
22	0x3cc5ac59	0.024130033
23	0x3d9ba435	0.075996794
24	0xbbe88deb	-0.007096996
25	0x3dc27aaf	0.09496056
26	0x3dcbd063	0.09951856
27	0xbcd3ed56	-0.025870007
28	0x3d5c3459	0.05376086
29	0xbd3cc182	-0.04608298
30	0xba345a1b	-0.0006879882
31	0x3da6b921	0.08140779
32	0x3d32aec8	0.043623716
33	0x3bcdc5f4	0.0062797014
34	0x3ddda007	0.108215384
35	0x3dc02947	0.09382873
36	0xbc1e5c34	-0.009665538
37	0xbde76f69	-0.11300547
38	0xbdb879de	-0.09007619
39	0xbdfcd7d1	-0.12345851
40	0x3df67d9d	0.120356776
41	0xbd46302c	-0.048385784
42	0x3dad5e32	0.08465232
43	0xbd494cda	-0.049145557
44	0x3ddf09ab	0.10890516
45	0xbdc1cb43	-0.09462597
46	0xbdb01c61	-0.08599163
47	0x3dce568f	0.100751035
48	0x3ddf3ec3	0.10900643
49	0xbddbc2da	-0.10730524
50	0x3d759f95	0.059966642
51	0x3cf72711	0.030169996
52	0xbd86f83c	-0.06590316
53	0xbda741a3	-0.08166816
54	0x3dcbb9f1	0.09947575
55	0x3d82f719	0.063947864
56	0x3d0689e5	0.03284635
57	0x3d5decc5	0.05418088
58	0xbdce5d4b	-0.10076388
59	0x3cba2ec5	0.02272738
60	0xbd91f709	-0.07127196
61	0x3dfcb014	0.12338272
62	0xbde54e1b	-0.11196538
63	0x3de233d4	0.11045042

mlp.2.weight f4 [32, 64]
0	0x3d8ad090	0.067780614
1	0xbdec476c	-0.1153706
2	0xbc8028f0	-0.01564452
3	0xbdabce2b	-0.08388933
4	0xbd66694a	-0.056252755
5	0xbba171a6	-0.004926878
6	0x3d024889	0.031807456
7	0xbd140562	-0.036137946
8	0xbc498a14	-0.012300987
9	0xbdfe26f5	-0.12409774
10	0x3d00bd0d	0.031430293
11	0x3d60f01d	0.05491649
12	0x3d7c1bf7	0.061550107
13	0x3dc1f3ee	0.09470354
14	0x3cf602c1	0.03003061
15	0xbdbb9773	-0.09159746
16	0xbdbbc4d5	-0.09168402
17	0x3c62806f	0.013824566
18	0x3d8c7a54	0.0685927
19	0x3dccda98	0.10002631
20	0xbd7bf70e	-0.061514907
21	0xbda64d72	-0.0812024
22	0x3cc8bc85	0.024503956
23	0x3d496ead	0.049177814
24	0x3d82c66a	0.06385501
25	0x3d75cf39	0.060012076
26	0x3cd98766	0.02655382
27	0xbd84a510	-0.06476796
28	0x3d9026b3	0.07038631
29	0x3cc3bdec	0.023894273
30	0x3cf97cf1	0.030455085
31	0xbdc71629	-0.097210236
32	0x3d124e93	0.035719465
33	0xbbfca642	-0.007710249
34	0x3ca6bb88	0.020353094
35	0x3deac34a	0.1146303
36	0x3d07b0db	0.033127647
37	0x3d9ade44	0.07561925
38	0x3d7b0ed8	0.061293453
39	0x3d84c849	0.06483514
40	0x3c2db933	0.010603237
41	0x3d884fec	0.06655869
42	0xbdf0013e	-0.11718987
43	0xbd61e962	-0.05515421
44	0xbddd4319	-0.108038135
45	0x3d7a32ca	0.061083592
46	0xbd1f8736	-0.038947307
47	0x3df61c40	0.12017107
48	0xbdb8d1db	-0.09024402
49	0x3de4190f	0.11137592
50	0xbd69f589	-0.057118926
51	0xba66d9be	-0.000880625
52	0xbcbfbc89	-0.02340533
53	0xbccba050	-0.024856716
54	0xbdc9aa23	-0.09846904
55	0xbc5ccd6b	-0.01347671
56	0xbc0c6581	-0.008569122
57	0x3cffa0e0	0.03120464
58	0xbd24b5bb	-0.040212374
59	0x3dad50ff	0.084627144
60	0x3da118db	0.07866069
61	0x3ce227c1	0.027606847
62	0xbcb085c1	-0.021548154
63	0x3d87e2db	0.06635066
64	0xbafa72d7	-0.0019107711
65	0x3cfa9021	0.030586304
66	0xbde920f0	-0.113832355
67	0xbc5b42da	-0.013382638
68	0xbdfc33b9	-0.12314553
69	0x3d8a047e	0.06739138
70	0x3df49822	0.119430795
71	0x3de15c66	0.11003952
72	0xbda15235	-0.07877008
73	0x3d93201a	0.07183857
74	0x3cc45fc7	0.023971451
75	0xbcf169bd	-0.029469365
76	0xbdf5dbf5	-0.12004844
77	0x3dd591ec	0.10428223
78	0xbc8137d7	-0.015773697
79	0x3db6d21c	0.08926794
80	0xbd6340c8	-0.055481702
81	0xbd8777b5	-0.06614629
82	0xbdefe5b0	-0.11713731
83	0xbda3e9dc	-0.080035895
84	0xbd0dc916	-0.0346156
85	0xbc52a48d	-0.012856615
86	0xbd3998f1	-0.045311872
87	0xbdc88128	-0.097902596
88	0x3d3dba6c	0.046320364
89	0xbd8026a1	-0.06257368
90	0x3cb65c07	0.022260679
91	0x3d73d8c4	0.059532896
92	0xbc812d16	-0.015768569
93	0xbdee7fec	-0.11645493
94	0xbd14d298	-0.03633365
95	0x3d8d9a66	0.06914215
96	0x3d30f494	0.043201998
97	0x3d9b42f4	0.0758113
98	0x3d0445e3	0.03229321
99	0x3c960336	0.018312078
100	0xbdb8d198	-0.09024352
101	0xbd4f0f12	-0.05055148
102	0xbdfc0bd9	-0.12306947
103	0x3cf4239a	0.029802132
104	0xbcce62b3	-0.025193548
105	0xbd81bc44	-0.06334737
106	0x3db61347	0.088903956
107	0xbbe4fecb	-0.0069883815
108	0xbd9c9807	-0.076461844
109	0xbd5f12a2	-0.05446113
110	0x3dd594b7	0.10428756
111	0xbdacfb85	-0.08446411
112	0x3d92a024	0.07159451
113	0xbdc09b28	-0.09404594
114	0x3d241ff5	0.04006954
115	0x3cd36fc8	0.025810137
116	0x3cc621f0	0.024186105
117	0x3df1c7fa	0.118057206
118	0x3d7b48f0	0.061348855
119	0xbca86fd7	-0.020561142
120	0x3db93a32	0.09044303
121	0xbd807452	-0.06272186
122	0xbdc02a14	-0.09383026
123	0xbd559f30	-0.052153766
124	0x3d668905	0.056283016
125	0x3d495dc8	0.049161702
126	0x3dc21aca	0.09477766
127	0x3cbe1e56	0.023207825
128	0x3dfd0360	0.12354159
129	0x3dad8007	0.08471685
130	0x3be8246a	0.007084419
131	0x3bffe260	0.0078089684
132	0x3d130ec5	0.035902757
133	0xbd838452	-0.064217225
134	0x3dac3fff	0.08410644
135	0xbd6021b7	-0.054719653
136	0x3d73de99	0.059538458
137	0x3d1de953	0.038552593
138	0x3d977df9	0.07397074
139	0xbd344b90	-0.044017375
140	0x3d004da7	0.031324055
141	0x3b0cb594	0.0021470534
142	0xbd078d39	-0.033093665
143	0x3de1fee8	0.11034948
144	0x3d3ca2e3	0.04605378
145	0x3d916250	0.0709883
146	0x3d8615e0	0.06547141
147	0x3ca7d04b	0.020485064
148	0xbbc2835e	-0.0059360703
149	0xbd9ed64b	-0.07755717
150	0xbd129257	-0.03578409
151	0xbdfe7256	-0.124241516
152	0xbd8e9262	-0.06961514
153	0xbdf7784e	-0.12083493
154	0x3dcc169c	0.0996525
155	0x3dad14e0	0.08451247
156	0x3d34843d	0.044071425
157	0x3d72949b	0.059223752
158	0x3d9cc8f5	0.07655517
159	0xbd7cb590	-0.06169659
160	0xbdf9e2c3	-0.122014545
161	0xbda045c7	-0.07825809
162	0x3d75e5e8	0.06003371
163	0xbca0a33f	-0.019609092
164	0x3aedff60	0.0018157773
165	0x3dc6106a	0.096710995
166	0x3df94da9	0.121730156
167	0xbdd39dea	-0.10332854
168	0xbd89cc5c	-0.067284316
169	0x3dd3a5f7	0.1033439
170	0xbda69691	-0.08134187
171	0x3dc092c9	0.09402997
172	0xbc8e542b	-0.017374119
173	0xbced5581	-0.028971436
174	0xbd6c9067	-0.0577549
175	0x3da45c95	0.08025471
176	0xbd875f5c	-0.06609985
177	0x3dfd3603	0.123638175
178	0xbd27041e	-0.04077541
179	0x3d32d9c4	0.04366471
180	0xba4b0a47	-0.0007745367
181	0xbdbf4939	-0.09340138
182	0x3c5f4107	0.013626344
183	0xbd1733fb	-0.036914807
184	0xbdb1697f	-0.086627
185	0xbda2d8f3	-0.07951536
186	0x3d4f7663	0.05065001
187	0xbd17ed16	-0.037091337
188	0x3d813676	0.06309216
189	0xbd73b26b	-0.059496325
190	0xbd0d1434	-0.034443095
191	0xbd2305be	-0.039800398
192	0xbbe4909b	-0.006975246
193	0xbd36d4cf	-0.044636544
194	0x3dbb0e55	0.09133593
195	0xbc208b02	-0.009798767
196	0x3dadee17	0.08492678
197	0x3cb12763	0.021625226
198	0xbdfdf2db	-0.12399837
199	0x3d8313f3	0.064002894
200	0x3de7cda7	0.11318522
201	0xbdca8f5c	-0.09890625
202	0x3dc43e12	0.095821515
203	0x3b8731d0	0.004125811
204	0xbdb56ff0	-0.08859241
205	0xbdc158be	-0.09440754
206	0xbdf0b58b	-0.117533766
207	0x3d846870	0.06465232
208	0x3dcfc9eb	0.10145935
209	0xbdd44058	-0.10363835
210	0xbd5c7d1d	-0.053830255
211	0x3d7c2b41	0.061564688
212	0xbd7ea3dc	-0.062167987
213	0xbdb8dbdd	-0.090263106
214	0xbd8ba026	-0.06817655
215	0xbd461983	-0.048364174
216	0xbc37eae3	-0.011225435
217	0xbdf30f01	-0.11868096
218	0xbc97e1d6	-0.018540304
219	0x3d104992	0.035226412
220	0x3dd9b5a5	0.10630349
221	0x3dfd8078	0.12378019
222	0xbcdf62fb	-0.027268877
223	0x3de7288c	0.112870306
224	0xbda4414b	-0.08020266
225	0xbc751756	-0.014959177
226	0xbdeb7e0e	-0.114986524
227	0x3de86f55	0.1134936
228	0x3d52269e	0.05130636
229	0xbc79d69b	-0.01524892
230	0x3cac5fbf	0.021041749
231	0x3ca5d441	0.020242812
232	0xbdac28d0	-0.08406222
233	0xbcdf5ef4	-0.027266957
234	0x3da1ec85	0.07906441
235	0x3db25977	0.0870847
236	0xbdd4ecf6	-0.10396759
237	0x3d9d003d	0.07666061
238	0x3dc7ac25	0.09749631
239	0x3d16c7c1	0.036811594
240	0x3ce9f7ec	0.028560601
241	0xbdbc7ee6	-0.092038915
242	0x3d42aab3	0.047526073
243	0xbe005758	-0.12533319
244	0x3d9dc308	0.07703215
245	0xba20780d	-0.00061214046
246	0x3c12b07a	0.008953208
247	0x3d33c2c4	0.043886915
248	0xbd8b1a93	-0.06792178
249	0x3d1ca027	0.03823867
250	0xbde3a6bf	-0.11115789
251	0xbd12ebf6	-0.03586956
252	0xbd52bf25	-0.05145182
253	0xbded7a68	-0.11595613
254	0xbadd8a88	-0.0016902247
255	0xbdf8e1e6	-0.12152462

mlp.2.bias f4 [32]
0	0x3d5be494	0.053684786
1	0xbdac487d	-0.084122635
2	0x3dddc3e3	0.10828378
3	0xbbde0183	-0.0067750826
4	0x3d86a5e3	0.06574609
5	0x3dc386b9	0.09547181
6	0x3d695e35	0.05697461
7	0xbd395273	-0.045244645
8	0xbddc44f8	-0.10755342
9	0x3d8cd03c	0.06875655
10	0x3ce148a0	0.02750045
11	0xbc921bc4	-0.017835505
12	0xbda5403b	-0.080688916
13	0xbd786ab4	-0.060648635
14	0xbdc3b738	-0.095564306
15	0xbde11cbe	-0.1099181
16	0x3d68cb33	0.05683441
17	0x3d642066	0.05569496
18	0xbc3780b7	-0.011200122
19	0xbba648d8	-0.0050746016
20	0x3cd789f9	0.026310908
21	0x3def606e	0.116883144
22	0xbd06bfea	-0.032897867
23	0x3cb6e751	0.022327097
24	0x3da23c3c	0.07921645
25	0x3d33f87c	0.043938145
26	0xba3dc589	-0.0007239213
27	0xbc4945da	-0.01228472
28	0xbdf33baa	-0.118766144
29	0xbde04263	-0.10950162
30	0xbd87f0ca	-0.06637724
31	0x3d669e06	0.056303047

mlp.4.weight f4 [16, 32]
0	0xbb046de3	-0.00202071
1	0x3e27b0c8	0.1637603
2	0x3db74d42	0.08950283
3	0x3c92cc34	0.017919637
4	0xbce62aef	-0.028096644
5	0x3dcb05e1	0.09913231
6	0x3ddea5cc	0.10871467
7	0x3dbe0eea	0.092801884
8	0x3e2b7d61	0.16747047
9	0xbcafa3d4	-0.021440424
10	0x3cba892b	0.022770485
11	0xbc620f18	-0.013797544
12	0x3dbb0eff	0.0913372
13	0x3c11cef8	0.008899443
14	0x3da09a6c	0.07841954
15	0xbcda7807	-0.026668562
16	0x3e2af4a6	0.16694888
17	0xbcc9892b	-0.02460154
18	0xbd30e46d	-0.043186594
19	0x3d53d8d6	0.051720463
20	0x3dd5a538	0.104319036
21	0x3d9d0b3d	0.07668159
22	0x3c08b2ba	0.008343393
23	0x3df13ffe	0.11779784
24	0xbe2677af	-0.16256593
25	0xbd7576d0	-0.05992776
26	0x3da1721e	0.07883094
27	0xbdf8724d	-0.12131176
28	0x3daf93d8	0.08573121
29	0x3c721582	0.014775636
30	0x3dce83ae	0.1008371
31	0x3e2381e8	0.15967524
32	0x3e136b0c	0.14396304
33	0xbd0fd512	-0.03511531
34	0x3e18d809	0.14926161
35	0xbe1cec1a	-0.1532444
36	0xbe0d59c7	-0.13803779
37	0xbe06aec6	-0.13152608
38	0x3e2fd6f8	0.17171848
39	0xbd8b26d3	-0.067945145
40	0xbdcec4a2	-0.100960985
41	0x3d437fe0	0.047729373
42	0x3de2498a	0.11049183
43	0xbd9749c7	-0.07387119
44	0xbdd00ca2	-0.101586595
45	0xbe1027fc	-0.14077753
46	0xbda07258	-0.07834309
47	0x3e20c67c	0.15700716
48	0x3d46485f	0.048408862
49	0xbd5a8467	-0.053348925
50	0x3cadc56b	0.0212123
51	0xbc6ae902	-0.01433778
52	0xbe313b06	-0.17307672
53	0xbe27a79d	-0.16372533
54	0xbdb036ab	-0.08604177
55	0x3e344cff	0.17607497
56	0xbe25d7bd	-0.16195579
57	0x3e2eb853	0.17062502
58	0xbd9ec84c	-0.07753047
59	0x3e153b73	0.1457346
60	0x3e2b92f0	0.16755271
61	0x3e2697ff	0.1626892
62	0xba8ea2a7	-0.0010882214
63	0xbe0afe71	-0.13573624
64	0xbdfd757d	-0.12375925
65	0x3e054140	0.13013172
66	0xbcbd5508	-0.023111835
67	0xbe28e876	-0.16494927
68	0xbe1e71be	-0.15473077
69	0xbdcac975	-0.09901706
70	0x3dcdcdaa	0.10048993
71	0x3d479ced	0.04873364
72	0xbdce8ed6	-0.100858375
73	0x3d3d725b	0.046251636
74	0x3daf0f69	0.08547861
75	0x3cb5f700	0.022212505
76	0xbe17cb5e	-0.14823672
77	0x3e326611	0.17421748
78	0xbd88e8ff	-0.066850655
79	0xbda0ee9d	-0.07858012
80	0xbe12ada4	-0.14324051
81	0xbe33c1c6	-0.17554387
82	0xbdadd5a5	-0.08488015
83	0x3c3cad94	0.011515994
84	0xbd84b4f8	-0.064798295
85	0xbdbb59dc	-0.09147999
86	0xbe01d496	-0.12678751
87	0xbdfe5922	-0.124193445
88	0x3d80b1a4	0.06283882
89	0xbcfad1b7	-0.030617578
90	0xbe21aa38	-0.1578759
91	0xbe150cdd	-0.14555688
92	0x3e2e157a	0.1700038
93	0x3dfbe5ed	0.12299714
94	0x3ce4d1e0	0.027932107
95	0x3dc36c56	0.09542148
96	0xbd00fa82	-0.031488903
97	0xbe2f4a5b	-0.17118208
98	0xbc30e380	-0.010796428
99	0x3e0892d0	0.13337255
100	0xbde90ee8	-0.11379796
101	0x3d4d668f	0.050146636
102	0x3dfc28b0	0.12312448
103	0x3d691b66	0.056910895
104	0xbdf217c7	-0.118209414
105	0xbdbcc116	-0.09216516
106	0xbd08bd96	-0.03338393
107	0x3d1dd1b1	0.038530055
108	0x3cb52779	0.022113549
109	0x3dbff5f7	0.09373086
110	0xbd7e2f56	-0.06205686
111	0x3db7fd0d	0.089838125
112	0x3db1047a	0.08643432
113	0x3ce4fb9d	0.02795201
114	0xbdd85c68	-0.105645
115	0x3e078abe	0.1323652
116	0x3d242f31	0.040084068
117	0x3e29dee6	0.16588935
118	0xbd90c7e1	-0.07069374
119	0x3d2b8e24	0.041883603
120	0x3e17bf17	0.14818989
121	0x3d1d248f	0.038364943
122	0xbb81c998	-0.0039607994
123	0x3dd163cf	0.10224115
124	0xbde4a454	-0.111641556
125	0xbe1ffd73	-0.15624027
126	0x3de50543	0.11182644
127	0xbd66a26f	-0.056307252
128	0x3e16ebc2	0.14738372
129	0xbc4db811	-0.012556092
130	0x3d6e74ba	0.058216788
131	0x3e23cf8f	0.15997146
132	0xbe09bbf8	-0.1345061
133	0x3c251af6	0.010077229
134	0x3e0239fe	0.12717435
135	0x3e10cbaa	0.14140192
136	0x3e3345c8	0.17507088
137	0x3d36c505	0.044621486
138	0x3e0ae73c	0.13564771
139	0x3e2f2a43	0.17105965
140	0x3dda97bc	0.10673472
141	0xbdb88b33	-0.09010925
142	0xbe0ef40e	-0.13960287
143	0xbd8b01eb	-0.06787475
144	0xbda8cfb6	-0.08242743
145	0xbe183264	-0.14862972
146	0x3decee1d	0.11568854
147	0xbd7b5cc7	-0.061367776
148	0x3dd301f3	0.10303106
149	0x3da9b34a	0.0828615
150	0xbda1835e	-0.078863844
151	0x3e2f9386	0.1714612
152	0x3deae795	0.11469952
153	0xbdd0c11e	-0.10193084
154	0x3defb074	0.11703578
155	0x3e123d37	0.14281164
156	0xbe2d9ccc	-0.16954345
157	0x3d0aed51	0.03391773
158	0xbd58bd72	-0.052915044
159	0x3e1c62be	0.15272042
160	0xbd23bc9a	-0.039974786
161	0xbe19e7c5	-0.1502982
162	0xbd8a926e	-0.067662105
163	0xbdbb4bc7	-0.09145313
164	0xbe0963f6	-0.13417038
165	0x3e09e830	0.13467479
166	0xbdb85361	-0.09000278
167	0x3d2640a1	0.04058898
168	0xbdb44123	-0.08801486
169	0x3de621d2	0.112369195
170	0xbe1bf285	-0.15229233
171	0x3ddbb562	0.107279554
172	0x3e130f78	0.1436137
173	0x3bcf9fab	0.0063361726
174	0x3dca33ef	0.09873187
175	0x3e0dcc40	0.13847446
176	0x3e2e34b9	0.170123
177	0xbd651b45	-0.05593421
178	0x3d6cb401	0.057788853
179	0xbd5768cb	-0.052590173
180	0x3c85dcd1	0.016340645
181	0xbdc4a88e	-0.09602462
182	0xbe2fc712	-0.17165783
183	0x3dff594c	0.12468204
184	0x3cd07eee	0.02545115
185	0x3c236dcd	0.009974909
186	0xbc9803e5	-0.018556545
187	0x3d84ed4c	0.06490573
188	0x3db5b878	0.08873075
189	0x3e111ed3	0.14171915
190	0xbe2da60f	-0.16957878
191	0x3e2f0656	0.1709226
192	0xbe28f138	-0.16498268
193	0x3d3e1001	0.04640198
194	0x3d1b3346	0.037890695
195	0xbd2cb8c3	-0.04216839
196	0x3d56c1cc	0.052430913
197	0xbe050f65	-0.12994154
198	0xbc5a3ff9	-0.013320916
199	0x3e09ce14	0.13457519
200	0xbe04e490	-0.12977815
201	0xbdfa38e8	-0.12217885
202	0xbd1328a7	-0.03592744
203	0x3e27d7df	0.16390942
204	0x3de177d3	0.11009183
205	0x3d8768a2	0.06611754
206	0xbe26350d	-0.16231175
207	0xbe0747eb	-0.13211028
208	0x3e2822da	0.16419545
209	0x3e02ba93	0.12766485
210	0xbde99e3e	-0.114071354
211	0xbe1f25da	-0.15541783
212	0x3de062a0	0.10956311
213	0xbdbd9b8d	-0.092581846
214	0x3d3a17cf	0.045432862
215	0xbd7efa5a	-0.062250473
216	0x3de41300	0.111364365
217	0xbddc08b6	-0.10743849
218	0xbd53ca5d	-0.05170666
219	0xbe176323	-0.14783911
220	0xbdbc1745	-0.09184126
221	0x3e070d37	0.13188635
222	0xbdf8ccad	-0.12148414
223	0x3dd9819f	0.106204264
224	0x3db165e4	0.08662012
225	0xbdfae5d4	-0.122508675
226	0xbd51e2d8	-0.051241726
227	0xbe269765	-0.1626869
228	0xbdbbca52	-0.09169449
229	0x3c4981de	0.012299029
230	0xbdcd86ac	-0.10035452
231	0x3d72e6c6	0.059302114
232	0xbd7bc132	-0.061463542
233	0x3d3df9df	0.046380874
234	0x3e2f00a7	0.17090093
235	0xbd23d9b7	-0.04000255
236	0x3db140e6	0.086549565
237	0x3e1cca91	0.15311648
238	0xbe29e6ba	-0.16591921
239	0x3cccc15c	0.024994545
240	0xbd9636aa	-0.07334645
241	0x3c1a6d40	0.009425461
242	0xbdb364fc	-0.087594956
243	0xbc72b9d8	-0.014814816
244	0x3ca06072	0.019577239
245	0xbd5aa0dc	-0.053376064
246	0xbe35b74e	-0.17745706
247	0x3d8f7e57	0.07006519
248	0x3e1ec96e	0.15506527
249	0xbdf4c3de	-0.11951421
250	0xbe12b383	-0.14326291
251	0xbe2a3abb	-0.16623966
252	0xbd2e2bc5	-0.04252221
253	0x3dc32078	0.09527677
254	0xbd5572f9	-0.0521116
255	0xbe029807	-0.12753306

mlp.4.bias f4 [16]
0	0x3d82a09f	0.06378292
1	0x3daa6748	0.083204806
2	0xbdb1c715	-0.0868055
3	0xbd599cd2	-0.05312807
4	0x3d66b256	0.05632242
5	0x3e130da9	0.1436068
6	0x3b05ae03	0.0020397909
7	0xbbd7031f	-0.0065616514
8	0x3dea8513	0.11451163
9	0x3dc12ae3	0.09432008
10	0xbde3ca8e	-0.111226186
11	0xbe06cd1b	-0.13164179
12	0xbe2c3c37	-0.16819845
13	0x3cc7e6fe	0.024402138
14	0xbe12d7ee	-0.14340183
15	0xbdfaedad	-0.12252364

mlp.6.weight f4 [8, 16]
0	0x3e597e2c	0.21239537
1	0xbdf54e04	-0.11977771
2	0x3d1918d8	0.03737721
3	0x3e58f517	0.21187244
4	0x3e47f41f	0.19526719
5	0xbdb1b74c	-0.08677539
6	0x3dccde16	0.10003297
7	0xbd35137f	-0.044208046
8	0xbe0efccd	-0.13963623
9	0xbe61e6ec	-0.22060746
10	0x3d046f98	0.032332987
11	0xbd2998aa	-0.041405357
12	0xbdc54b3c	-0.096334904
13	0xbe1ae63d	-0.15126891
14	0x3e6dd00c	0.23223895
15	0x3e61c8ff	0.2204933
16	0x3c8e6c20	0.017385542
17	0x3dd447a8	0.1036523
18	0x3d395408	0.045246154
19	0x3db08300	0.08618736
20	0x3d912b68	0.07088357
21	0x3e4d352e	0.20039818
22	0x3e4d51ac	0.20050687
23	0x3cc52f20	0.024070323
24	0xbe25c40a	-0.16188064
25	0xbda9d390	-0.082923055
26	0x3e2aba80	0.16672707
27	0x3e23b414	0.15986663
28	0x3e0259a8	0.12729514
29	0xbe70f9cc	-0.2353279
30	0xbdeb1454	-0.11478487
31	0x3c2003e0	0.009766549
32	0xbe196fe9	-0.14984097
33	0x3d97e652	0.07416977
34	0xbd8c8ee4	-0.06863192
35	0xbd90c61f	-0.070690386
36	0xbba1ade9	-0.004934062
37	0xbdc52155	-0.09625498
38	0x3dad0c2c	0.08449587
39	0xbd9f939c	-0.07791826
40	0xbdf23389	-0.11826236
41	0xbe6f44f2	-0.23366144
42	0xbe6ba3d4	-0.23011714
43	0x3cb39200	0.021920204
44	0x3d401e48	0.04690388
45	0xbb85f1d8	-0.004087668
46	0x3e3c594a	0.18393436
47	0x3de9bbdc	0.114127845
48	0x3d767436	0.06016942
49	0x3e072c62	0.13200524
50	0xbe498a3e	-0.19681641
51	0xbdf327c4	-0.11872819
52	0x3df05fe6	0.11737041
53	0xbd71431b	-0.058901887
54	0xbd7e5071	-0.062088434
55	0x3d83c0c1	0.06433249
56	0xbe7d8e15	-0.24761231
57	0xbe3eec9e	-0.1864495
58	0xbd675e54	-0.056486443
59	0xbe379ad9	-0.17930163
60	0x3e70e33a	0.2352418
61	0x3dcf65a6	0.1012681
62	0x3e00884a	0.1255199
63	0xbe2e84cb	-0.17042844
64	0xbe123f22	-0.14281896
65	0xbe3248a6	-0.17410526
66	0x3c823060	0.015892208
67	0xbdcfe40c	-0.10150918
68	0xbd85349c	-0.06504175
69	0x3ac1e700	0.0014793575
70	0x3cf54b50	0.029943138
71	0x3dd65688	0.10465723
72	0xba496e00	-0.0007683933
73	0xbe684606	-0.22682962
74	0x3e2121de	0.15735576
75	0xbe34d798	-0.17660367
76	0x3e759902	0.23984149
77	0xbdea3034	-0.11434975
78	0x3e145bc0	0.14488125
79	0x3e26f7a8	0.16305411
80	0x3e0df15a	0.138616
81	0xbe060827	-0.13089047
82	0xbe7ccd9c	-0.24687809
83	0xbd94d3dd	-0.07266972
84	0x3df40e4c	0.119167894
85	0xbdec50af	-0.11538827
86	0x3cbd6e2c	0.023123823
87	0x3c99ac61	0.018758954
88	0x3e06467f	0.1311283
89	0x3e129bd8	0.14317262
90	0xbe7127c8	-0.23550332
91	0x3da2f79f	0.07957386
92	0xbe775fdf	-0.24157666
93	0xbe2b1969	-0.16708912
94	0x3d4b0a68	0.04957047
95	0x3db9a45a	0.09064551
96	0x3cd5fbc9	0.026121037
97	0xbe6d9ec4	-0.23205096
98	0xbcca2660	-0.024676502
99	0x3e1fa28c	0.1558935
100	0xbe426550	-0.1898396
101	0xbdb10fdd	-0.08645604
102	0x3e342f92	0.17596272
103	0xbcd6a4b0	-0.026201576
104	0xbe3bc145	-0.18335445
105	0xbd632560	-0.055455565
106	0x3e038964	0.12845379
107	0x3debf7f5	0.115219034
108	0x3e2f2eef	0.17107747
109	0x3e759118	0.2398113
110	0xbdc5927c	-0.0964708
111	0xbda25358	-0.07926053
112	0xbde3e9df	-0.11128592
113	0xbdefb76c	-0.11704907
114	0xbdbd49dc	-0.09242603
115	0x3e338515	0.17531236
116	0xbd9742a5	-0.07385758
117	0x3d1a2d0a	0.03764061
118	0xbe7c9a5e	-0.24668261
119	0xbe01a6cc	-0.12661284
120	0x3df83c3f	0.12120866
121	0xbd91b61b	-0.07114812
122	0x3dbc7032	0.09201087
123	0xbcdf0d6d	-0.027228082
124	0x3e686f63	0.2269874
125	0xbe570c8b	-0.21000879
126	0xbe0ef542	-0.13960746
127	0x3ddeb103	0.10873606

mlp.6.bias f4 [8]
0	0xbd9eb7d9	-0.0774991
1	0xbe51478a	-0.20437446
2	0x3ba9ec1a	0.005185616
3	0xbc528207	-0.012848384
4	0xbe751a12	-0.23935726
5	0x3e250c35	0.16117938
6	0xbdc38946	-0.09547667
7	0x3db47572	0.088114634

mlp.8.weight f4 [1, 8]
0	0xbe2243b8	-0.15846145
1	0xbe742306	-0.23841485
2	0xbe8cfd5b	-0.27537045
3	0xbe459151	-0.19293715
4	0x3e668c34	0.22514421
5	0xbe900446	-0.2812826
6	0x3d9d75f4	0.076885134
7	0x3d6807d0	0.056648076
