models/ncf_best.pt (torch, 113745 bytes, 11 tensors)

user_embedding.weight f4 [430, 32]
0	0xbf871d2a	-1.0555775
1	0x3e92e164	0.28687584
2	0x400c9459	2.1965544
3	0xbeffa138	-0.49927688
4	0xbf060c22	-0.52362263
5	0x3ebcee65	0.3690063
6	0x3fb3d424	1.4049115
7	0x3e2d8421	0.16944934
8	0xbe92ed67	-0.2869675
9	0xc030452c	-2.754222
10	0xbea5370e	-0.32268566
11	0xbfac50c9	-1.3462154
12	0x3f28298c	0.65688396
13	0xbe7c7af0	-0.24656272
14	0x3f43a863	0.7642881
15	0x3f317577	0.6931986
16	0xbf8a73a9	-1.0816547
17	0x3d78a017	0.06069955
18	0xbdb8523a	-0.090000585
19	0xbebe6d8c	-0.37192953
20	0x3dc7687d	0.097367264
21	0x3f7bc7c1	0.98351675
22	0x3e89ab25	0.26888385
23	0xbe9bb958	-0.30414844
24	0xbf566d19	-0.8376022
25	0xbfe33f3c	-1.7753673
26	0xbf6ab72b	-0.9168574
27	0xbf621985	-0.8832019
28	0xbea46272	-0.32106358
29	0x3c806d4d	0.015677119
30	0x3f580d0b	0.843949
31	0x3fb89296	1.4419734
32	0x402c7e36	2.6952033
33	0x3f90934e	1.1294954
34	0x3f4b3604	0.79379296
35	0x3f14f39b	0.5818421
36	0x3e46aee7	0.19402657
37	0xbf7a1191	-0.97683054
38	0x3ef9101d	0.48645106
39	0x3ee85f94	0.4538542
40	0xbf076340	-0.5288582
41	0xbe9e3dd4	-0.30906546
42	0xc0178cb8	-2.3679638
43	0x3e83bcf1	0.25730088
44	0x3faa14fd	1.3287655
45	0xbecbac7b	-0.3978003
46	0x3f0cd50e	0.55012596
47	0x3f336479	0.70075184
48	0xbeeb6d05	-0.45981613
49	0xbe0ad767	-0.13558732
50	0x3ef8a8e8	0.48566365
51	0xc02e5198	-2.72373
52	0x4001bc01	2.0270998
53	0xbf9155d9	-1.1354324
54	0x3c69d1ea	0.014271239
55	0x3fbc758a	1.472337
56	0x3fb9197c	1.4460902
57	0x3f2837db	0.6571023
58	0xbe951fe2	-0.29125887
59	0x3f9650b3	1.1743377
60	0x3ea881b8	0.32911468
61	0xbfacb1b8	-1.3491735
62	0x3eb16333	0.34645995
63	0x3dc499e2	0.09599663
64	0xbf38295f	-0.7193813
65	0x3f092058	0.5356498
66	0x3f6449b9	0.8917499
67	0xbefb4e2b	-0.49083075
68	0x3c23d63f	0.009999811
69	0x3ed6833b	0.41896996
70	0xbef1007e	-0.47070688
71	0xbfe9a559	-1.8253585
72	0xbd8dde8b	-0.06927212
73	0xbf21c2c6	-0.63187826
74	0x3ef899d1	0.48554853
75	0xbd9cf213	-0.076633595
76	0x3f9f85a9	1.2462665
77	0xbe073082	-0.13202098
78	0xbe9020a9	-0.28149918
79	0x3ecf2cab	0.40463766
80	0xc034c71b	-2.8246524
81	0xbef97997	-0.48725578
82	0xbef02742	-0.4690495
83	0xbf22accb	-0.6354491
84	0xbfa7ec8f	-1.3119067
85	0x3f841996	1.0320308
86	0xbd39d8dc	-0.04537283
87	0xbf22903f	-0.6350135
88	0x3f76eb2c	0.96452594
89	0xbfb82deb	-1.4389013
90	0x3ee98f6d	0.45617238
91	0xbd97a2ea	-0.0740412
92	0x3f319cc9	0.6937986
93	0x3f54a909	0.8307043
94	0xbe0fe3d0	-0.14051747
95	0x3f7c1e71	0.9848395
96	0x3d9d31ef	0.0767554
97	0x3ec0ca72	0.37654454
98	0x40249501	2.5715945
99	0x3f18ce9d	0.59690267
100	0xbf304fcf	-0.6887178
101	0xbe819902	-0.25312048
102	0xbfd0b415	-1.6304957
103	0x3ef55a6d	0.47920552
104	0xbf1becd2	-0.60908234
105	0x3f148712	0.580186
106	0x3e14d96e	0.14536068
107	0xbf57c904	-0.842911
108	0xbc3e214c	-0.011604618
109	0x3ed4e3c7	0.4158003
110	0xbff484e9	-1.9103061
111	0xbfb4a137	-1.4111699
112	0x3f3402b6	0.70316637
113	0x3c9e5166	0.019325923
114	0x3f5802df	0.8437938
115	0xbd30eb96	-0.043193422
116	0xbf4bba5a	-0.79581225
117	0x3f050ca6	0.51972425
118	0xbfd181f9	-1.636779
119	0xbeb9d7b8	-0.36297393
120	0x3cfd1b41	0.030896785
121	0xbdf5eb18	-0.12007731
122	0x3f9d2efa	1.2279961
123	0x3f0fcb86	0.5616993
124	0xbe0dffad	-0.13867064
125	0xbd37894c	-0.04480867
126	0xbf797747	-0.9744763
127	0x3f16853a	0.5879704
128	0x3e7e4a21	0.24832965
129	0x3fb67e95	1.425738
130	0x3f1bb8a0	0.6082859
131	0xbefb8f47	-0.4913275
132	0xbfd4cb07	-1.6624459
133	0x3f318ac0	0.6935234
134	0xbf558f88	-0.83422136
135	0xbf6ce50c	-0.92537
136	0xbec72173	-0.38892707
137	0xbf1ab2c9	-0.60429054
138	0x3fd3a8b0	1.6535854
139	0xbde9065b	-0.11378165
140	0xbdb560e0	-0.08856368
141	0x3c9135ee	0.017725911
142	0xc022b0d6	-2.5420432
143	0x3f451256	0.76981103
144	0x3f9e6187	1.2373513
145	0x3fa2328e	1.2671678
146	0x3f9280e1	1.1445581
147	0x3d697df0	0.05700487
148	0xbc76f958	-0.015074097
149	0x3f711d76	0.9418558
150	0x3fe6e9c9	1.8040096
151	0xbf0fc5bc	-0.56161094
152	0xbebb013a	-0.36524373
153	0xbde44b04	-0.111471206
154	0x3e0adc2d	0.13560553
155	0xbf134288	-0.57523394
156	0xbfa48b31	-1.2854978
157	0xbfeb3584	-1.8375707
158	0x3fe3af84	1.7787938
159	0xbf7ce390	-0.9878473
160	0x3f1dd7f5	0.6165765
161	0x3fdc3a86	1.720536
162	0xbebeb3c3	-0.37246522
163	0xbdb5028b	-0.08838376
164	0x3f756b2d	0.9586666
165	0xbef70504	-0.48246014
166	0xbe59f2ce	-0.21284029
167	0x3f04ff36	0.5195192
168	0xbfc19569	-1.5123721
169	0x3f90be93	1.1308159
170	0x3c997647	0.018733157
171	0x3f2f1396	0.6838926
172	0xbe85f03d	-0.2615985
173	0x3fbd89de	1.4807699
174	0x3fd49feb	1.6611303
175	0x3f82fb34	1.0232911
176	0xbfc2dba3	-1.5223278
177	0xbfb87101	-1.4409486
178	0x3e99f266	0.30067748
179	0xbf227e48	-0.6347394
180	0xbfcc0fc1	-1.5942308
181	0x3f2e360d	0.68051225
182	0xbf88f9a0	-1.070118
183	0x400851b2	2.1299863
184	0x3b71617d	0.003683179
185	0x3ffa0b36	1.9534671
186	0x3c0cb135	0.008587171
187	0xbde1f47a	-0.11032958
188	0x3fbc5435	1.4713198
189	0x3f5d2f46	0.8640026
190	0x3ef5c1b0	0.47999334
191	0xbf68c87b	-0.9093091
192	0x3f08c111	0.53419596
193	0x3f72e849	0.9488569
194	0xbf276bd5	-0.65398914
195	0xbd7f3914	-0.062310293
196	0xbed9b4bb	-0.425207
197	0x3ecbba09	0.3979037
198	0xc00af785	-2.1713574
199	0xbfb81482	-1.4381258
200	0xbd856f33	-0.0651535
201	0x3f94fcd8	1.1639662
202	0x4002734f	2.0382879
203	0x3fea3c9e	1.8299749
204	0x3fe1929b	1.7622865
205	0x3f2fec08	0.6871953
206	0x3f66e5ca	0.9019438
207	0xbf105391	-0.5637751
208	0x3ee77599	0.45206907
209	0x3f79e497	0.97614425
210	0x3e1b1a1f	0.15146683
211	0x3f5da940	0.8658638
212	0x3e29c1e4	0.1657787
213	0x3e3598f4	0.17734128
214	0xbf67ee4f	-0.90598005
215	0xbfeeb78e	-1.8649766
216	0x3f31111e	0.69166744
217	0xbf8239b5	-1.0173861
218	0x3f2d3ed1	0.67673975
219	0x3fa0167e	1.2506864
220	0x3ef6a519	0.48172835
221	0xbed54696	-0.41655415
222	0xbe67a4b3	-0.22621422
223	0xbe60f7f8	-0.21969593
224	0xbf15fc92	-0.58588517
225	0xbee55137	-0.44788525
226	0xbfb0f55c	-1.3824878
227	0xbf119ffc	-0.5688474
228	0x402da9f2	2.7134976
229	0x3ecad669	0.39616707
230	0xbd581f00	-0.05276394
231	0xbd9dede8	-0.07711393
232	0x3f38346b	0.71954983
233	0x40272c69	2.6120856
234	0x3e33df34	0.17565614
235	0xbe275e67	-0.16344605
236	0x3e7f6b62	0.24943307
237	0x3f335dbf	0.7006492
238	0x3e520358	0.20509088
239	0xbfa1485a	-1.2600205
240	0x3fa49470	1.28578
241	0x3e9f409b	0.31103978
242	0x3f9e4675	1.2365252
243	0x3f7dd424	0.99151826
244	0x3f1237da	0.5711647
245	0xbe1fdfa0	-0.1561265
246	0x3eb5d095	0.35510698
247	0x3fd7e1b9	1.686576
248	0xbef63847	-0.4808981
249	0xbe73a0c4	-0.23791796
250	0xbff8d24d	-1.9439179
251	0x3e3dd2b3	0.18537407
252	0x3fbf7e58	1.4960432
253	0xbe9c38dd	-0.30512133
254	0x3dad3506	0.08457379
255	0xbec42631	-0.38310388

item_embedding.weight f4 [20, 32]
0	0x3faea964	1.3645444
1	0x3ecae587	0.3962824
2	0x3f009cd8	0.50239325
3	0x3ee1497a	0.4400137
4	0xbcdfa74d	-0.027301455
5	0xc02dfa5f	-2.7184064
6	0x3fc12a22	1.5090983
7	0xbfc6880b	-1.5510267
8	0x4002ff56	2.0468345
9	0xbeff4c75	-0.4986302
10	0xbf2e511e	-0.68092525
11	0x3f139dcc	0.57662654
12	0x3f6a6922	0.9156667
13	0xbeb13c07	-0.3461611
14	0xbf56c313	-0.8389141
15	0xbf34b69c	-0.7059114
16	0xbe1c44bf	-0.152606
17	0xbf2535f3	-0.64535445
18	0x3fab539f	1.3384894
19	0x3fb47859	1.4099227
20	0xbed504ce	-0.41605228
21	0xc02ba723	-2.6820762
22	0xbe6c26ac	-0.23061627
23	0x3f5381d6	0.8261999
24	0xbdd46f74	-0.103728205
25	0xbe5b12e3	-0.21393923
26	0x3c0c7ef9	0.0085751945
27	0xbf9ce318	-1.2256804
28	0xbfcf7d59	-1.6210128
29	0x3fb18f7e	1.3871915
30	0xbfa46eb0	-1.2846279
31	0x3e940542	0.2891026
32	0x3ed1e590	0.40995455
33	0x3fc9f467	1.5777711
34	0xc00b2300	-2.1740112
35	0x3eecd469	0.46255806
36	0x3f43e293	0.765176
37	0x3fe9ad9e	1.8256109
38	0x401e5eeb	2.4745433
39	0xbf2bbc53	-0.67084235
40	0x3f4f704f	0.81030744
41	0x3e540fd2	0.2070916
42	0xc00bb44f	-2.1828802
43	0x3df07885	0.11741737
44	0x3f14789e	0.5799655
45	0x3f7f464c	0.9971664
46	0xbf01672d	-0.5054806
47	0xbfd536ca	-1.6657345
48	0x3d7a33a6	0.061084412
49	0xb7ef5ca0	-2.8534152e-05
50	0x3e2e6605	0.17031105
51	0x3e02e5ca	0.1278297
52	0x3f9d99b8	1.2312536
53	0x3f1904ed	0.5977314
54	0x3e88e7e4	0.26739419
55	0x40162aeb	2.3463695
56	0xbfc16fa4	-1.5112195
57	0xbef2940f	-0.47378585
58	0x3dbe79b3	0.09300556
59	0xc037968c	-2.8685637
60	0x3fd9d350	1.7017612
61	0x3b504f30	0.003178548
62	0x3f4124a4	0.75446534
63	0x3f44c2fc	0.7686002
64	0x3d3d123e	0.046159975
65	0xbe8ae543	-0.27128038
66	0xbf40e0ef	-0.7534322
67	0xbe95a3fa	-0.29226667
68	0xbf9c8229	-1.2227222
69	0x3f80fe4c	1.0077605
70	0xbeddb7b1	-0.43304208
71	0x3f983ef3	1.189421
72	0xbe79620c	-0.24353808
73	0x3f65d777	0.897819
74	0xbefdfbcf	-0.49606177
75	0x3d126a01	0.035745624
76	0xbfc7b3a6	-1.5601699
77	0xbf6b5015	-0.9191907
78	0xbf5909f8	-0.84780836
79	0x3ee6a0dc	0.450446
80	0xc003874a	-2.0551324
81	0xbf0322ae	-0.5122479
82	0xbe7156a6	-0.2356821
83	0xbeaa72c6	-0.3329069
84	0x3ffb0c9b	1.9613222
85	0xbebd315b	-0.36951718
86	0xbf1a23da	-0.60210955
87	0x3d83316a	0.06405909
88	0x3ecb0f52	0.39660126
89	0x3fb447ba	1.4084389
90	0xbe6f5ae0	-0.2337451
91	0x3f4a7e17	0.7909865
92	0x3e28d8c9	0.16488947
93	0x3d425028	0.047439724
94	0x3fd1d609	1.6393443
95	0xbe9b9730	-0.30388784
96	0x3f4b29e5	0.793608
97	0x3ebc36af	0.3676047
98	0x3f09e622	0.5386678
99	0x3edf88db	0.436591
100	0xbfc09862	-1.5046504
101	0xbf6d7130	-0.92750835
102	0xbf79eee0	-0.9763012
103	0xbd44238f	-0.047885474
104	0xbfce4633	-1.6115173
105	0x3fba3244	1.454659
106	0xbd49143d	-0.049091566
107	0x3ffc3e81	1.9706575
108	0x3eaa53d6	0.33267087
109	0x3f00cca2	0.50312245
110	0x3ec02f98	0.3753631
111	0xbf935911	-1.1511556
112	0xbe7b55a4	-0.24544388
113	0x3dde20e5	0.10846118
114	0xbf2fea8c	-0.68717265
115	0x3f2e42cc	0.68070674
116	0xbf113834	-0.56726384
117	0xbf8c042b	-1.0938772
118	0xbf7866dc	-0.9703195
119	0xc011c0db	-2.277396
120	0x3f9a4038	1.2050848
121	0x3e39b2f7	0.18134676
122	0x3ee6a95d	0.4505109
123	0x3fa6cf85	1.303208
124	0x3e1d89eb	0.15384643
125	0x3ed35923	0.41278943
126	0x3f9c111b	1.219272
127	0xbe69ab68	-0.22819293
128	0xbefcdb0f	-0.49385878
129	0x3fcf5cf8	1.6200247
130	0xbf118ada	-0.56852496
131	0xbf922a5f	-1.1419181
132	0x3f8a7f1d	1.0820042
133	0xbe8aa3d3	-0.27078113
134	0xbe9e09ee	-0.3086695
135	0xbf526e2c	-0.8219936
136	0x3f4991ef	0.787383
137	0xbf86c5b8	-1.0529089
138	0x3f4eff88	0.8085866
139	0xbf8e50d3	-1.1118416
140	0x3f86a0ed	1.0517861
141	0xbdb296ea	-0.08720191
142	0xbe261c59	-0.16221751
143	0xbe91248b	-0.28348193
144	0xbf06adce	-0.52608955
145	0x3e5a53d0	0.21321034
146	0xbeab5f2d	-0.3347105
147	0xbebcdb28	-0.36885953
148	0xbf80c260	-1.0059319
149	0xbe928de3	-0.28623876
150	0xbf7b148e	-0.9807824
151	0x3f23e0bf	0.6401481
152	0x3f95644c	1.1671233
153	0x3f7dd0fd	0.99147016
154	0xbf14c042	-0.5810586
155	0xbfe908ca	-1.8205807
156	0xbe6c3d42	-0.23070243
157	0x3f7e1353	0.99248236
158	0xbf5f0abb	-0.8712575
159	0x3eb914d4	0.36148703
160	0xbebd456e	-0.36967033
161	0x3f42b977	0.76064247
162	0x3e8eab7f	0.27865216
163	0x3dcac6d6	0.09901206
164	0x3f063ac0	0.52433395
165	0xbf9dd057	-1.2329205
166	0xbfcc3fad	-1.5956932
167	0xbf728d31	-0.9474669
168	0xbf965580	-1.1744843
169	0x3f118e14	0.5685742
170	0x3f324093	0.6962978
171	0x3f89d402	1.0767825
172	0x3fe5bc90	1.794817
173	0xbf364e39	-0.7121311
174	0x3c907431	0.01763353
175	0x401582ea	2.3361154
176	0x3f40dc57	0.7533621
177	0xbf4ef15c	-0.80837035
178	0xbc77e048	-0.015129156
179	0x3f3e58be	0.7435416
180	0xbe909fba	-0.28246862
181	0xbf0e53fa	-0.5559689
182	0xbfa798f1	-1.3093549
183	0xbf111d05	-0.56684905
184	0x3c92dc90	0.017927438
185	0xbdcec0b5	-0.1009535
186	0x3e435720	0.19076204
187	0xbe9e96f5	-0.30974546
188	0x3f5b112b	0.8557307
189	0x3fb85805	1.4401861
190	0x3f09ed62	0.5387784
191	0x3e9ad16b	0.30237898
192	0x3fb932f8	1.446868
193	0x3fd32b06	1.6497505
194	0xbf4326a0	-0.7623081
195	0x3f206719	0.62657315
196	0xbedb1b9e	-0.42794508
197	0xbf35ccb8	-0.710155
198	0xbf35e402	-0.7105104
199	0xbfc08474	-1.5040421
200	0x3e342fac	0.1759631
201	0x3fe4289c	1.7824893
202	0x3ed95418	0.4244697
203	0xbef2bdc1	-0.47410396
204	0xbfe64d93	-1.7992424
205	0xbe860701	-0.2617722
206	0x3e300dcc	0.17192763
207	0xbf27191d	-0.65272695
208	0x3f4859d5	0.7826207
209	0xbda41c63	-0.08013227
210	0x3ec8636d	0.39138356
211	0x3e15b441	0.14619543
212	0xbf04dd9c	-0.5190065
213	0xbf07d809	-0.5306402
214	0x3fb2cd31	1.396887
215	0x3f61fc91	0.8827601
216	0x3e66fdfd	0.22557826
217	0x3f31d29e	0.69462
218	0x3f811be6	1.0086639
219	0x3e18878f	0.14895461
220	0x3f2c02fd	0.6719206
221	0xbf4dfe8c	-0.8046653
222	0x3dce38d2	0.10069431
223	0xc011f2ca	-2.2804437
224	0x3ee21e26	0.44163626
225	0xbf568f29	-0.83812195
226	0xbea76dcd	-0.3270096
227	0xbeb480ba	-0.3525446
228	0x3ef74c06	0.4830019
229	0x3f309518	0.689775
230	0xbdeaa55d	-0.11457322
231	0xbe69f0cf	-0.22845767
232	0x401d8977	2.4615152
233	0x3f60df43	0.8784067
234	0xbfb89ccf	-1.4422854
235	0x3f25d83f	0.6478309
236	0xbfceeda2	-1.616627
237	0xc00a716a	-2.1631722
238	0xbf014523	-0.5049612
239	0xbc669ba4	-0.014075194
240	0xbd8d1eb2	-0.0689062
241	0x3ddf91eb	0.109165035
242	0xbf1467f4	-0.5797112
243	0xbe38db4e	-0.18052408
244	0x3f5a358d	0.8523796
245	0x3ed174c1	0.4090939
246	0x3d856e77	0.0651521
247	0xbed6aa04	-0.41926587
248	0x3f95feaa	1.1718342
249	0x3ef1bd92	0.47214943
250	0xbfe0037b	-1.7501062
251	0x3e994c6f	0.29941127
252	0x3e68b1c9	0.2272407
253	0x3f99c5fb	1.2013544
254	0x3fcf7543	1.620766
255	0xbe31808a	-0.1733419

mlp.0.weight f4 [64, 64]
0	0xbde03b82	-0.1094885
1	0xbcd92567	-0.026507093
2	0xbdc8d2a8	-0.098058045
3	0xbdce87fb	-0.1008453
4	0xbd1b6c21	-0.037944917
5	0xbd8a68d6	-0.06758277
6	0xbd0cebf0	-0.034404695
7	0xbd907744	-0.07053998
8	0x3dc2112a	0.0947593
9	0xbde44f37	-0.111479215
10	0xbdcd60f9	-0.10028262
11	0x3da11d31	0.07866896
12	0xba87648e	-0.001032965
13	0xbd1e2942	-0.038613565
14	0xbdd7fa4a	-0.10545786
15	0x3de1d54b	0.110270105
16	0x3cb52f63	0.022117322
17	0x3dcc24a4	0.09967926
18	0x3dc9ebc0	0.09859419
19	0xbd2799a1	-0.040917996
20	0x3dde3b9e	0.10851215
21	0x3beef83c	0.0072927754
22	0xbccaec46	-0.024770867
23	0xbe001d73	-0.12511234
24	0xbde727f6	-0.11286919
25	0xbd80ac49	-0.06282861
26	0xbb3892b2	-0.002816361
27	0x3d7b1d6d	0.06130736
28	0xbcfa0974	-0.030522086
29	0x3d96db8c	0.07366094
30	0xbdfee2b3	-0.12445583
31	0xbdb5f86f	-0.088852756
32	0xbde33a37	-0.11095088
33	0xbd4afe8b	-0.049559157
34	0x3c77398b	0.015089403
35	0xbde99ed2	-0.11407246
36	0x3cb057d9	0.021526264
37	0x3d8c4c6f	0.06850516
38	0xbd6bf479	-0.057606194
39	0x3ddd01f9	0.10791392
40	0x3ca41a4b	0.020032069
41	0xbdd401b2	-0.10351886
42	0xbd5797c5	-0.052634973
43	0xbe008c59	-0.12553538
44	0xbda395a3	-0.07987525
45	0x3d0762a1	0.033053044
46	0x3df67b1b	0.12035199
47	0xbda0f022	-0.07858302
48	0x3d9583d1	0.073005326
49	0xbd787f58	-0.06066832
50	0x3e06a81f	0.1315007
51	0x3ddcc820	0.10780358
52	0xbda17dbe	-0.078853115
53	0x3c6f5a85	0.014608984
54	0xbd8bfef2	-0.06835736
55	0xbdfa93a1	-0.12235189
56	0xbdba1841	-0.09086657
57	0xbd20638d	-0.03915744
58	0x3dac728c	0.084202856
59	0xbc01193b	-0.007879551
60	0xbd2336ce	-0.039847188
61	0xbcc06f28	-0.023490503
62	0x3da3236f	0.07965743
63	0x3cb3caaa	0.021947224
64	0xbd8fc20b	-0.07019433
65	0x3dd3853e	0.10328148
66	0xbdeb1b37	-0.114798
67	0xbdd2f0b9	-0.102998205
68	0xbc11842c	-0.00888161
69	0xbde1b28b	-0.110203825
70	0x3d1566a7	0.03647485
71	0x3d1b0f8e	0.03785663
72	0x3d3bcd69	0.04585019
73	0x3ce1ad1c	0.027548365
74	0xbde0fd1d	-0.109857775
75	0xbc828d6e	-0.01593658
76	0x3dac5041	0.08413745
77	0x3d8ccf1c	0.068754405
78	0x3d05952d	0.03261297
79	0xbd58a832	-0.05289478
80	0xbc86c50f	-0.016451387
81	0x3d5ba0f9	0.053620312
82	0xbc69aecc	-0.014262866
83	0x3c82b286	0.015954267
84	0xbca5363e	-0.020167466
85	0x3c6f91ca	0.014622161
86	0x3dac216e	0.08404814
87	0x3d97ae8c	0.07406339
88	0x3d931c2a	0.07183106
89	0xbd64e01f	-0.0558778
90	0x3ddbeaa8	0.107381165
91	0x3cf970b7	0.030449254
92	0x3de84ce3	0.1134279
93	0x3dc4d4b8	0.096108854
94	0xbd8a9b05	-0.06767849
95	0xbd75a8ed	-0.059975553
96	0xbdec20cf	-0.11529695
97	0x3d959b0c	0.073049635
98	0xbd701dae	-0.058622055
99	0x3c511e59	0.012763583
100	0xbd9666dd	-0.07343838
101	0xbdd80a5a	-0.105488494
102	0x3d61f591	0.05516583
103	0xbd978e6e	-0.07400213
104	0x3db4fbf2	0.08837117
105	0xbb63ff26	-0.0034789531
106	0xbd4c576d	-0.049888063
107	0xbb065fd4	-0.0020503895
108	0x3d0a06d5	0.03369792
109	0xbd8f536f	-0.069983356
110	0x3df277aa	0.1183923
111	0xbda42264	-0.08014372
112	0xbdbfdd28	-0.09368354
113	0x3d5aba21	0.053400163
114	0x3d99876b	0.07496532
115	0xbdd858be	-0.10563801
116	0x3daa82fa	0.08325763
117	0xbd7e4b07	-0.06208327
118	0xbde63197	-0.11239927
119	0x3dd08d7a	0.101832345
120	0x3bb798e8	0.0056029446
121	0xba660fb9	-0.00087761466
122	0xbd9eb4d2	-0.077493325
123	0xbdae7e45	-0.08520178
124	0x3d9011d5	0.07034651
125	0x3dd61cdb	0.104547225
126	0xbdb9bf3f	-0.090696804
127	0x3c1ad678	0.009450547
128	0x3d796522	0.060887463
129	0xbd63c477	-0.055607285
130	0xbdb4ae21	-0.08822275
131	0x3debc0d5	0.11511389
132	0xbdc19173	-0.0945157
133	0xbd39ae95	-0.04533251
134	0xbdbf0431	-0.09326971
135	0xbcc5c431	-0.024141403
136	0x3da9acb3	0.08284893
137	0xbdc33f5e	-0.09533571
138	0xbdc98571	-0.09839905
139	0xbcd66c8c	-0.026174806
140	0x3df7e097	0.12103384
141	0x3dd89052	0.10574402
142	0x3d910097	0.07080191
143	0x3d91275b	0.070875846
144	0x3d92638d	0.07147894
145	0xbceb5760	-0.028728187
146	0xbd992362	-0.07477452
147	0xbdbc3c09	-0.09191138
148	0x3c5de548	0.013543434
149	0xbdf6d1a3	-0.12051704
150	0xbd12f4dc	-0.035878047
151	0xbc2e4fd3	-0.010639149
152	0x3dd373f6	0.10324852
153	0x3d7c51b3	0.061601352
154	0x3cc97bfb	0.024595251
155	0x3d08d1a3	0.03340305
156	0xbdf1b339	-0.11801762
157	0xbd081533	-0.033223342
158	0x3e026d77	0.1273707
159	0xbdaded70	-0.08492553
160	0x3dadd635	0.084881224
161	0xbb4e0d52	-0.0031441045
162	0xbbeea055	-0.0072822967
163	0x3d7485d5	0.059697945
164	0xbdbe806c	-0.09301838
165	0xbd70ae84	-0.05876018
166	0xbd789dff	-0.06069755
167	0x3d923482	0.07138921
168	0x3d3505a0	0.044194818
169	0x3bb67dfa	0.005569217
170	0x3d33532c	0.04378049
171	0x3d2188f6	0.039437257
172	0x3d547dad	0.051877666
173	0xbdf206e1	-0.11817718
174	0xbde5ee2c	-0.11227068
175	0xbdb08f0e	-0.086210355
176	0xbe0229ea	-0.12711301
177	0xbdcb5248	-0.09927803
178	0xbd70f416	-0.05882653
179	0x3cb099fc	0.0215578
180	0xbd007273	-0.031359147
181	0x3d98c48a	0.07459362
182	0xbd5f7d5b	-0.054562908
183	0x3d88337e	0.06650446
184	0x3dffd767	0.124922566
185	0x3d7a482e	0.061103992
186	0xbd36998f	-0.04458004
187	0xbcccd2a8	-0.025002792
188	0x3d22c08e	0.039734416
189	0x3b13d5c6	0.0022557839
190	0x3d79a0a3	0.06094421
191	0xbcf21d39	-0.02955495
192	0x3c935a97	0.017987533
193	0xbaa9d91c	-0.001295838
194	0x3dbbffa4	0.09179619
195	0xbcc39b82	-0.023877863
196	0x3d2d2803	0.042274486
197	0xbcac6f15	-0.021049062
198	0x3cf2d9e6	0.029644918
199	0xbaf9f4f0	-0.001907019
200	0xbdd1aa00	-0.10237503
201	0x3d8e841a	0.0695879
202	0xbded9683	-0.116009735
203	0x3c7e4778	0.015519969
204	0xbde1e5d8	-0.11030167
205	0xbc6617e8	-0.014043786
206	0x3cbf1109	0.023323553
207	0xbd773fd5	-0.06036361
208	0xbdb7701d	-0.08956931
209	0x3d02f860	0.03197515
210	0x3d8d1430	0.06888616
211	0x3d898c57	0.06716221
212	0xbd327992	-0.04357297
213	0x3d8a9f74	0.067686945
214	0xbdb11e3c	-0.08648345
215	0xbcc2a96d	-0.02376243
216	0xbd8d2d45	-0.068934
217	0x3d023490	0.03178841
218	0x3dc73400	0.09726715
219	0x3c6ebf77	0.014572016
220	0xbdc225be	-0.09479855
221	0x3da68519	0.08130855
222	0x3db170c9	0.0866409
223	0x3ddd8e2c	0.10818133
224	0xbd9553be	-0.07291363
225	0x3d8176b3	0.06321468
226	0xbdc8d172	-0.098055735
227	0xbd98ae9c	-0.07455179
228	0xbc4c51ac	-0.012470644
229	0xbc08257a	-0.008309716
230	0xbcce7c2e	-0.025205698
231	0x3dea1f0b	0.11431702
232	0xbb45c7d5	-0.0030178924
233	0xbd3b27b8	-0.045692176
234	0x3df27f31	0.11840666
235	0x3b6a678b	0.0035767283
236	0xbcfb2f94	-0.030662335
237	0x3d8567fd	0.06513975
238	0x3cfcade0	0.030844629
239	0x3c64ec50	0.013972357
240	0x3d92b2d4	0.07163015
241	0xbd4b3187	-0.04960778
242	0xbded19ff	-0.11577224
243	0xbdc8436c	-0.09778485
244	0x3d6c2447	0.057651784
245	0x3dac6edd	0.08419583
246	0x3d958ecd	0.07302628
247	0xbdcf26cb	-0.10114821
248	0xbd27b5b8	-0.040944785
249	0xbd6ac601	-0.057317737
250	0x3dbfb583	0.093607925
251	0x3d6b0871	0.057381097
252	0x3de109d8	0.10988206
253	0xbd9833e0	-0.07431769
254	0xbda5bbff	-0.08092498
255	0xbdf58151	-0.11987556

mlp.0.bias f4 [64]
0	0x3c38bb57	0.011275134
1	0xbd85068c	-0.06495389
2	0x3b00348a	0.0019562566
3	0xbd903634	-0.070415884
4	0xbd450f14	-0.048110083
5	0x3d1c5659	0.038168285
6	0xbdfdcc4e	-0.12392484
7	0xbdccb785	-0.09995941
8	0x3d44813c	0.04797481
9	0x3dbc7a1d	0.09202979
10	0x3cb1418a	0.021637697
11	0xba885e96	-0.0010404165
12	0x3d641d02	0.055691727
13	0x3d471997	0.04860839
14	0x3da9d3ea	0.082923725
15	0xbd7f0f3c	-0.062270388
16	0x3cf3d1e0	0.029763162
17	0x3de1ef71	0.11031998
18	0x3df299e3	0.11845758
19	0xbc65bca0	-0.0140220225
20	0x3e0d069b	0.13772051
21	0xbd88fc1a	-0.066887096
22	0xbd08e06d	-0.033417154
23	0xbc9de594	-0.01927451
24	0x3ce0ee9d	0.02745753
25	0x3dcc36bc	0.09971377
26	0xbc2c524e	-0.01051767
27	0x3dcfeedb	0.1015298
28	0x3d62c56b	0.055364054
29	0x3d05ce57	0.032667484
30	0x3ae257e2	0.0017268623
31	0x3e03251b	0.12807123
32	0x3dda1a35	0.1064953
33	0xbe055f1b	-0.13024561
34	0xbde63ac5	-0.11241678
35	0x3cf39d0c	0.029737972
36	0xbd4fd22a	-0.050737537
37	0x3d28cdd9	0.041211937
38	0x3d102961	0.035195712
39	0xbdaf6681	-0.08564473
40	0x3e02bc49	0.12767138
41	0x3db99b57	0.09062832
42	0xbde254f7	-0.11051362
43	0x3d46c939	0.048531745
44	0x3dc6e543	0.09711697
45	0x3dcbff44	0.099607974
46	0x3c9daa32	0.019246195
47	0xbb164f35	-0.0022935395
48	0x3c5567aa	0.013025204
49	0xbddd8a13	-0.10817351
50	0x3dd670e6	0.104707524
51	0xbc8a6b04	-0.016896732
52	0x3df197ab	0.117965065
53	0xbd900f61	-0.07034183
54	0xbdeea2ed	-0.116521694
55	0xbde790dd	-0.11306927
56	0x3dd0f158	0.10202283
57	0x3dce37d4	0.10069242
58	0x3da97ed9	0.082761474
59	0x3d221dee	0.039579324
60	0x3d3b6c03	0.045757305
61	0xbda0ed0f	-0.07857715
62	0xbdee2af9	-0.1162929
63	0x3dd11d47	0.10210662

mlp.2.weight f4 [32, 64]
0	0x3e028fb2	0.12750128
1	0x3c97c92a	0.01852854
2	0x3d583e42	0.05279375
3	0x3de59a6f	0.112110965
4	0x3d9d6c87	0.076867156
5	0x3de61ac2	0.112355724
6	0xbd004782	-0.031318195
7	0xbb8f7c98	-0.0043788664
8	0xbd62394e	-0.05523043
9	0xbd6b7b4b	-0.05749063
10	0x3db0904e	0.08621274
11	0xbd119daf	-0.03555077
12	0x3d45098f	0.04810482
13	0x3e01898d	0.12650128
14	0x3df97c6e	0.12181936
15	0x3dc834d7	0.097757034
16	0xbd8cc68c	-0.06873807
17	0x3d5ce16a	0.05392591
18	0x3d6bc5c4	0.05756165
19	0xbdad161e	-0.08451484
20	0xbd056f12	-0.032576628
21	0x3bbdd93c	0.0057937186
22	0x3d9718de	0.0737779
23	0x3dd67e07	0.104732566
24	0x3d7b1194	0.06129606
25	0xbbc80569	-0.0061041606
26	0xbddf3d46	-0.10900359
27	0x3dff1cf7	0.124566965
28	0xbd768dc5	-0.060193796
29	0xbc9be65b	-0.01903074
30	0x3de02ffd	0.10946653
31	0x3d85c912	0.06532492
32	0x3d2106fe	0.03931331
33	0x3d9ca1db	0.07648059
34	0xbdefa9a9	-0.11702282
35	0x3e06d5d5	0.13167508
36	0x3dbece6b	0.09316715
37	0x3d1ad7d3	0.037803482
38	0xbd31427c	-0.043276295
39	0xbd60dd81	-0.054898743
40	0x3dd4ff96	0.10400312
41	0x3da01ced	0.07818017
42	0x3c238c32	0.009982156
43	0xbdb2286e	-0.086991176
44	0x3dcdc2a4	0.100468904
45	0x3a13fcb1	0.0005645259
46	0x3d5527aa	0.05203978
47	0x3da8a21c	0.08234045
48	0xbd8c2a39	-0.06843991
49	0xbc6cec92	-0.0144607
50	0xbdb874a6	-0.09006624
51	0x3b7a2c80	0.0038173497
52	0xbd6e5789	-0.05818895
53	0x3debe34f	0.11517965
54	0xbc1f93c2	-0.009739818
55	0xbcd2b6cf	-0.025721936
56	0x3e006894	0.12539893
57	0xbb772a24	-0.0037714327
58	0xbb1b81aa	-0.002372841
59	0xbdd01df3	-0.10161962
60	0x3e041f89	0.12902655
61	0xbd40edd2	-0.047101803
62	0xbd526571	-0.051366273
63	0xbcf59b04	-0.029981144
64	0x3dc8d405	0.098060645
65	0xbdf097df	-0.11747717
66	0x3df20843	0.11817982
67	0xbdc4adfb	-0.09603497
68	0xbcacb02e	-0.021080103
69	0xbd99fa4f	-0.07518446
70	0xbd80468f	-0.06263458
71	0x3df6d87e	0.12053011
72	0xbd9dcb20	-0.07704759
73	0x3ab7d233	0.0014024436
74	0x3d0025ce	0.031286053
75	0x3dcbf871	0.09959496
76	0x3c1d4c2f	0.009600683
77	0x3dde68f2	0.108598605
78	0xbbc689dc	-0.0060589146
79	0x3d0c0f3c	0.034194216
80	0xbcffe810	-0.031238586
81	0xbdf62340	-0.12018442
82	0xbd9bac1c	-0.07601187
83	0x3d923b7f	0.07140254
84	0xbddd965a	-0.10819693
85	0xbd858ab9	-0.065206
86	0x3d938641	0.07203341
87	0xbd16d0ae	-0.036820106
88	0xbd49913b	-0.04921077
89	0x3d13d604	0.036092773
90	0xbd8f2414	-0.06989303
91	0x3bc91573	0.00613659
92	0xbdcb5361	-0.09928013
93	0x3d5c54bf	0.053791758
94	0x3dd9b17c	0.106295556
95	0xbdb52b93	-0.08846202
96	0x3de6ebc3	0.11275437
97	0xbd69d0ea	-0.057084
98	0xbb9dcac9	-0.0048154336
99	0x3c70adcf	0.014689877
100	0x3cd61740	0.026134133
101	0xbd7dc817	-0.0619584
102	0xbdb34831	-0.08754004
103	0x3cfdabf2	0.030965779
104	0xbdd52ff1	-0.10409535
105	0x3dac8660	0.084240675
106	0xbdb61603	-0.08890917
107	0x3db6e7a4	0.08930901
108	0xbdbac688	-0.09119898
109	0xbdd25152	-0.10269417
110	0x3d6e9a1f	0.05825245
111	0xbd4d1e2d	-0.050077606
112	0x3d66a33e	0.056308024
113	0xbd608574	-0.05481477
114	0x3dab00ed	0.08349786
115	0xbd1d3b5f	-0.0383867
116	0x3bc4342f	0.005987666
117	0xbd8b9c40	-0.06816912
118	0x3d94d2d2	0.07266773
119	0x3ddc387d	0.10752962
120	0x3d67cf7c	0.056594357
121	0x3da2b296	0.07944219
122	0xbdede821	-0.11616541
123	0x3b375943	0.0027976788
124	0x3d90174e	0.07035695
125	0x3cc9cd0a	0.024633903
126	0xbdc0bda9	-0.09411175
127	0x3d99af11	0.075040944
128	0x3bf27423	0.0073990985
129	0x3bb9c062	0.005668686
130	0x3d418c33	0.047252845
131	0x3dea2794	0.1143333
132	0x3db926c9	0.09040601
133	0x3dc3f978	0.09569067
134	0xbdcae7c0	-0.09907484
135	0xbd16ba12	-0.036798544
136	0x3de3c9a1	0.11122442
137	0xbc615d6b	-0.013755183
138	0x3dd4e0e7	0.10394459
139	0x3d5837c9	0.052787576
140	0x3c289fdb	0.010292019
141	0x3d0dc347	0.03461006
142	0x3daf86e4	0.0857065
143	0x3ca6472e	0.020297613
144	0x3dcefcee	0.10106836
145	0x3cbc7893	0.023006713
146	0xbd477334	-0.04869385
147	0xbd7a7a97	-0.061152067
148	0xbd8eb45c	-0.069679946
149	0xbe033233	-0.12812118
150	0xbe06142b	-0.13093631
151	0x3d463949	0.048394475
152	0xbd753f7b	-0.059874993
153	0xbdb1f001	-0.08688355
154	0xbd37e837	-0.04489919
155	0xbe05d810	-0.13070703
156	0x3d994651	0.07484115
157	0x3d34f6de	0.044180743
158	0xbdb33d05	-0.08751873
159	0x3d275441	0.040851835
160	0xbd93f136	-0.07223742
161	0x3d852258	0.06500691
162	0xbce410be	-0.027840015
163	0xbdad29a7	-0.0845521
164	0xbdc9c21d	-0.09851477
165	0x3cc0dc99	0.02354269
166	0xbe08214a	-0.13293949
167	0x3cd94881	0.02652383
168	0x3bd3e435	0.0064664134
169	0x3db78df6	0.08962624
170	0xbd85ab71	-0.065268405
171	0x3dcd0947	0.10011535
172	0xbd505636	-0.050863467
173	0xbd9424a2	-0.0723355
174	0x3ae88e9b	0.0017742695
175	0xbdc4c328	-0.096075356
176	0x3d8721bb	0.065982305
177	0xbdac90a6	-0.08426027
178	0x3d8456c6	0.06461863
179	0x3d8cbd48	0.0687204
180	0xbcaec429	-0.02133377
181	0xbdcf0361	-0.10108066
182	0x3d955db6	0.072932646
183	0x3b13604e	0.0022487822
184	0x3df42750	0.11921561
185	0xbd46529c	-0.048418626
186	0x3d912e88	0.07088953
187	0xbd97bb54	-0.07408777
188	0x3d9aa0ee	0.07550226
189	0x3c937537	0.018000228
190	0x3b7e09ab	0.0038763087
191	0x3c39a4e2	0.011330815
192	0xbc42d33c	-0.0118911825
193	0x3d9f38ac	0.07774481
194	0xbd272865	-0.040810008
195	0xbd548799	-0.05188713
196	0xbdb4f415	-0.088356175
197	0xbd3f140d	-0.04664998
198	0xbd71a2b2	-0.05899305
199	0xbdae6240	-0.085148335
200	0x3d563551	0.05229694
201	0x3de2f666	0.11082153
202	0x3d9c4be3	0.07631662
203	0x3d253e84	0.040342823
204	0xbd0ba699	-0.034094427
205	0xbe02b39b	-0.12763827
206	0x3cf7867b	0.030215492
207	0x3da21453	0.07914033
208	0xbdb71c91	-0.089409955
209	0xbda820d3	-0.08209386
210	0xbdbe8069	-0.09301836
211	0x3da4a047	0.08038383
212	0xbd34a016	-0.044097982
213	0x3db7a5bf	0.089671604
214	0xbd941f3a	-0.072325185
215	0xbd6a51f1	-0.05720705
216	0x3db1ff20	0.08691239
217	0xbe003f57	-0.12524162
218	0x3d3a1e68	0.045439154
219	0xbd8215ad	-0.063517906
220	0xbd51dc1f	-0.051235314
221	0x3c17ff7b	0.00927722
222	0xbdf46fcc	-0.11935386
223	0x3d766e68	0.060163885
224	0x3c1abc45	0.009444301
225	0x3d957338	0.07297367
226	0xbd835650	-0.06412947
227	0xbde18949	-0.11012513
228	0xbdd66526	-0.10468511
229	0x3d31017f	0.043214317
230	0xbdddb1db	-0.10824939
231	0x3d6e33c9	0.058154855
232	0xbe02f36a	-0.12788168
233	0xbdd6ba9c	-0.10484812
234	0xbbe29f43	-0.006915958
235	0x3c929d13	0.017897164
236	0x3d6aaf15	0.057295877
237	0x3cfff14a	0.031242985
238	0x3da604eb	0.08106407
239	0xbd8aae6a	-0.06771548
240	0xbcc1e8dc	-0.023670606
241	0x3dddd32f	0.10831296
242	0x3c457698	0.012052201
243	0xbd80e8e2	-0.06294419
244	0xbd9d4e46	-0.07680945
245	0xbda029dc	-0.07820484
246	0x3dea67d0	0.11445582
247	0x3d6d848f	0.057987746
248	0x3c9e9771	0.019359322
249	0x3dc53b97	0.096305065
250	0xbd620300	-0.055178642
251	0xbd7b6538	-0.061375827
252	0x3cb05113	0.021523034
253	0xbdbfa2ae	-0.093572006
254	0xbdf742c2	-0.1207328
255	0xbc34669c	-0.011010792

mlp.2.bias f4 [32]
0	0x3cbecbc3	0.02329052
1	0x3cc6c5fb	0.024264326
2	0xbdbdd82a	-0.09269746
3	0xbd9805d2	-0.07422985
4	0xbddeb70e	-0.10874759
5	0x3dcfa3c1	0.101386555
6	0xbd424af7	-0.047434773
7	0xbd262e56	-0.040571533
8	0x3dcdff22	0.10058428
9	0xbd88036b	-0.06641277
10	0xbdef2268	-0.11676484
11	0xbe030237	-0.12793814
12	0xbcc5134c	-0.024057053
13	0xbdc91efa	-0.098203614
14	0xbe06c70b	-0.13161866
15	0xbbf37cef	-0.0074306647
16	0x3cdd2e5f	0.02699965
17	0xbc090896	-0.008363863
18	0xbdf1dc5b	-0.118096076
19	0x3d17ca42	0.037058122
20	0x3d92a488	0.07160288
21	0x3d5527a8	0.052039772
22	0x3df9e345	0.12201551
23	0x3d6dfa17	0.058099832
24	0xbbc316b8	-0.005953636
25	0xbcf880aa	-0.03033479
26	0x3d89968f	0.0671817
27	0x3d1c28f7	0.038125005
28	0x3c32e470	0.010918722
29	0xbd09f1c8	-0.033677846
30	0x3cd8a9b3	0.026448106
31	0x3da12224	0.0786784

mlp.4.weight f4 [16, 32]
0	0xbdb07ad1	-0.08617175
1	0xbd85a14c	-0.065249056
2	0xbba1ae73	-0.004934126
3	0x3cc994ff	0.02460718
4	0xbd9c9b23	-0.076467775
5	0xbe1af389	-0.15131964
6	0xbe186855	-0.1488355
7	0x3e0ae129	0.13562454
8	0xbc15dcf6	-0.0091469195
9	0xbdb2f2f8	-0.08737749
10	0xbd9bf5cb	-0.07615241
11	0xbc64136f	-0.013920649
12	0xbde6562e	-0.11246906
13	0x3dcb0ccf	0.099145524
14	0x3e22fd09	0.15916838
15	0xbe1bba42	-0.1520777
16	0x3ca26f9c	0.01982861
17	0x3b84a032	0.004047417
18	0xbe021f9a	-0.12707368
19	0x3de0c974	0.10975924
20	0x3d86651e	0.06562255
21	0xbc812bd8	-0.015767977
22	0x3d4114bf	0.047138926
23	0x3e1abf29	0.15111984
24	0x3a816880	0.0009873062
25	0x3cdfa121	0.027298512
26	0xbd5e7180	-0.05430746
27	0x3d40ad93	0.047040533
28	0xbde7c07f	-0.113160126
29	0x3bb5cb13	0.00554789
30	0x3c4a12f6	0.012333622
31	0xbe01fb7e	-0.12693593
32	0x3dc6d5c5	0.09708742
33	0xbdb5cb19	-0.088766284
34	0xbdb78e0b	-0.089626394
35	0xbd812403	-0.06305697
36	0x3ddcabcf	0.107749574
37	0xbdca9b3c	-0.0989289
38	0x3e1876e0	0.14889097
39	0xbd8af2b0	-0.0678457
40	0x3e268bef	0.16264318
41	0x3e358620	0.17726946
42	0xbdcf1cbc	-0.101129025
43	0xbdb8a757	-0.090162925
44	0x3e3ba45a	0.18324414
45	0xbdc87c53	-0.09789338
46	0xbe26b379	-0.16279401
47	0xbe1ddcc3	-0.15416245
48	0xbd18e695	-0.037329275
49	0xbdeed60b	-0.11661919
50	0xbe23009b	-0.159182
51	0xbe0e1a11	-0.13877131
52	0x3e475bfe	0.19468686
53	0xbce66e6f	-0.02812883
54	0x3e13a545	0.14418514
55	0xbcb9f8d8	-0.022701666
56	0x3df20b9c	0.118186206
57	0xbdbb7471	-0.09153069
58	0x3cc7b9fb	0.024380675
59	0x3e0977ba	0.13424578
60	0x3e1b6f35	0.15179141
61	0xbdd105d2	-0.10206188
62	0xbdd8c512	-0.10584463
63	0x3d67c559	0.05658469
64	0xbe2751e3	-0.16339831
65	0xbdd34378	-0.10315603
66	0xbcef18d5	-0.029186646
67	0x3e07d3e2	0.1326442
68	0x3e1b12e6	0.15143928
69	0xbe0082ff	-0.12549971
70	0xbde28375	-0.1106023
71	0x3c7ec417	0.015549681
72	0x3d1223b7	0.03567859
73	0xbb407b08	-0.0029370207
74	0x3b0c4ccd	0.0021408082
75	0x3df72142	0.1206689
76	0x3d76ed05	0.060284633
77	0x3d65be86	0.0560899
78	0x3d19f16d	0.037583757
79	0x3bdff10b	0.0068341545
80	0xbe1b98d4	-0.15195018
81	0x3decda51	0.11565078
82	0xbcdcb7b7	-0.02694307
83	0x3d47c26d	0.048769403
84	0x3d4394ff	0.047749516
85	0xbe2ab1f7	-0.1666945
86	0x3de74d10	0.112939954
87	0x3cd47703	0.025935655
88	0xbe33a590	-0.17543626
89	0x3dbc9ac1	0.092092045
90	0x3e01dca7	0.12681828
91	0xbde426f2	-0.11140241
92	0xbde8e084	-0.11370948
93	0xbc86bf34	-0.016448595
94	0xbd91e253	-0.07123246
95	0x3d9b255d	0.07575486
96	0x3d639174	0.055558637
97	0x3e1d5cd8	0.15367448
98	0xbe0e9e6a	-0.13927618
99	0xbe1d951c	-0.15388912
100	0xbd864adc	-0.06557247
101	0xbdf074bc	-0.11741015
102	0x3db79bee	0.08965288
103	0x3db6aa56	0.08919208
104	0xbe012d46	-0.12614927
105	0xbe319e41	-0.17345525
106	0xbd6300fb	-0.055420857
107	0x3c89b0f3	0.016808009
108	0x3e06a9e0	0.1315074
109	0xbc740f1b	-0.01489618
110	0x3dc74248	0.09729439
111	0xbe1d6e38	-0.15374076
112	0x3da0e334	0.078558356
113	0x3c3e40c9	0.011612126
114	0xbd80235f	-0.062567465
115	0xbe07e497	-0.13270794
116	0x3e0b2078	0.13586605
117	0x3e01ccaf	0.12675737
118	0xbe460c47	-0.19340621
119	0xbdc4ea7d	-0.096150376
120	0x3de91403	0.1138077
121	0x3e127449	0.14302172
122	0x3d4f6696	0.050634943
123	0xbdf3387e	-0.118760094
124	0xbc893fe9	-0.016754108
125	0xbe28944b	-0.1646282
126	0xbe2a4edb	-0.16631643
127	0xbd81eada	-0.063436225
128	0xbd9b6b06	-0.075887725
129	0x3d78cebe	0.06074404
130	0xbe0a2c22	-0.13493398
131	0x3cc6a29a	0.024247456
132	0x3dfd2fc8	0.12362629
133	0x3ccab438	0.024744138
134	0xbe0180fb	-0.12646858
135	0x3da1d57b	0.07902046
136	0xbd9780d2	-0.073976174
137	0xbe232dd2	-0.15935448
138	0x3dcbbf4c	0.09948596
139	0xbde4b879	-0.11167998
140	0xbc80930c	-0.015695117
141	0x3e12f5d4	0.14351588
142	0x3de76820	0.11299157
143	0x3cdec3d8	0.027192995
144	0x3e2b7ad2	0.16746071
145	0x3d11e292	0.035616465
146	0x3d10a254	0.03531106
147	0x3e0e347b	0.13887207
148	0x3d0feed0	0.03513986
149	0x3d85cc61	0.06533123
150	0xbdc7cfdc	-0.09756443
151	0xbdae6199	-0.08514709
152	0xbdb40731	-0.08790434
153	0xbde51c2c	-0.11187014
154	0x3c29889b	0.010347511
155	0xbe1fd484	-0.15608412
156	0xbd99d7b5	-0.07511846
157	0x3e282e92	0.16424015
158	0x3c1e07f9	0.0096454555
159	0x3e024298	0.12720716
160	0xbe1f4b70	-0.15556121
161	0x3c378e33	0.0112033365
162	0xb99c2e89	-0.0002978931
163	0x3da69fec	0.081359714
164	0xbd814ab5	-0.06313077
165	0x3c7050a0	0.01466766
166	0x3e37bc86	0.1794301
167	0x3d3ead34	0.046551898
168	0x3dbb397b	0.09141823
169	0xbdf90ed0	-0.121610284
170	0x3de214db	0.11039134
171	0x3de90775	0.113783754
172	0xbcd9496f	-0.026524274
173	0x3e1e6ea9	0.15471901
174	0x3c99fc33	0.018797016
175	0xbe12e3e0	-0.1434474
176	0x3d15ae4f	0.036543187
177	0x3c97b4fc	0.018518917
178	0x3e14b39f	0.14521645
179	0x3d50d028	0.050979763
180	0x3e000c09	0.12504591
181	0x3e2879c4	0.164527
182	0x3e15f1c9	0.14643015
183	0xbac2040b	-0.001480223
184	0xbd984a45	-0.07436041
185	0xbd06296d	-0.03275435
186	0xbb7b42bc	-0.0038339337
187	0xbe09a034	-0.13440019
188	0xbbe556bf	-0.0069988663
189	0xbd2162dd	-0.039400924
190	0xbd4fb59c	-0.050710306
191	0x3ddfd12f	0.109285705
192	0xbd0608ee	-0.03272336
193	0x3cf9f0be	0.030510303
194	0xbe1ca197	-0.15296017
195	0xbe231ef0	-0.1592977
196	0x3d4d5c89	0.050137077
197	0x3e210d27	0.15727673
198	0x3ddb004c	0.10693416
199	0x3e40ff13	0.18847303
200	0xbe01b341	-0.12666036
201	0x3d9ac09c	0.075562686
202	0xbe290f79	-0.16509809
203	0x3e3162d6	0.17322859
204	0xbdf917c8	-0.12162739
205	0xbe20d81a	-0.15707436
206	0xbdf3f451	-0.11911834
207	0xbd59c7b5	-0.05316897
208	0x3df9e4ad	0.122018196
209	0xbdf07280	-0.11740589
210	0xbdc3a5a5	-0.095530786
211	0xbddf63e1	-0.10907722
212	0x3dd0f4a6	0.10202913
213	0xbde6857f	-0.11255931
214	0x3d1bd9db	0.03804956
215	0x3e2a1c5f	0.16612385
216	0x3e39a256	0.18128332
217	0x3de4a744	0.11164716
218	0xbe0bbb2f	-0.13645624
219	0x3df83e48	0.12121254
220	0x3e3a74fa	0.18208686
221	0x3e3133ff	0.17304991
222	0xbe0dcb69	-0.13847126
223	0x3cfb4fd9	0.030677723
224	0x3d500984	0.050790325
225	0xbda0e065	-0.078553
226	0xbd4a5929	-0.049401436
227	0xbd90240f	-0.07038128
228	0xbc4f4151	-0.01264985
229	0xbe1357a3	-0.143889
230	0x3beb4076	0.007179315
231	0xbe04d0eb	-0.12970321
232	0xbdf1b895	-0.11802784
233	0xbe222529	-0.15834488
234	0x3d3b7920	0.04576981
235	0x3dc49544	0.09598783
236	0x3d6c6dd8	0.057721943
237	0xbda01b3c	-0.078176945
238	0x3d0f5743	0.03499533
239	0x3d48621f	0.0489217
240	0xbd9d9c63	-0.07695844
241	0xbd7f1188	-0.06227258
242	0x3dbd8cdc	0.092553824
243	0xbe30f470	-0.17280746
244	0xbe0dda4b	-0.13852803
245	0x3d19b00a	0.0375214
246	0xbde38c1c	-0.11110708
247	0xbdbc6f2d	-0.092008926
248	0x3c964e47	0.018347872
249	0xbe1c6bfe	-0.15275571
250	0xbdbdd080	-0.09268284
251	0xb9d1fa42	-0.00040050043
252	0xbda1a424	-0.078926355
253	0x3d3da988	0.046304256
254	0xbe1be1e4	-0.15222889
255	0x3d9a1377	0.07523244

mlp.4.bias f4 [16]
0	0x3c905cf6	0.017622452
1	0x3e0d3f90	0.13793778
2	0x3d91d4a1	0.07120634
3	0x3dee67b0	0.116408706
4	0xbd481643	-0.048849355
5	0x3deac4a0	0.114632845
6	0x3e33b23e	0.17548463
7	0xbe2fd9ff	-0.17173003
8	0x3dee1cca	0.11626585
9	0x3ddda6d6	0.10822837
10	0xbcf791b9	-0.030220853
11	0x3c9f13b9	0.019418584
12	0xbd81c999	-0.0633728
13	0x3d102ecd	0.035200883
14	0xbe26bbce	-0.1628258
15	0xbdf83926	-0.12120275

mlp.6.weight f4 [8, 16]
0	0xbe627893	-0.22116308
1	0xbe19e8d1	-0.15030219
2	0xbd87efcd	-0.06637535
3	0xbe38bdd7	-0.18041168
4	0xbe066a24	-0.13126427
5	0xbdf4b221	-0.11948038
6	0x3e1b2136	0.15149388
7	0xbe215ca8	-0.15758002
8	0x3d887481	0.06662846
9	0xbe68c8ea	-0.22732893
10	0xbe199a70	-0.1500032
11	0xbd71e72f	-0.059058364
12	0x3d5717e0	0.052513003
13	0xbe798c10	-0.24369836
14	0xbe47c836	-0.19509968
15	0xbe69e461	-0.22841026
16	0xbe4e374a	-0.20138279
17	0x3e02fd00	0.12791824
18	0xbe7ba1fc	-0.24573511
19	0x3e714b3a	0.23563853
20	0x3d17b4c0	0.03703761
21	0xbe7860b0	-0.24255633
22	0xbe158126	-0.14600047
23	0x3e07c388	0.13258183
24	0x3e665cf4	0.22496396
25	0xbe0463f2	-0.12928751
26	0xbe33da9e	-0.17563865
27	0x3e15843c	0.14601225
28	0xbc416a00	-0.0118050575
29	0xbc9e2590	-0.01930502
30	0xbcdd0a10	-0.026982337
31	0x3d3b4a00	0.04572487
32	0xbe1aa92a	-0.15103593
33	0xbe0597cc	-0.13046187
34	0xbdfd19e0	-0.12358451
35	0xbe191d72	-0.14952639
36	0xbe7b52a4	-0.24543244
37	0x3df3b0c8	0.11898953
38	0x3e2811ae	0.16412994
39	0x3e61d586	0.22054109
40	0xbe477ca4	-0.1948114
41	0xbe4df496	-0.20112833
42	0x3dfe1270	0.124058604
43	0x3e1f5b6e	0.15562221
44	0xbd900910	-0.070329785
45	0xbd46f8c8	-0.0485771
46	0xbbade340	-0.0053066313
47	0x3da7d550	0.08194983
48	0xbd23825d	-0.039919246
49	0x3e7e158e	0.2481291
50	0xbe534cd3	-0.20634775
51	0xbdc94d58	-0.09829205
52	0x3e7bc12b	0.24585406
53	0x3e78eee3	0.24309878
54	0x3e33df08	0.17565548
55	0xbb16f280	-0.0023032725
56	0x3ccc8bb8	0.024968967
57	0x3e7f2f52	0.24920395
58	0xbe1ed7ef	-0.1551206
59	0xbe540fe3	-0.20709185
60	0xbdb45754	-0.08805719
61	0x3dfcad3a	0.12337728
62	0xbbdddbbb	-0.0067705787
63	0xbddae074	-0.10687342
64	0xbddbf531	-0.10740126
65	0xbc418ecb	-0.01181383
66	0x3db9b905	0.09068493
67	0xbdd96252	-0.10614456
68	0xbbd1af11	-0.0063990434
69	0xbc0aebaa	-0.008479038
70	0x3e7212da	0.23640004
71	0xbdf0e538	-0.1176247
72	0x3de44989	0.11146838
73	0x3e807642	0.25090224
74	0x3e47569f	0.19466637
75	0x3e3644a5	0.17799623
76	0xbd3eee18	-0.046613783
77	0x3e5220ad	0.20520277
78	0xbe302aa6	-0.17203769
79	0x3e47c21e	0.19507644
80	0x3ddd25a8	0.10798198
81	0x3d938900	0.07203865
82	0xbd9ae48c	-0.07563123
83	0xbe038bd6	-0.12846312
84	0x3e5a149c	0.21296924
85	0x3e622e72	0.2208803
86	0xbdc3e407	-0.09564977
87	0x3e3c75b6	0.18404278
88	0xbdc99de1	-0.09844566
89	0x3d1fb9f8	0.038995713
90	0xbe02a4ac	-0.1275813
91	0xbda06538	-0.07831806
92	0xbe7f74f6	-0.24946961
93	0x3e16d6ed	0.14730425
94	0x3dc41beb	0.095756374
95	0xbe2f96d4	-0.1714738
96	0x3e403575	0.18770392
97	0xbd8f23cf	-0.06989252
98	0x3e51578e	0.20443556
99	0xbe661384	-0.22468382
100	0x3e5a6418	0.21327245
101	0x3e209f0e	0.15685675
102	0x3e3dec45	0.18547161
103	0xbca47470	-0.020075053
104	0xbe0a89fe	-0.13529202
105	0x3e3dcd67	0.18535386
106	0x3cba8110	0.02276662
107	0xbdc322a0	-0.095280886
108	0x3d5e7448	0.054310113
109	0x3c42b40c	0.011883747
110	0xbda3ca8f	-0.07997619
111	0xbde0a030	-0.10968053
112	0x3e06dc20	0.13169909
113	0x3e22f54c	0.15913886
114	0xbdfd4f29	-0.12368614
115	0xbd7b9ad3	-0.06142695
116	0xbe6e676f	-0.23281644
117	0x3e0b5c7c	0.13609499
118	0xbe59fdd6	-0.21288237
119	0x3e05e2bc	0.13074774
120	0x3e5de02b	0.21667545
121	0xbdfdf4ce	-0.124002084
122	0x3e47608f	0.19470428
123	0xbe0611ae	-0.13092682
124	0xbdd413c4	-0.103553325
125	0x3d95fdd2	0.07323803
126	0xbe55de1e	-0.20885512
127	0xbca86917	-0.020557923

mlp.6.bias f4 [8]
0	0x3da213e6	0.079139516
1	0xbe3073bc	-0.17231649
2	0xbe27d428	-0.16389525
3	0x3db5e416	0.088813946
4	0x3e76fea0	0.24120569
5	0xbe70a1f8	-0.23499286
6	0xbe7425de	-0.2384257
7	0xbdf5d22e	-0.12002979

mlp.8.weight f4 [1, 8]
0	0xbcaa699b	-0.02080231
1	0x3e6fd0a8	0.2341944
2	0x3d0ad1fe	0.03389167
3	0x3e284d68	0.16435778
4	0x3d758aba	0.059946753
5	0x3e10ab18	0.14127767
6	0xbdd1d45c	-0.102455825
7	0xbdb15f58	-0.086607635
