models/sasrec_best.pt (torch, 435650 bytes, 28 tensors)

item_embedding.weight f4 [21, 64]
000000 00 00 00 00 00 00 00 00 00 00 00 00 00 00 00 00
       0.0 0.0 0.0 0.0
000010 00 00 00 00 00 00 00 00 00 00 00 00 00 00 00 00
       0.0 0.0 0.0 0.0
000020 00 00 00 00 00 00 00 00 00 00 00 00 00 00 00 00
       0.0 0.0 0.0 0.0
000030 00 00 00 00 00 00 00 00 00 00 00 00 00 00 00 00
       0.0 0.0 0.0 0.0
000040 00 00 00 00 00 00 00 00 00 00 00 00 00 00 00 00
       0.0 0.0 0.0 0.0
000050 00 00 00 00 00 00 00 00 00 00 00 00 00 00 00 00
       0.0 0.0 0.0 0.0
000060 00 00 00 00 00 00 00 00 00 00 00 00 00 00 00 00
       0.0 0.0 0.0 0.0
000070 00 00 00 00 00 00 00 00 00 00 00 00 00 00 00 00
       0.0 0.0 0.0 0.0
000080 00 00 00 00 00 00 00 00 00 00 00 00 00 00 00 00
       0.0 0.0 0.0 0.0
000090 00 00 00 00 00 00 00 00 00 00 00 00 00 00 00 00
       0.0 0.0 0.0 0.0
0000a0 00 00 00 00 00 00 00 00 00 00 00 00 00 00 00 00
       0.0 0.0 0.0 0.0
0000b0 00 00 00 00 00 00 00 00 00 00 00 00 00 00 00 00
       0.0 0.0 0.0 0.0
0000c0 00 00 00 00 00 00 00 00 00 00 00 00 00 00 00 00
       0.0 0.0 0.0 0.0
0000d0 00 00 00 00 00 00 00 00 00 00 00 00 00 00 00 00
       0.0 0.0 0.0 0.0
0000e0 00 00 00 00 00 00 00 00 00 00 00 00 00 00 00 00
       0.0 0.0 0.0 0.0
0000f0 00 00 00 00 00 00 00 00 00 00 00 00 00 00 00 00
       0.0 0.0 0.0 0.0
000100 db 98 cb bf d3 81 45 3f cf f3 ad 3e c2 d7 af bf
       -1.5906023 0.7715122 0.33975074 -1.3737719
000110 af 7c 8b bf c4 3f 11 bf ad cb 9d 3e e6 25 94 3e
       -1.0897425 -0.56737924 0.30819455 0.28935164
000120 93 c4 7e 3f 97 eb 84 3f 50 d9 31 bf 9c ee 98 be
       0.995187 1.0384396 -0.6947222 -0.29869545
000130 fd 49 1f bf 35 be cc bf 46 32 b8 3f 1d c9 2b 40
       -0.6222227 -1.5995547 1.4390342 2.68415
000140 bb 86 35 bf fb 0f 7e bf 22 79 80 3f 2c a7 ed bf
       -0.7090871 -0.99243134 1.0036967 -1.8566642
000150 d0 2b 01 bf 6d ff b8 3f 9e 1e cf bf 81 d7 36 3f
       -0.5045748 1.445295 -1.6181219 0.7142258
000160 27 86 75 be f7 02 63 3f 19 4e 46 3f c0 9e 11 3f
       -0.23976956 0.886764 0.7746292 0.5688286
000170 fe 02 c6 3d b5 9d 20 c0 13 78 b7 bf f2 3b 17 bd
       0.096685395 -2.5096257 -1.4333519 -0.036922403
000180 e3 b6 22 bf d2 cc f3 be dd e8 46 3f 63 b4 9c bf
       -0.63560313 -0.47617203 0.7769907 -1.224255
000190 94 a6 92 3f 0f 3a a5 bf 86 71 c0 bf a2 9c 12 40
       1.1457086 -1.2908343 -1.5034645 2.29081
0001a0 27 76 49 bf c3 f7 61 bd 2a 74 0a be 80 88 50 3f
       -0.7869591 -0.055167925 -0.13520876 0.8145828
0001b0 5c 61 0e bf 21 46 1c 3f be dd d2 be 31 a9 93 3f
       -0.5561731 0.6104451 -0.411848 1.1536008
0001c0 39 f5 86 3e 12 97 e8 be 82 1a 89 bf 2d 38 ee bf
       0.26358965 -0.45427758 -1.0711215 -1.8610893
0001d0 47 1c 9c 3f 1d 56 b6 3e c0 2b 83 be 93 89 d3 bf
       1.219613 0.35612574 -0.25619316 -1.6526359
0001e0 3e 2c 83 3c 62 63 51 bf 8b 6d 91 be e8 32 49 bf
       0.016012307 -0.8179227 -0.28403887 -0.785933
0001f0 57 66 03 3e ad 0e 0e 3e 90 15 5f 3e cb 9a 97 3e
       0.12832008 0.13872786 0.21785569 0.29610285
000200 8f 1a 21 bf 52 07 0e 3f 74 df 8c 3f 9b e2 05 3f
       -0.6293115 0.5547992 1.1005692 0.522989
000210 e1 d9 38 3f cd 33 aa 3f e6 7d 3b c0 0b 4d 4a 3d
       0.72207457 1.3297058 -2.9295592 0.04938988
000220 32 19 4c 3e d6 5d 2d 3f 14 44 71 bf d6 07 08 bf
       0.19931486 0.6772131 -0.94244504 -0.53136957
000230 58 d2 ad bf b9 a9 bb 3f 62 46 e3 bf 6a 1a 5a 3d
       -1.3579817 1.466117 -1.7755854 0.053247847
000240 32 28 44 bd 8d 9a 0c c0 06 99 2e bf f7 f3 8d 3e
       -0.047889896 -2.196933 -0.68202245 0.27725193
000250 ac b2 2c be 66 4e d2 3d 34 4c 95 be d0 aa fd 3e
       -0.16865033 0.102688596 -0.291597 0.49544382
000260 25 68 0f 3f d2 8e 8a 3f 93 36 b5 bf 96 c3 21 3f
       0.56018287 1.0824835 -1.415728 0.63189065
000270 a3 e3 34 bf f5 a2 81 bf 5a 32 1b c0 af 99 0a 3e
       -0.70659846 -1.0127856 -2.4249482 0.13535188
000280 c2 52 12 3d 88 da f4 3e 8c 21 2a bf da 1a ca 3f
       0.035723455 0.47822976 -0.6645744 1.5789444
000290 46 75 46 3e c7 26 06 3f b7 5a 1b bf 5c ca c5 bc
       0.19380674 0.5240292 -0.60685295 -0.024144344
0002a0 18 e9 c8 bc 6c d7 96 3f 88 53 e2 bf a8 ca 35 bf
       -0.02452521 1.1784492 -1.7681742 -0.71012354
0002b0 d0 0a c5 bf d0 92 6f be 6d 9f df bf 0c d2 67 be
       -1.5393925 -0.23395848 -1.7470528 -0.2263872
0002c0 8c ce 8f bf 36 54 61 3e 61 b4 03 3e f1 6f d9 3f
       -1.1234908 0.2200478 0.12861778 1.6987287
0002d0 40 fc a9 3f 19 3b 24 be be 71 9e 3f e9 89 9b bf
       1.3280106 -0.16038169 1.2378461 -1.2151462
0002e0 12 3f c2 be 8a 71 c9 be 5c 94 93 bf bf 42 a4 3e
       -0.37938744 -0.39344436 -1.1529651 0.32082173
0002f0 3e 6d 74 bf b1 be c3 3f 7a 4a 28 bf 1a 58 81 3f
       -0.9547919 1.5292569 -0.6573864 1.0105011
000300 8d 83 fe 3e 0b 92 31 bf 09 c1 48 3d e4 70 05 3f
       0.4970974 -0.6936347 0.049012218 0.5212538
000310 48 c8 1c be 34 c2 b0 3f ad f1 ad be 6d 67 75 be
       -0.15310776 1.3809266 -0.33973446 -0.23965235
000320 1a cd fd bd 26 5e cf 3f 25 4c 04 40 b2 49 a1 3f
       -0.12392636 1.6200607 2.0671475 1.2600615
000330 bb 68 6a be b1 54 85 bf b6 17 85 be 4f d3 16 3e
       -0.22891514 -1.0416471 -0.25994653 0.14729045
000340 17 d2 65 3c c4 14 e3 bf 7f a1 93 3f 80 99 c1 3e
       0.01402714 -1.7740712 1.153366 0.37812424
000350 7a fc 30 bf 51 7f d4 3f 65 c2 d9 3e e7 f6 3b 3f
       -0.6913525 1.6601354 0.42531124 0.7342362
000360 5f 91 13 c0 4f 06 83 be 1b d6 62 3f a8 cd 01 40
       -2.3057477 -0.2559075 0.8860795 2.0281773
000370 80 07 46 3f 4f 1d fe bf 35 ca ed 3f a7 84 bc 3f
       0.77355194 -1.9852694 1.8577334 1.4727982
000380 81 4f 74 3f 1b 45 9c be 66 f1 72 3f 7c 5a 66 bf
       0.95433813 -0.30521473 0.94899595 -0.8998182
000390 ab 50 df bc 45 7c 66 3f a3 8f 61 40 3e 54 e1 bc
       -0.027260145 0.9003337 3.524392 -0.02750599
0003a0 25 93 85 3e e5 1e 37 3f 8d 72 c3 3f 6f 97 7b 3f
       0.26088825 0.71531516 1.5269333 0.98277944
0003b0 62 3f 0b 3f 49 ce cf 3f 54 45 f1 3d 8d 75 fa bf
       0.5439359 1.6234828 0.117808014 -1.9567124
0003c0 8f e5 76 3e 53 73 76 be 8b 40 19 bf 61 ca 7b 3e
       0.24111007 -0.2406743 -0.5986411 0.2458892
0003d0 ef cc 57 bf a2 ef e6 3e 68 b4 f7 3e 02 f4 24 3e
       -0.8429708 0.451047 0.48379827 0.16108707
0003e0 b3 94 5b bd ef e7 07 bf 0e 97 05 3f f1 0e 89 3e
       -0.053608608 -0.5308828 0.52183616 0.26769212
0003f0 cc 66 48 3f 1d 65 04 40 6e c8 4e 3f e3 48 c8 3f
       0.78281856 2.0686715 0.8077458 1.5647243

pos_embedding.weight f4 [50, 64]
000000 a5 5d dd 3e 42 6d 9f 3f ee 1e b4 3e e2 85 c7 3d
       0.43235508 1.2455218 0.35179847 0.09742333
000010 21 1a 9a be 0b da 36 3f f6 1f 03 be 0c df d9 3f
       -0.3009806 0.7142646 -0.12805161 1.7021194
000020 2d dc fa bd be 9e 03 3f 0d 5b d1 be f0 b8 03 c0
       -0.122490264 0.51414096 -0.4088978 -2.0581627
000030 e7 62 ec bf 2d e5 8a bf 63 02 40 3f 1b 47 60 3e
       -1.8467683 -1.0851189 0.7500364 0.21902125
000040 a6 ca b0 bd 20 6f bd 3f 97 fc 62 be 61 03 1e c0
       -0.08632402 1.4799538 -0.22166668 -2.4689562
000050 b8 17 5b 3f 40 6d d3 bd fa 8b b7 3e f9 c5 e0 be
       0.85583067 -0.10323572 0.3584898 -0.4390104
000060 51 32 3d bf e1 6f ce bd ce c0 c1 3e 18 b0 04 3f
       -0.739049 -0.10079933 0.3784241 0.518312
000070 e3 a5 70 3f 2c a4 74 bf 5c 67 36 3f 36 bb 35 bf
       0.94003123 -0.95563006 0.71251464 -0.70988786
000080 ce c5 89 3e 4e 78 f9 bf 4b 3c 5d 3f 27 24 36 3f
       0.26908726 -1.9489839 0.86420125 0.71148914
000090 b3 72 34 bf 99 59 86 bf 21 5b 6c 3f 06 38 49 bf
       -0.7048752 -1.0496093 0.9232655 -0.7860111
0000a0 48 97 ad 3f 05 c3 92 bf 98 9d ca 3d 4a d4 f5 be
       1.3561792 -1.1465765 0.0989334 -0.48013526
0000b0 e8 fe 6b 3e e9 1e c1 3e ee d0 cb bf d6 51 04 40
       0.23046458 0.37718895 -1.5923135 2.0674949
0000c0 01 fa 9b bf 01 da 63 bf d1 8b f5 3e 67 10 08 c0
       -1.218567 -0.8900452 0.47958234 -2.1260011
0000d0 82 83 4d 3f fe 4c a3 bf 4c 77 c9 bf 81 39 91 bf
       0.8027879 -1.2757871 -1.5739532 -1.1345674
0000e0 01 19 20 40 f5 e4 d4 3e 3b ab 34 bf ad 6c e2 3e
       2.501526 0.4158093 -0.70573777 0.44223538
0000f0 16 ca 08 3f d8 14 a8 be e3 07 25 bf a0 3b 99 3f
       0.5343336 -0.32828403 -0.6446516 1.1971321
000100 51 b6 45 3f d5 55 b5 be 7d 28 17 bf fa ed 29 3f
       0.7723132 -0.35417047 -0.59046155 0.6637875
000110 ac cb 59 3f 1a 8d 3e bf 20 9c 19 bd 3a e5 45 bf
       0.85076404 -0.74434054 -0.037502408 -0.77302897
000120 65 0b 52 3f 5d f1 ee 3e b9 4a c5 be a1 c2 9f bf
       0.82048637 0.4666852 -0.3853357 -1.2481271
000130 55 66 28 bf 7e 39 92 3f f7 9d 9e 3e 6d 2c 07 40
       -0.65781146 1.1423795 0.30979893 2.1120865
000140 48 91 91 3f 8f f4 da 3f aa 4a 67 bf 0f b1 35 3f
       1.1372461 1.7105883 -0.90348303 0.70973295
000150 eb 77 c7 3f ce d7 95 3e 49 02 cc be 0f 1f c8 3f
       1.5583471 0.29266208 -0.39845493 1.5634478
000160 4e 51 d8 3f 05 85 aa bf 16 7e 21 3f ec ae 84 bf
       1.6899812 -1.3321844 0.63083017 -1.0365882
000170 77 97 b8 3f ea c6 67 bf 0c 6c 39 be c8 32 2a 3d
       1.4421223 -0.90537894 -0.18107623 0.041552335
000180 2d be e1 be cc 7a a0 3f 41 43 13 bf ed f6 4a 3f
       -0.44090405 1.2537475 -0.57524496 0.7928303
000190 db 8d 7e 3f 05 9a f0 bf dd 7f a0 3e 1e cc a4 3f
       0.99435204 -1.8797003 0.31347552 1.2874792
0001a0 01 f7 71 be b4 f4 91 bf db 58 9a 3f e2 1f 38 be
       -0.23629381 -1.1402802 1.2058367 -0.17980912
0001b0 f2 02 78 3e d1 c6 d3 3f 1c 3e c4 bf c5 ed 25 bf
       0.24219874 1.6545049 -1.5331454 -0.6481593
0001c0 1d 56 a1 bf 79 67 e0 3e 82 8b 72 3f e8 78 14 c0
       -1.2604405 0.43828943 0.9474412 -2.3198795
0001d0 25 67 7d 3f 85 f0 e0 3f fd 60 2b bf 64 a2 a0 3d
       0.9898551 1.7573401 -0.6694487 0.078434736
0001e0 a9 ad 1f 3f e1 13 48 bf 0d 0c 99 3f d1 9b 8e bf
       0.6237436 -0.7815533 1.1956803 -1.1141301
0001f0 1f 7c 64 bf cf b7 89 be 4e 30 61 bf 52 58 52 bf
       -0.89251894 -0.26898047 -0.8796433 -0.82166016
000200 75 5a 0a c0 1c 28 db 3f 97 db fe bf 37 be 05 3f
       -2.161771 1.7121615 -1.9910764 0.5224337
000210 8d 9d 03 3f f6 77 13 3f 04 d3 96 bd 7f 73 36 bf
       0.5141228 0.5760492 -0.07364467 -0.71269983
000220 c8 81 27 bf 70 ad 1f 3f f1 c0 25 bf 89 38 24 3e
       -0.65432405 0.6237402 -0.6474753 0.16037191
000230 2a d5 a8 3d 4a b0 b6 bf c7 8c aa 3f c7 ae 37 bf
       0.08243783 -1.4272549 1.3324212 -0.71751064
000240 ae 86 a7 3d e2 8c 82 bf 09 ca c0 3f 81 2d 72 3f
       0.08179985 -1.0199244 1.5061656 0.94600683
000250 0e b8 19 bc 3a f1 89 bf f2 a1 a4 3e f5 fc 05 40
       -0.009382261 -1.0776742 0.32154804 2.0935643
000260 bb 9c b1 3f 7d af 7d 3f f0 b4 98 3e d1 3b 05 be
       1.3875955 0.990959 0.29825544 -0.130111
000270 68 c0 27 3d 40 dc 36 be c7 5e d1 bf 02 47 1a 3f
       0.040954977 -0.17857456 -1.6357049 0.602646
000280 d2 8f d8 be 15 54 50 3f a5 9d 8e be cb b7 8c bf
       -0.42297226 0.813783 -0.27854648 -1.0993589
000290 8f 8b 91 3f 7e 1e e3 bd 9f 65 0f 3f 14 7e 97 3f
       1.1370715 -0.110898 0.56014436 1.1835351
0002a0 69 2f 09 3f c0 b5 e1 be e8 0f 04 3f ac 35 ab bf
       0.5358797 -0.44083977 0.5158677 -1.3375754
0002b0 87 63 5e be b8 1a 58 bf 0a 9f 00 40 35 bd ae bf
       -0.21717654 -0.8441577 2.009707 -1.3651491
0002c0 83 27 40 bf c6 66 20 bf 4d 93 c0 3e 32 c1 44 3f
       -0.7506029 -0.6265682 0.37612382 0.7685729
0002d0 2b 8b f9 bf 53 ab 89 be 20 9a 51 bf e8 35 b2 bf
       -1.9495596 -0.26888523 -0.818758 -1.3922701
0002e0 e0 87 63 bf f9 35 d2 be d5 60 04 3f 3c b9 ec be
       -0.88879204 -0.41056803 0.51710254 -0.46235073
0002f0 ed 6c 9f bf 5f e1 4e 3e 76 d9 2c bf 1b 9d 82 bf
       -1.2455117 0.2020316 -0.6751932 -1.0204195
000300 cf 5d 3c bf 2a f8 b0 3e ac b8 5f bf 3a f8 11 3f
       -0.7358064 0.34564334 -0.8739116 0.5701939
000310 39 ea 5c bf 2c a3 fb 3d 08 69 d4 bf 7c 02 c9 bf
       -0.86294895 0.12286982 -1.6594553 -1.5703883
000320 95 94 8d 3f 55 ea b3 bf 0e 34 4c 3e 20 c0 92 3f
       1.1060969 -1.4055887 0.19941732 1.1464882
000330 c6 23 54 bf 16 3a 3a 3f 87 8f a2 bf a2 48 ff 3e
       -0.82867086 0.7274488 -1.2700051 0.49860102
000340 3c 5a f2 be 06 aa 0a 3f d8 67 ad 3f 22 16 7d bf
       -0.47334468 0.54165685 1.3547316 -0.98861897
000350 63 e7 97 3d e0 31 83 be ce 04 00 c0 dd 8f b1 3f
       0.074171804 -0.2562399 -2.0002933 1.3872029
000360 de 0e 08 40 84 e5 7d bf bd ac 8e be 4d ef 03 bd
       2.1259074 -0.9917834 -0.27866164 -0.032210637
000370 aa 1f 56 3b 4d 97 73 3f 27 17 c2 bd 98 a8 c0 3f
       0.0032672682 0.9515274 -0.09477072 1.5051451
000380 ec 9f f3 bf b4 26 33 3f cd ec ac bf 1d ec 3e bf
       -1.9033179 0.6998093 -1.3509766 -0.7457903
000390 ca fd f7 3f 72 1d 91 3d 4b ce ef 3f 1c 32 21 3f
       1.9374325 0.070856944 1.8734831 0.62967086
0003a0 a5 4f f1 3e bd 5f 0c bf 6a 09 a3 3f 94 9c ce be
       0.47131076 -0.54833585 1.2737248 -0.40353835
0003b0 62 91 47 bf d1 c2 19 bf 01 9b 13 3f e5 3d ca be
       -0.7795621 -0.6006289 0.5765839 -0.39500347
0003c0 4e c7 06 3f 2f b9 24 3f 36 5d af 3d e4 9a ef bf
       0.52647865 0.6434507 0.085627005 -1.8719144
0003d0 73 e8 a9 3e 91 07 ba bf 6a 3c 05 bf c5 98 d5 bd
       0.33185157 -1.4533559 -0.5204531 -0.10429529
0003e0 28 24 66 bf ce 08 6e 3f 05 96 24 be b4 2b c1 be
       -0.8989892 0.92982185 -0.16072853 -0.37728655
0003f0 37 f3 fc bf ba 96 a5 3f 48 17 26 3e 73 bc ca 3e
       -1.9761723 1.2936623 0.16219819 0.395969

transformer.layers.0.self_attn.in_proj_weight f4 [192, 64]
000000 ee b0 cf bd 3a ba 7a 3c 70 35 2d 3d 54 85 7c bd
       -0.101411685 0.015303189 0.04228729 -0.06165059
000010 fc f3 07 3d 25 5b 0e be 30 db e4 3d ac a7 bb 3a
       0.033191666 -0.13901956 0.11174619 0.0014316938
000020 f2 8e e5 3d 2b 4e d9 bc 71 81 48 3c 64 cb 13 3e
       0.11208905 -0.026526531 0.0122378925 0.14433056
000030 f6 22 02 3d 51 d0 cd bd 57 02 f6 bd d1 4b b6 3d
       0.031771623 -0.10049499 -0.12012165 0.089011796
000040 5f bb a9 3c b2 b5 06 3e bb de bb bc 9c 4e b9 bd
       0.020719228 0.13155249 -0.022933355 -0.09048197
000050 d8 58 b6 bd 17 49 78 bd 48 30 c1 3d b5 10 20 3e
       -0.08903664 -0.06061658 0.09433037 0.15631373
000060 93 75 45 3d c9 03 00 3e 2b 8f 8b 3d 24 29 fb 3d
       0.04820783 0.12501444 0.068144165 0.12263706
000070 c9 30 0d be b1 99 06 3e f2 af a8 3d 0e f8 19 3d
       -0.13788141 0.13144566 0.08236684 0.03759008
000080 81 fb 58 3d 62 48 c1 3d d1 e5 35 bc d3 b1 95 3d
       0.052974228 0.09437634 -0.011102156 0.07309308
000090 e7 b6 37 3d 7d 38 11 be 12 1d 3b 38 3e 50 b9 bd
       0.044852164 -0.14181705 4.4611348e-05 -0.09048508
0000a0 f2 9b c6 3c 1e 6c e1 3d 71 1d 02 3d f3 1b 31 3d
       0.024244282 0.1100695 0.03176636 0.043239545
0000b0 b9 f4 e1 bc 3d 02 11 bd 41 cf 3d 3d 75 68 bd 3d
       -0.027582513 -0.035402525 0.04634023 0.09248439
0000c0 68 10 18 be 2c 66 11 be 5e 9f b8 3c b1 85 07 bd
       -0.14850008 -0.14199132 0.02253693 -0.033086482
0000d0 46 e7 0f 3e 0c df 2c 3d ea 8f be bd 64 21 81 bd
       0.14053068 0.0422049 -0.09304793 -0.06305197
0000e0 0c 43 a1 3d 2c ab 04 bd ae 54 6c bd 5d d6 f4 bc
       0.07874116 -0.032389805 -0.057697944 -0.029887373
0000f0 87 b3 c0 bd 25 4f c0 3d 9e f1 05 be d0 ef 74 bd
       -0.09409242 0.093900956 -0.13080451 -0.059799016
000100 9b 4a d5 3d ab e1 73 bd ed 2a c0 3c a2 e8 7d bd
       0.104146205 -0.059541386 0.023457969 -0.061989434
000110 26 74 cc 3d 87 d0 1b be 24 ee 9d 3d c5 d1 81 3d
       0.09983091 -0.15216266 0.07711437 0.063388385
000120 08 5f e8 bd 39 80 b8 3d ad ad 8e bd d7 4e 39 bd
       -0.11346251 0.090088315 -0.0696672 -0.045241203
000130 0e d6 d2 3d fc 17 05 3e 5a 8d d7 3d 3a 30 07 be
       0.10294734 0.1299743 0.105250075 -0.1320199
000140 1b af a1 3d 58 cb 30 3d e0 2e e3 3d f4 a8 35 3d
       0.07894727 0.043162674 0.11092925 0.04435058
000150 a5 c0 20 bd 15 7a f4 3c 6a 8f c6 3d 39 0f 1f 3b
       -0.03924622 0.02984337 0.09695323 0.0024270548
000160 73 14 b2 3c 82 e5 01 3e a1 9e 97 bc c9 d6 03 3e
       0.021738267 0.12685207 -0.018508257 0.12874903
000170 ee 71 96 3d 3d 8e ba 3d ab 3c 1e 3e 86 54 ea bb
       0.07345949 0.09109161 0.1545283 -0.0071511893
000180 0a a1 a1 bd e8 d4 6c 3c cd 24 1f be a1 cc 0e be
       -0.07892044 0.014455058 -0.15541382 -0.13945247
000190 4f ce c5 3c 4c 63 1b 3d 0c fd fc 3d 69 ac 1a 3e
       0.024146227 0.037936494 0.12352952 0.15104832
0001a0 40 7d 6c 3d b9 19 43 3c db ac 97 3c b6 4f 9c 3d
       0.057736635 0.011907988 0.018515041 0.07632391
0001b0 33 ae 0c 3e 99 e7 15 be cd d4 f7 bd 14 4b 86 bc
       0.13738327 -0.14639129 -0.121011354 -0.016393222
0001c0 8a 1a 92 bd 4a 49 46 3c 3e 34 10 3e 60 30 81 3d
       -0.07133968 0.012102434 0.14082429 0.06308055
0001d0 98 2d 71 bc fb 8b 16 be de 61 98 bd fd fc 0a bd
       -0.014720343 -0.14701836 -0.07440542 -0.033932675
0001e0 11 36 e5 3d 65 d0 24 bc 38 73 c9 3b 8b 0e 13 be
       0.11191953 -0.010059451 0.0061477683 -0.14361016
0001f0 c0 55 88 bd 79 0c f0 3d 94 74 08 3e d1 f9 6d 39
       -0.066569805 0.11721129 0.13325721 0.00022695145
000200 7f f1 8e 3b fc ee d4 3d 77 53 ee 3d 3b be 6d bc
       0.0043622847 0.10397145 0.116370134 -0.0145106865
000210 8c 43 da bd bc 43 af bd e4 ad 36 bd fe 05 5b bd
       -0.10657415 -0.08557841 -0.04459943 -0.05347251
000220 25 42 a7 3c c2 29 09 3e 27 4c 0c 3e 1e 75 11 3e
       0.020417282 0.13394836 0.13700925 0.14204833
000230 08 6f 19 be 96 0f 27 bd 3e 6a be bc dd f2 fd bc
       -0.14983761 -0.04078635 -0.02324402 -0.030999595
000240 77 21 d4 3d b3 5d 1d be f1 a2 05 3d 8f be a8 3d
       0.103579454 -0.15367775 0.032626096 0.08239471
000250 9e fa 08 be b6 7f 08 3e d0 e8 b3 bd ab 01 ca bb
       -0.13376853 0.13329968 -0.0878464 -0.0061647496
000260 77 3c bd 3c 6e 0a 11 be 56 2d d2 bd 04 50 84 3d
       0.023100121 -0.14164135 -0.102625534 0.06460574
000270 bb e3 a7 bd b5 30 e5 bc 25 be ab bd 5f 2a c4 bc
       -0.08197733 -0.027977327 -0.083858766 -0.023945985
000280 13 e5 be bd 2a 7e cd bc 00 cb 55 bc 0d a5 a0 3d
       -0.09321036 -0.025084574 -0.013048887 0.07843981
000290 02 02 da bd de bf 11 3e 3d 90 17 bb 37 19 3b bd
       -0.10644914 0.14233348 -0.0023126744 -0.045678344
0002a0 f6 6e c2 bd 4b 7c 12 3e 2f fd 16 be d6 bf bd 3c
       -0.0949382 0.14305227 -0.1474502 0.023162764
0002b0 39 5f 83 bd 0a 71 c7 3d 7e 20 8b 3d 9c 52 79 bd
       -0.06414647 0.09738357 0.06793307 -0.060869798
0002c0 8a 5a 65 bd d1 4c a6 3d d3 8a b0 3d ab 17 ec 3d
       -0.055994548 0.0812012 0.086202286 0.11527952
0002d0 02 ef ff bd 0b 81 ba bd a8 76 ee bd b1 d9 e7 3d
       -0.12496759 -0.09106644 -0.11643726 0.11320818
0002e0 90 43 c7 3d 65 8f ff bd ca cd c9 bc 3e 64 0a be
       0.097296834 -0.12478522 -0.02463426 -0.13514802
0002f0 95 1d 1d bb 35 33 11 be a8 0d 69 3d 23 d4 ee 38
       -0.002397393 -0.1417969 0.05689779 0.00011388238
000300 00 bd 00 bd 48 13 ec bd 14 0f ff bd 61 61 c5 bc
       -0.031430244 -0.11527115 -0.12454048 -0.024094285
000310 7d 32 15 bd d2 76 be 3c b6 df b4 bd 72 97 90 bd
       -0.036425103 0.023250017 -0.08831732 -0.07060136
000320 5f 20 87 3d 3d 69 02 be 2b ed f7 bd c0 4a c4 3d
       0.06597971 -0.12735458 -0.12105783 0.0958457
000330 b7 33 92 3d 22 54 5b 3b e3 7c 85 bb 5c 66 72 bd
       0.0713877 0.0033466895 -0.0040737255 -0.05917965
000340 56 ea f8 bc 18 fc 11 be 52 81 17 be 37 e5 b4 3d
       -0.030385178 -0.14256322 -0.14795426 0.08832782
000350 4e 98 4e bd 37 cb db bd 34 f3 86 3d fe 61 cd 3d
       -0.050438218 -0.107321195 0.06589356 0.10028456
000360 d8 24 0e 3e 23 8e cc 3d 9b c1 1d be e0 16 41 3d
       0.13881242 0.09988048 -0.15405886 0.047140956
000370 fc b1 c0 bd 18 4d 79 3d b2 27 06 3d aa 32 09 be
       -0.09408948 0.060864538 0.0327527 -0.13398233
000380 d6 86 eb 3d 35 c9 12 3e f2 3a c7 bd 6b e3 86 3d
       0.11500327 0.14334567 -0.0972804 0.06586345
000390 7f a0 2e bc 3a 57 6a 3d 35 57 b3 bd fd 16 a0 bd
       -0.010658382 0.057212092 -0.08756868 -0.07816885
0003a0 ea 72 f7 bd 68 2b 81 b9 69 a8 b5 bd 58 7e 8d 3d
       -0.12082465 -0.00024637138 -0.08870012 0.06908864
0003b0 e1 16 54 3d 80 8a b4 3d ac 03 ad 3d 61 d1 02 be
       0.05177963 0.08815479 0.08447966 -0.12775184
0003c0 19 f6 18 be 9b 81 03 3e 27 a6 32 3c 9f 1f 9a bb
       -0.14937629 0.1284241 0.010903872 -0.0047034766
0003d0 b3 1f ce 3c b0 d5 85 3d e2 6f 13 be 4c 51 16 be
       0.0251616 0.06534898 -0.14398149 -0.1467945
0003e0 71 15 10 3d 49 8f 2f bd 66 ce 50 bc 4e b7 bc bd
       0.035176698 -0.042861257 -0.012744522 -0.0921465
0003f0 3d 32 1b 3e e6 df d3 bd c7 d2 09 3c 23 ed 0e be
       0.15155883 -0.103454396 0.00841207 -0.13957648

transformer.layers.0.self_attn.in_proj_bias f4 [192]
000000 d8 27 7b 3b 68 94 2b 3b e1 75 62 3b 22 9f 7e 3b
       0.003832331 0.0026180986 0.0034555125 0.0038852175
000010 92 f4 82 bb 01 dd 9b 3b 72 aa b5 3b 94 7b 92 3b
       -0.00399644 0.0047565703 0.0055440003 0.004470298
000020 b2 68 e4 3b 41 0b 31 bb ee 2b 16 3a 73 82 50 3b
       0.0069704885 -0.0027014764 0.0005728592 0.0031816035
000030 64 3c 9f bb a3 4b 1a bb e9 18 2e 3b 9b a4 6b 3b
       -0.004859494 -0.0023543618 0.002656514 0.0035956267
000040 d4 9a 92 3b 5c dc 38 bb ff 51 2e 3b b3 90 96 b9
       0.0044740234 -0.0028207516 0.0026599166 -0.0002871804
000050 30 e8 ba ba 88 0c 26 3b 1f 8a 03 bb 9e ef ac bb
       -0.0014259871 0.002533706 -0.002007134 -0.005277588
000060 cf 82 fb 37 97 dc a2 39 64 0e 91 3a a5 b1 85 bb
       2.9982444e-05 0.000310634 0.0011066911 -0.004080015
000070 92 f3 9e 38 fd 02 8a 3b 51 6d 47 39 5d 6f 0c 3b
       7.5793956e-05 0.004211782 0.00019018842 0.0021428682
000080 1e 44 8a ba 58 21 91 3a fc 20 de ba 56 9f df 39
       -0.0010548865 0.0011072559 -0.0016947086 0.0004265259
000090 79 12 17 3b 02 61 b4 39 93 9b 35 b8 b1 ce 7b ba
       0.0023051782 0.00034404552 -4.3298653e-05 -0.00096056896
0000a0 45 7a 41 3b b1 ef c9 ba f0 63 1b 3a b6 d2 e5 b9
       0.0029522341 -0.0015406517 0.00059276726 -0.00043835276
0000b0 00 3f bf 3b a5 2f d9 b9 69 58 d2 39 fb 16 20 3b
       0.0058363676 -0.00041424963 0.00040120192 0.002442776
0000c0 3b aa 68 3a 26 11 52 3a 58 ad df b8 72 6b fc b8
       0.0008875464 0.00080134196 -0.000106657564 -0.000120363096
0000d0 19 f6 c3 3a 02 83 67 3a a1 17 02 3a 40 52 cc 3a
       0.0014950662 0.00088314724 0.00049626274 0.0015588477
0000e0 1d 11 00 3b 1f 05 94 37 cb 1a 38 bb 96 72 20 ba
       0.001954145 1.764536e-05 -0.0028092142 -0.000612059
0000f0 ca e2 94 ba 08 73 a8 3a ed 1c a4 ba 34 c0 7b bb
       -0.0011359092 0.0012851665 -0.0012520828 -0.0038414123
000100 04 ba 69 38 90 0a 5c b9 38 b2 2f b9 e0 29 6c 39
       5.572477e-05 -0.0002098477 -0.00016755692 0.00022522314
000110 06 27 f7 38 aa d6 a1 b8 91 30 0d b9 ca 87 57 37
       0.000117851465 -7.7170625e-05 -0.000134649 1.28466145e-05
000120 8b 88 f6 b5 db 59 ed b8 58 8f 6d b7 6e 7e d3 b9
       -1.8368168e-06 -0.000113177775 -1.4159676e-05 -0.00040339254
000130 f5 c2 f1 37 db bb f2 b8 9a 9c 3b b8 82 0a eb 38
       2.8820223e-05 -0.0001157445 -4.473012e-05 0.000112076305
000140 34 09 6c 39 c1 fc a9 36 d1 14 68 b8 c9 44 bc b8
       0.00022510142 5.066017e-06 -5.5332497e-05 -8.977351e-05
000150 9c 5c 53 38 fa 6e 4e b8 cd 1e 6f 39 5d fd 19 b9
       5.039257e-05 -4.9217582e-05 0.0002280429 -0.00014685602
000160 42 68 d3 b8 c1 1b 54 b9 b9 59 0c 38 0a 2f 07 39
       -0.000100806836 -0.00020228235 3.346216e-05 0.00012892127
000170 cc fb 5a 38 03 e2 18 b9 92 8c 02 b9 e4 39 88 38
       5.2209754e-05 -0.00014580046 -0.00012450133 6.495768e-05
000180 5f b4 98 b8 2f 6f 25 37 bc 07 19 39 7e d0 a2 b7
       -7.2815215e-05 9.860653e-06 0.00014594098 -1.9408992e-05
000190 d8 4a a4 b6 6c 67 01 38 12 2b 6a 38 88 b4 55 37
       -4.896294e-06 3.0852316e-05 5.583006e-05 1.27378225e-05
0001a0 ea 34 89 b8 10 8c 87 37 78 1d b0 38 84 6d 8d b7
       -6.542525e-05 1.6158476e-05 8.397823e-05 -1.6859507e-05
0001b0 e6 04 99 b8 b5 73 f3 37 3b 1f 75 38 ff ef 20 b9
       -7.296521e-05 2.9021738e-05 5.8441638e-05 -0.00015348195
0001c0 bd 71 57 38 bd 75 63 38 ef 36 48 38 4e 23 a7 b7
       5.136592e-05 5.423067e-05 4.7734877e-05 -1.9924391e-05
0001d0 fe 91 a8 b8 3c b2 fe 37 ed 7d 97 b7 71 e3 c7 38
       -8.0380574e-05 3.0362156e-05 -1.8059241e-05 9.531424e-05
0001e0 bd 84 5a b6 a7 26 ab 38 ec 52 26 38 89 fd 30 b5
       -3.2561795e-06 8.161115e-05 3.965471e-05 -6.593405e-07
0001f0 67 c6 90 37 58 5b 38 38 31 66 05 38 09 4b b9 b7
       1.7258526e-05 4.395409e-05 3.1804844e-05 -2.208866e-05
000200 9e b4 cd 3b 6b 15 9e 3b 94 89 46 3b 9c ea e6 3a
       0.0062776348 0.0048243306 0.0030294405 0.0017617526
000210 75 cd 5e 39 68 e4 27 38 c1 92 65 bb cf 5e 9b bb
       0.00021248109 4.0028623e-05 -0.00350301 -0.0047415267
000220 b8 ad 10 3b a1 da 97 3b a4 a5 ec b8 e5 ce 55 3b
       0.00220762 0.004634217 -0.0001128421 0.003262454
000230 23 3e 9f b9 cb 38 15 3b 4c 3e 4c 3a f4 7b 35 bb
       -0.0003037314 0.0022769447 0.00077912654 -0.002769229
000240 32 80 b6 3a b0 43 92 3b 4d 5b cf 3a 15 12 38 ba
       0.0013923703 0.0044636354 0.0015820056 -0.00070217374
000250 77 90 a6 3b 64 8c 88 bb 2c e6 ba bb 51 15 4e 3a
       0.0050831395 -0.0041671265 -0.005703708 0.0007861453
000260 14 95 05 bb 49 fa 33 bb 2b 51 05 3b bf 7b 0b ba
       -0.0020383047 -0.0027462414 0.002034257 -0.0005320869
000270 14 ee c3 3b 36 5a 26 b9 c2 45 2a bb bf 75 14 3a
       0.005979309 -0.000158646 -0.002598152 0.00056632975
000280 1a ae 97 bb cd 67 f2 b9 95 79 81 3b 1a c4 90 bb
       -0.004628909 -0.00046235175 0.0039512613 -0.0044179084
000290 fe 66 9a bb a6 5c 0e bb f1 d9 5f ba 9d d1 46 bb
       -0.0047119847 -0.0021722703 -0.00085392507 -0.0030337342
0002a0 4c f0 84 bb 8f b2 12 bb 65 2f 86 3a 2c d9 eb b9
       -0.004056966 -0.0022384261 0.0010237513 -0.00044984499
0002b0 cd 00 d7 ba 30 4a 72 bb d1 52 72 3b 53 15 95 3a
       -0.0016403437 -0.0036970489 0.0036975632 0.0011374153
0002c0 3e 59 89 3a 7c f4 95 3b a8 a8 4f 3b 57 ab f7 ba
       0.0010478867 0.004576264 0.003168622 -0.0018895668
0002d0 c0 99 de 39 ac ea b6 3b 29 c2 86 ba cd 6a 95 3b
       0.00042457692 0.0055821743 -0.0010281253 0.004559851
0002e0 5d c6 46 3b c5 37 95 3a 40 35 a4 3a 78 3b a5 ba
       0.0030330636 0.0011384418 0.0012528077 -0.0012606224
0002f0 c1 c7 79 bb 2f ae 9a bb 1f b4 af 3a 43 f1 48 3b
       -0.0038113447 -0.0047204713 0.0013405121 0.0030661381

transformer.layers.0.self_attn.out_proj.weight f4 [64, 64]
000000 d9 49 c3 bd f3 02 3e bd 63 1a 32 bd 74 df 9a bd
       -0.0953557 -0.04638953 -0.043482196 -0.075621516
000010 f4 b5 bd 3d 68 06 22 bd 13 87 d1 bb c1 cb 32 3d
       0.092632204 -0.03955689 -0.006394276 0.043651346
000020 a6 90 b2 bc 96 72 af 3d b5 3d be bc 0b 4a 61 3d
       -0.02179749 0.085667774 -0.023222784 0.055002254
000030 70 3a a1 3d 9f 90 aa bd 5e bb 16 3d 78 e5 e5 3d
       0.07872474 -0.083283655 0.03679978 0.11225408
000040 0a 14 46 3d f4 ba 8e 3d 24 16 ef 3d d4 fd 63 3d
       0.048358954 0.06969252 0.11674145 0.05566199
000050 53 75 ed bd 81 a2 64 3a bb 6e 32 3d b1 80 5e 3d
       -0.115946434 0.0008721725 0.043562632 0.05432195
000060 5f 9b f3 3d a8 30 96 bd b8 cb ab 3d 57 ff 46 3d
       0.11894869 -0.07333499 0.08388466 0.048583355
000070 7d 07 81 3d 4e ad 81 bd a0 1f ea bd 65 16 ca 3c
       0.063002564 -0.06331883 -0.11431813 0.024668882
000080 58 57 a6 3b f4 64 75 bc 5f 96 87 bd 9f 0f a4 3c
       0.00507633 -0.014977682 -0.06620478 0.02002698
000090 45 80 88 3d 1e 6c d0 bd 7c d1 00 3a 78 23 c4 3c
       0.066650905 -0.10176872 0.0004914028 0.023942694
0000a0 1c 50 a0 3d c9 f2 d0 bd 5b 4f 66 3d ab 19 e9 bd
       0.0782778 -0.102025576 0.056228023 -0.11381849
0000b0 b3 a2 ee 3d bf d4 c4 bd 55 40 e9 bd c6 6e b0 3d
       0.11652126 -0.096108906 -0.113892235 0.08614878
0000c0 8b c7 8f bd 03 90 d1 bd 2f 00 7f bd 01 74 1f 3d
       -0.07020482 -0.10232546 -0.062256034 0.03892899
0000d0 44 a7 ff bc b4 69 32 bd 53 ef 0c bd 33 1f c8 bd
       -0.031207688 -0.043557838 -0.034407925 -0.09771576
0000e0 ab 6e a5 3c 89 69 bd bd 04 aa d7 bd bc b4 ef 3d
       0.020194372 -0.09248645 -0.10530475 0.11704394
0000f0 d6 08 63 bd 8f 31 01 3d 88 84 7a 3d 52 1a 91 bd
       -0.05542835 0.031541403 0.061161548 -0.07085098
000100 fc 57 eb 3b fd 02 fa bc 1d ab e3 3b 0a 9b 7d 3d
       0.0071821194 -0.030519003 0.0069478885 0.061915435
000110 37 aa 7c 3d 13 5a 91 bd 8e 98 ec bd 63 96 78 bd
       0.061685767 -0.070972584 -0.11552535 -0.060690295
000120 61 21 3e 3b ef 1c 29 bd 68 5a f9 bd 70 71 e0 bd
       0.0029011595 -0.04128736 -0.12175447 -0.109591365
000130 22 c4 6d 3d be 02 5b 3d a5 56 32 3d 43 64 19 3d
       0.058048375 0.053469412 0.043539662 0.037449133
000140 3b d0 c6 bb 7e be 0e 3d cc f8 a7 bc d0 ba a8 3d
       -0.0060673035 0.034849636 -0.020504378 0.08238757
000150 41 b8 e0 bd 7b 51 ce 3c a6 cd 2c bd 47 f1 90 bd
       -0.10972644 0.025185337 -0.04218831 -0.0707727
000160 a1 b3 a6 3d 44 42 de bb ed 62 f1 3d 95 80 63 bd
       0.0813973 -0.006782802 0.11786447 -0.055542547
000170 ff 71 18 3d 30 b6 de 3c 8b 6d ae bd 6f ce ff bd
       0.03721809 0.027186483 -0.085169874 -0.12490546
000180 f5 ac 31 3d 85 66 00 bd 6b 4c 1c bd 36 5d 92 3b
       0.043377835 -0.03134777 -0.038158815 0.004466678
000190 f7 5f 66 3d 23 eb d7 bd 3a e5 fb 3c 7f 67 d1 bd
       0.056243863 -0.10542896 0.030748952 -0.102248184
0001a0 13 3b 10 bd 77 ef 41 3d e1 84 a4 bc 48 4d a1 3d
       -0.035212588 0.047347512 -0.020082893 0.07876068
0001b0 87 97 1a bd c1 a4 ef 3d f4 69 ef bd 80 b1 7d bd
       -0.037742164 0.11701346 -0.11690131 -0.061936855
0001c0 16 b5 bf ba 99 34 cc 3c 1a e1 f6 3c f5 c6 2a 3d
       -0.0014626111 0.024927424 0.030136634 0.041693646
0001d0 39 89 16 3c 83 5f a0 3d f5 ee c4 bc 88 ee a1 bd
       0.00918799 0.078307174 -0.024039725 -0.07906824
0001e0 86 ca 87 bd f2 4d 79 3c 1a ff e8 3c 51 c2 76 3b
       -0.06630425 0.0152163375 0.028441954 0.0037652443
0001f0 cd 9a 74 3d 84 7c c9 bc 20 7d cf 3d b1 d6 ed 3d
       0.059717942 -0.024595506 0.101312876 0.11613215
000200 4c 6a af 3d 8d f3 e7 bd 58 de 86 bd c6 06 bc bc
       0.085651964 -0.113257505 -0.065853775 -0.022952449
000210 7c b6 79 bd 3f 01 d9 3d 59 41 9a bd 5e 0a a0 bc
       -0.060965046 0.10595941 -0.07531995 -0.019536193
000220 cb a8 23 bd 70 3a 46 bc 00 00 13 3d a0 ab 9d 3d
       -0.039955895 -0.0120988935 0.035888672 0.076987505
000230 39 cc 42 3c 0c 76 e2 3d eb 35 2e 3d 7c b5 81 bd
       0.011889511 0.11057672 0.04253189 -0.063334435
000240 62 af e8 bd 78 1a d5 3c 5f 45 23 bd 4c 8c 2f 3d
       -0.113615766 0.026013598 -0.03986108 0.042858407
000250 cf 98 c5 bd 98 2c 22 bc 46 a9 0d bd 05 8a bd 3d
       -0.096482866 -0.009898327 -0.03458526 0.09254841
000260 b1 85 be bd 30 1b 10 3d ef f2 84 bc 56 18 5b 3d
       -0.09302843 0.035182178 -0.016229121 0.053490005
000270 12 2e a2 bd 5e aa 05 3d 1c 81 bf 3d 19 a3 c2 bd
       -0.079189435 0.032633178 0.093507975 -0.09503765
000280 37 68 51 3d 67 8c 9a bc c1 f0 fe bb 5e 2c 83 bd
       0.051124778 -0.018865777 -0.007780165 -0.06404947
000290 a3 a4 00 be a9 29 a7 bc 55 57 ec ba 8e d7 f1 bd
       -0.12562804 -0.020405607 -0.0018031398 -0.11808692
0002a0 80 11 7e 3d 4c 79 61 3d aa bf 74 3d f6 f2 97 3d
       0.062028408 0.05504732 0.059753098 0.07419388
0002b0 03 f2 41 bd b4 75 e5 bc b2 36 f5 3b 39 7a 80 3d
       -0.04734994 -0.028010227 0.007483327 0.06273312
0002c0 52 40 33 3d 19 1f ae bc 2c a2 cc 3d 78 46 8a 3d
       0.043762513 -0.021255063 0.09991869 0.06751722
0002d0 89 4a 91 bd 8a 77 76 3d 40 bf 67 bd d2 9c 0e bd
       -0.070942946 0.060172595 -0.056578875 -0.034817524
0002e0 02 9b 16 3d dd 3f 62 bd c6 43 f1 3d 00 90 d1 bd
       0.03676892 -0.055236686 0.11780505 -0.10232544
0002f0 f1 44 b6 bb d7 35 66 bd e9 fb e3 bc 3f 69 f2 bd
       -0.0055624177 -0.05620369 -0.027830081 -0.1183648
000300 f3 f9 d7 ba 5b 07 1b bd 93 3a ea bd 7a 33 e9 3d
       -0.0016477689 -0.03784881 -0.114369534 0.113867715
000310 53 b1 00 3d 15 6e 30 bd b5 f0 ce 3d 83 7b 81 bd
       0.03141911 -0.043073732 0.10104505 -0.06322386
000320 2e 02 cd 3d a2 53 a9 bc 24 93 95 3c b5 08 cb 3d
       0.10010181 -0.020669762 0.018258639 0.0991377
000330 c1 c2 3f bd 56 c8 b5 3b 26 9a b7 bd 97 d9 cb 3c
       -0.04681659 0.0055475635 -0.08964948 0.024884028
000340 f8 ca a7 3d 29 7e fc bd b7 71 95 bd 78 52 76 3d
       0.0819301 -0.12328751 -0.0729708 0.060137242
000350 2b c4 24 3d 49 da f6 3d 68 59 c6 3d 81 9d fa bd
       0.040226143 0.12053353 0.09685022 -0.12237073
000360 65 dc bf bc 72 d5 43 bc 63 32 26 bd d0 6c f2 bb
       -0.023420522 -0.011952745 -0.040575396 -0.0073982254
000370 b1 45 eb 3c 80 dd 9d bd 82 8c d2 3c 61 c6 db 3c
       0.028719755 -0.077082634 0.025701765 0.026827993
000380 4e 55 d4 3d ae 9b fc 3a 00 43 1a 3d f6 58 e2 3d
       0.10367833 0.001927247 0.037661552 0.11052124
000390 58 dc a6 3c da 57 e3 3d e1 0e 19 3d 92 10 80 bd
       0.02036874 0.11100741 0.037367705 -0.062531605
0003a0 3d 99 e8 3c d3 b7 63 3c 1f 5b aa 3d 13 a3 87 3c
       0.028393382 0.013898808 0.08318161 0.016557252
0003b0 2a 36 a0 3c 1d cf a8 3d fd b6 11 bd 35 21 a6 3d
       0.019557077 0.08242629 -0.0355749 0.081118025
0003c0 07 a0 c8 bd 59 ef 47 bd 89 89 77 3d 4d 7b 23 bd
       -0.09796148 -0.048812244 0.060433898 -0.03991251
0003d0 45 c0 84 bd ef 66 c1 bd a5 72 9a bd cd 00 5b bd
       -0.06481985 -0.09443461 -0.07541398 -0.05346756
0003e0 7c 53 bb 3d 90 c0 37 bd d1 08 b0 bc 60 6e d9 bd
       0.09146783 -0.044861376 -0.021488579 -0.106167555
0003f0 c3 d7 12 3b 12 c8 1f 3d 0f a1 bf 3d 76 80 a5 bc
       0.0022406436 0.03900916 0.09356891 -0.020202857

transformer.layers.0.self_attn.out_proj.bias f4 [64]
000000 33 4d 6b ba 60 b8 7e 3b 97 43 cb 39 a6 ef 8a bb
       -0.0008976042 0.003886722 0.00038769536 -0.004239994
000010 03 6d 96 bb d2 f6 a2 bb 94 10 5f bb 5e e1 51 3a
       -0.004590632 -0.004973271 -0.003403698 0.00080062996
000020 db 2f 52 3b 90 78 32 b8 66 50 22 bb 36 3e 12 3b
       0.003207198 -4.255079e-05 -0.002476716 0.0022314913
000030 67 cc db 3a db 50 b4 3b 61 dd fa ba bc be 9a bb
       0.0016769291 0.005502803 -0.0019139462 -0.0047224443
000040 af 13 2f bb c9 22 6b 3a 68 28 d7 ba 68 55 23 bb
       -0.0026714613 0.0008969722 -0.001641524 -0.0024922732
000050 c3 06 7b bb ef cc c7 ba 3e 46 0e 3b 33 1c 25 bb
       -0.003830359 -0.001524357 0.0021709348 -0.002519381
000060 06 4e 8c bb 20 42 bb bb c1 56 5e 3b cf 27 7e bb
       -0.004281762 -0.00571467 0.003392622 -0.0038781052
000070 3d 88 9c 3a b8 3e e2 3a e8 17 70 3b 16 fe d9 b9
       0.0011942458 0.0017261123 0.0036635343 -0.00041578774
000080 8c 8a 71 ba 37 61 93 3b 30 14 17 ba b2 c1 1f bb
       -0.00092140655 0.004497673 -0.0005763201 -0.0024376926
000090 c3 08 81 bb 9e 2b 93 3a 3b 04 b2 3a f3 03 9b bb
       -0.003937812 0.0011228209 0.0013581583 -0.0047306954
0000a0 78 c7 95 39 af 8f 62 bb f3 c3 51 37 e5 5b 9e 3b
       0.0002856811 -0.0034570505 1.2502994e-05 0.004832732
0000b0 8b 1a 34 ba c0 46 85 39 0f 5c 48 bb bf d2 81 3b
       -0.000687041 0.0002542045 -0.003057245 0.0039618905
0000c0 22 db de 3b f5 e2 94 bb 6b 31 96 3a 9c 96 ea 3a
       0.006801025 -0.004543657 0.001145882 0.0017897668
0000d0 5c 88 73 bb 50 6f b0 3b 6d 73 28 b9 30 2c cb 3b
       -0.0037160134 0.0053843632 -0.00016064728 0.006200336
0000e0 27 0e b9 3b 31 a5 21 3b f9 bd f7 3a c4 74 1e 3b
       0.005647439 0.0024665112 0.0018901221 0.0024178484
0000f0 cb aa aa b8 96 b0 94 38 92 67 25 3b 4f aa 89 3a
       -8.138044e-05 7.0900816e-05 0.0025238735 0.0010503026

transformer.layers.0.linear1.weight f4 [256, 64]
000000 04 9f 51 3d 2b f3 47 3d bb 74 d2 3d 78 6e bb 3c
       0.05117704 0.048815887 0.10276171 0.022879824
000010 6f 7e aa 3d d4 35 01 be 59 e3 bf 3d 12 9a c5 3d
       0.083248965 -0.1261819 0.09369535 0.09648527
000020 ab 6f ff bc c7 06 8e bd 0f 34 ec 3d 47 2a b8 bd
       -0.031181177 -0.069348864 0.11533367 -0.08992439
000030 a1 76 8e 3d c9 14 a0 3d 30 c4 4c 3c a4 df 31 3d
       0.069562204 0.078164645 0.012497947 0.04342617
000040 2c 1c 29 3d 03 89 d0 3d 44 4c 17 ba ba ea 11 3d
       0.041286632 0.10182383 -0.00057715573 0.035624243
000050 94 1b d0 3c 54 46 96 bd 40 e7 9b 3d b8 92 b4 bd
       0.025403775 -0.07337633 0.07612467 -0.08817047
000060 97 86 c5 bd 6b 10 20 3d 66 a4 e6 3d c7 92 10 3d
       -0.096448116 0.039078157 0.11261825 0.035296228
000070 04 dc 2a 3d 65 c0 7b bd 8e 27 cd bd 33 53 55 3d
       0.04171373 -0.06146278 -0.1001731 0.052081298
000080 26 43 ad bd e4 39 c5 3d 22 e8 c3 3d 8f 78 cf bd
       -0.08460073 0.096301824 0.0956576 -0.101304166
000090 5a d7 e3 bd 82 34 b2 3c 90 09 f0 3d 67 17 ad bd
       -0.111250594 0.021753553 0.11720574 -0.08451729
0000a0 53 23 ab 3c ca 46 bb bd e2 5d 06 3b 8d a6 c6 3d
       0.020890867 -0.09144361 0.0020502736 0.09699736
0000b0 b1 21 47 bd cb ea d7 bd 7e 9d a9 3a ab 51 e1 bd
       -0.048616115 -0.1054283 0.0012940613 -0.11001905
0000c0 3a f9 a1 bd 94 0b b9 bd 5a 2f a5 3d 69 2a 20 3d
       -0.07908864 -0.090354115 0.08065672 0.039102945
0000d0 30 9d 2e 3d 65 c1 4a ba 1d 6f b6 bb a3 64 fb bd
       0.042630374 -0.00077345065 -0.005567445 -0.12275054
0000e0 93 82 bb 3d e6 a6 14 3d 81 b0 fa bd dc fe ee 3c
       0.091557644 0.03629198 -0.12240697 0.02917426
0000f0 42 a1 07 bd f1 a5 c1 3d 21 6a 27 3d e4 c5 a3 3d
       -0.03311277 0.09455479 0.040872697 0.07996729
000100 dd c3 90 bc d6 cf 91 3c ba 95 45 3d 23 91 77 3d
       -0.01767152 0.0177993 0.048238494 0.060441148
000110 4e 51 01 3c ca de 9a bd b0 f8 f0 3d 52 7c e4 bd
       0.00789292 -0.07562025 0.117661834 -0.11156525
000120 2e e0 d1 bd 9b 64 bb bd 66 0f 33 bd 58 66 49 bc
       -0.10247837 -0.09150048 -0.043715857 -0.012292467
000130 60 e5 b7 3d cb 53 e0 bb 26 6b b8 bd d8 48 55 3d
       0.08979297 -0.0068459264 -0.09004812 0.052071422
000140 23 82 d0 3d 38 f2 5e 3d 78 c4 cc bd fd 7b a1 bd
       0.101810716 0.054430217 -0.09998411 -0.07884977
000150 e1 65 f2 3b be 61 f4 bd 45 09 3a bd 99 21 89 3d
       0.007397399 -0.11932705 -0.045418996 0.06695861
000160 de 72 29 bd c0 a4 2a 3c 17 31 41 3d 4d 0d a3 bd
       -0.04136931 0.010415256 0.047165956 -0.07961521
000170 87 af 8a 3d d5 f7 a5 3d 17 3b c3 3d 0c c1 b0 3d
       0.067717604 0.08103911 0.09532755 0.08630571
000180 0b 1e 7f 3d c2 88 9a 3d d8 54 ad bd e4 c0 c1 3c
       0.06228451 0.07545616 -0.08463448 0.023651548
000190 25 21 12 bc c0 d3 04 be 0d 18 6d 3c 39 7f 93 3d
       -0.008919035 -0.12971401 0.014471066 0.07202
0001a0 ea 1c 7d bb 4c 03 55 bd ce bf 9a bd a1 ca e8 3d
       -0.003862197 -0.052005097 -0.07556115 0.113667734
0001b0 42 47 75 3b bf f7 aa bc a0 cf d6 bc 15 2f b7 3c
       0.0037426506 -0.020870088 -0.02622205 0.022361318
0001c0 38 28 be bc 43 ee bd 3d d5 87 a1 3c 96 21 85 3d
       -0.023212537 0.092739604 0.01971809 0.06500547
0001d0 f0 c2 6e bd 98 a9 63 bb 81 21 b2 3d 4b 28 a3 bd
       -0.058291376 -0.0034738537 0.086977966 -0.0796667
0001e0 38 c5 37 3c ed 60 00 bd 8c 65 70 bd 6e c3 4a 3c
       0.011216454 -0.031342436 -0.058690593 0.012375696
0001f0 04 5c 58 bc fe 61 7c 3d f2 e6 d8 bd f9 82 c1 bd
       -0.013205532 0.06161689 -0.10590924 -0.09448809
000200 76 5c 00 be 54 28 41 bd ac b9 a4 3d 3e e7 40 bc
       -0.12535271 -0.0471576 0.080432266 -0.011773882
000210 aa ab b4 3d 74 f8 e2 3c fc 87 67 bd 8d 2f d3 3d
       0.08821805 0.027706362 -0.05652617 0.10311804
000220 d0 98 cd 3d 11 02 e2 bd f7 a0 27 3d 14 2e cc 3b
       0.10038912 -0.110355504 0.040924992 0.006231079
000230 1e 21 c3 bd 94 fc 7f b9 94 c9 9a 3d b3 16 a2 bc
       -0.09527801 -0.00024412788 0.07557979 -0.019786214
000240 b9 c7 d4 bc 14 60 e1 3d 25 a5 ba 3c 1d bf ec 3d
       -0.025974141 0.110046536 0.022783825 0.115598895
000250 b2 6e 20 3d 00 38 51 3d e4 01 d1 bd a1 6a ae bd
       0.039168067 0.051078796 -0.10205439 -0.085164316
000260 4d 25 00 3c 40 b2 7b bd 6c 10 4c 3d 64 2a 97 3d
       0.007821393 -0.06144929 0.04982035 0.07381132
000270 2e c6 d0 3d e3 8a a7 bd 17 17 b6 3d 95 01 89 bd
       0.1019405 -0.081807874 0.08891123 -0.06689755
000280 32 c9 98 3d cf fc c1 bd 64 ea e7 bd cf ff 0e 3c
       0.0746025 -0.094720475 -0.11324003 0.008727982
000290 a3 9c a8 3d 3e e2 8c 3c ca 05 83 3d 8c ca 05 3c
       0.08233001 0.017197724 0.063975886 0.008165967
0002a0 e0 eb f2 bd e1 5c b8 bd 7b bd 7f bd 86 9f c9 3c
       -0.11861396 -0.0900209 -0.062436562 0.0246122
0002b0 1e 2c bf 3d c2 03 06 bd 41 46 e3 bd 5d 0d 9a bd
       0.093345866 -0.032718427 -0.11097384 -0.0752208
0002c0 5f 3f 3f 3d 88 5a d9 bd 85 49 b2 3c 77 9a 9e 3d
       0.046691295 -0.106129706 0.021763572 0.077443056
0002d0 62 44 2e bd e9 67 84 3d 2f 2b d9 3d 71 ae 9f 3c
       -0.042545684 0.06465132 0.1060394 0.01949236
0002e0 37 cc 93 bd 48 58 01 3e 4f 0f e1 bd fd 86 0e 3c
       -0.07216685 0.12631333 -0.10989248 0.008699176
0002f0 f8 36 de 3d 7e bc ae 3d f5 49 bd bc ad 90 7d 3d
       0.10850328 0.08532046 -0.023106555 0.06190555
000300 c2 e9 a9 3d ec 90 ab bd 5e 9c d2 3d 95 59 2d bc
       0.08296539 -0.08377251 0.10283731 -0.01058044
000310 05 a2 e5 3a 67 40 e8 bd 1f 96 27 3d b9 7f 98 3d
       0.0017519599 -0.11340409 0.04091465 0.07446236
000320 54 0d bb bd 8a 3a cc bb f9 97 9f bd 1c 00 ca bd
       -0.091334015 -0.0062325643 -0.07792658 -0.09863302
000330 33 c5 ce bd 90 1e 19 3d 89 31 eb bc ed 4e 5b 3d
       -0.100962065 0.037382662 -0.028710144 0.053542066
000340 8e 53 ca bd cf 07 8f 3d 9e 09 b4 3d 36 9a d7 3c
       -0.09879218 0.06983911 0.08790897 0.02631865
000350 54 7c 9a bd 37 f5 b8 bd b4 f0 03 3d 38 12 25 3d
       -0.07543245 -0.09031146 0.032211974 0.040300578
000360 26 dd e0 3d da c4 c4 bd b9 56 c1 3b 42 1c c1 3d
       0.10979681 -0.09607859 0.0059002307 0.09429218
000370 0d 50 c4 3d 99 d4 8e bd ef 3c 95 bd 75 0f 4a 3c
       0.09585581 -0.069741435 -0.07287013 0.012332787
000380 29 0d 9b 3d fc 1b 1a 3d 66 6c a1 3d b8 1a 19 3d
       0.075708695 0.037624344 0.078820035 0.037378997
000390 01 6e a4 3d 74 74 db bd 70 88 93 bd cd dd 2b bd
       0.08028794 -0.10715571 -0.07203758 -0.041959573
0003a0 60 df 71 bd 37 39 a5 bd f4 45 11 bc 8e e4 d4 3d
       -0.059050918 -0.080675535 -0.008866776 0.10395156
0003b0 38 e9 57 bd 5b ef b8 3d 10 6d 7d bd ca 28 3a bd
       -0.05271265 0.090300284 -0.06187159 -0.045449056
0003c0 eb b9 cf 3d a6 a8 ed 3d 3b cb c2 3d 3b 60 ee 3d
       0.10142883 0.11604433 0.095114194 0.11639448
0003d0 c1 cd 96 bd fa fb 77 bd 84 da 3a 3d 03 29 a4 3d
       -0.07363463 -0.060543038 0.04561855 0.08015635
0003e0 27 70 9f 3d 0d d7 d0 bd 59 7d c9 bd 8a f1 03 3e
       0.07785063 -0.10197268 -0.09838361 0.12885109
0003f0 9c 2d 93 3d 8c e0 7e bd c4 6c cf bc 50 8a c3 3d
       0.07186434 -0.062225863 -0.025320418 0.095478654

transformer.layers.0.linear1.bias f4 [256]
000000 84 2c dc bc e1 85 ac 3c 5f 2b 8b bc dd ac d7 bd
       -0.026876695 0.021059932 -0.016988454 -0.10531018
000010 85 f7 c1 3d da e5 b6 bc 57 24 a5 bc 21 36 d6 3d
       0.09471039 -0.022326399 -0.02015893 0.10459543
000020 3a 81 ed bd 32 4a 75 3d 96 20 15 3d 48 d3 cd 3d
       -0.11596914 0.05988521 0.03640803 0.10050064
000030 6b 81 ba bd 52 da 65 3a 2d 6c e3 3d e6 4a d9 3d
       -0.09106716 0.0008768189 0.11104617 0.10609989
000040 99 e0 22 bd eb 6f e3 bd 0f 4e e8 bb a4 28 7c 3d
       -0.039764974 -0.11105331 -0.0070893834 0.061562195
000050 fc 89 e7 3c 22 5e 16 bc 0e 0d 85 bd 05 67 6b bd
       0.028264038 -0.009177716 -0.064966306 -0.057471294
000060 3c 4f 96 bd 9f b3 12 3d 9b d4 21 bd 35 3f 3b bd
       -0.073393315 0.03581583 -0.039509397 -0.045714576
000070 98 3e a6 bd aa ca 85 3d 8d 4d 98 3d 3c 04 d5 bd
       -0.081174076 0.06532796 0.07436667 -0.10401198
000080 bc f6 0a 3d d4 0d e5 bd 64 d2 21 bd 47 38 40 bd
       0.03392671 -0.11184278 -0.039507285 -0.04692867
000090 b2 7c b9 bd ce 66 a0 3d f4 50 15 3b 93 2d ed bd
       -0.09056987 0.078321084 0.0022783848 -0.11580958
0000a0 21 05 a8 ba cb 81 35 bc 6c 4a 9f bd c4 74 a0 3d
       -0.0012818911 -0.011078308 -0.07777867 0.07834771
0000b0 f4 de a4 3d 3e 06 65 3d 68 59 83 3d 6f 50 aa bc
       0.080503374 0.055914156 0.06413537 -0.020790307
0000c0 21 2c 4d bd 96 b5 aa 3d d3 cd 3f bc 5a d1 9a bc
       -0.050090913 0.08335416 -0.011706787 -0.018898655
0000d0 3d 35 d3 3d 1d 0f 87 bd ac d7 e4 3c 88 a5 b5 3c
       0.10312889 -0.065946795 0.027934872 0.022173658
0000e0 6b b8 29 bd 04 cf 0e 3c 47 34 bb 3c 25 7f 35 bd
       -0.04143564 0.008716349 0.022852076 -0.044310708
0000f0 22 0d 9e 3d 89 d3 6a bd 97 d5 5b 3d b1 39 e7 bc
       0.07717349 -0.057330642 0.053670492 -0.028225752
000100 05 7f aa 3c 1e bc aa bd 59 36 e4 bd 87 d8 e3 bd
       0.02081252 -0.08336662 -0.111431785 -0.11125284
000110 b4 42 98 bd 41 2d 3a bd 6c 11 3f 3c 48 db f2 3d
       -0.074345976 -0.045453314 0.011661869 0.11858231
000120 61 6e 1f bd 32 f1 89 bd 4a fd e1 ba 30 b8 c6 bb
       -0.038923625 -0.067354575 -0.0017241624 -0.0060644373
000130 d0 6c ac bd cd a5 2a bd fb 46 ab bd 3a e8 b0 bd
       -0.08419192 -0.041662026 -0.08363148 -0.08638044
000140 56 a6 6e bd 99 19 6a 3c 76 ed 2c bd 42 5c 8e bb
       -0.0582641 0.0142883295 -0.042218648 -0.004344494
000150 31 82 10 bd ad d9 91 3c 97 45 61 3d 9d 23 c2 3d
       -0.03528041 0.017803991 0.054998007 0.09479449
000160 de 81 e4 bd 6b 2f df bc e1 c4 53 bd 94 72 ae 3d
       -0.11157583 -0.02724429 -0.05170143 0.08517948
000170 aa 6b d3 bd b7 c8 42 bd 3d 27 05 bd 47 7e ac 3d
       -0.1032327 -0.047554698 -0.032508124 0.08422523
000180 d0 6f 9b bd 8b 4b da 3d 1c 3e f8 3d c6 5e 88 bc
       -0.07589686 0.1065894 0.121212214 -0.016646754
000190 cd f4 06 bd f7 59 d8 3c 06 70 e1 3d 20 d2 e6 3b
       -0.032948304 0.026410086 0.11007695 0.007044092
0001a0 21 99 b8 bd 53 d5 dc 3c 5a 49 60 bc 59 1a d8 3d
       -0.09013582 0.02695719 -0.013689363 0.105519004
0001b0 73 4a b3 3d a4 51 b9 bc 03 94 75 bd fb f8 ee 3d
       0.087544344 -0.022621937 -0.059955608 0.11668583
0001c0 6e e4 fc bd 0b c9 ce 3d 06 12 85 3c e1 c1 73 bd
       -0.12348257 0.1009694 0.016243946 -0.05951107
0001d0 84 e5 cd bd 4a cc 75 bd 31 5a d5 bd 9e aa 7f 3d
       -0.10053542 -0.06000928 -0.10417593 0.062418573
0001e0 f9 54 8a 3d b6 6e d1 3d 46 5c 60 3d 88 ab 6a bc
       0.067544885 0.102261946 0.0547755 -0.014323123
0001f0 36 ea b4 3d 12 56 66 bd 76 5b dd bc d4 05 30 3d
       0.08833735 -0.056234427 -0.027021151 0.042974308
000200 ab 15 eb bc 3a 71 29 bd 62 5b 83 3c 65 80 69 3b
       -0.028696856 -0.041367747 0.016034786 0.0035629508
000210 26 19 91 bd 30 dc c3 3c 1f aa 53 bd 2b 4a 36 bd
       -0.07084875 0.023908705 -0.051675912 -0.044504326
000220 f7 63 b0 3c 9b 36 8b 3d 12 07 17 3d ea b4 a9 bc
       0.021532042 0.067975245 0.036871977 -0.02071615
000230 59 03 72 3d 1b ed d3 bd 6b 11 eb 3c e0 50 f1 3d
       0.059085224 -0.10347959 0.028694829 0.11783004
000240 04 10 e2 3d f8 5b 02 bd 9e 19 bc 3d 44 db e2 bd
       0.11038211 -0.03182599 0.091845736 -0.11076978
000250 61 69 96 bd b1 7d fa bd e1 56 04 be 2e 52 d5 3d
       -0.07344318 -0.12231005 -0.12923767 0.10416065
000260 3d bb 43 bd e9 3c 5f 3d af 1b 05 3d e4 e3 aa bd
       -0.047785986 0.054501448 0.032497104 -0.08344248
000270 8e 53 12 bd b1 fb 02 3c 8d 9e 93 bd 54 e3 93 3d
       -0.035724215 0.007994578 -0.072079755 0.07221094
000280 a0 f9 94 bd 5e e7 0c 3d 09 05 58 bc cd 83 d9 bd
       -0.07274175 0.034400336 -0.013184794 -0.10620842
000290 0e 56 45 3c 3a 6f ce 3d 41 7b d4 3d 31 dc fe bc
       0.012044443 0.100798085 0.10375071 -0.031110855
0002a0 e6 9a f0 3d 9d 52 f1 3c e2 22 76 bd 29 f4 e4 bd
       0.117482945 0.029458338 -0.06009186 -0.11179382
0002b0 8d 34 a0 bd 78 bc 3e bd cb ca b3 3d 76 b0 02 bc
       -0.07822523 -0.046566457 0.08778914 -0.007976642
0002c0 56 6e 3e 3d b1 55 6f 3c 9f 08 04 bd ef 65 ff bd
       0.046491943 0.014607833 -0.032234784 -0.12470614
0002d0 96 82 ba 3d ba 8e 01 be 40 e2 b3 bc 0b 5d 9a 3c
       0.091069385 -0.12652102 -0.02195847 0.018843194
0002e0 9d 83 e1 3d 46 3f 57 3d db ce dd bd 4a 73 6c 3d
       0.11011431 0.052550577 -0.1083047 0.057727136
0002f0 3c 05 67 bd af a8 db 3b e1 bf 55 bd 73 3c 96 bc
       -0.056401476 0.0067034583 -0.052184943 -0.018339371
000300 9e 21 19 bd b1 a1 f6 bd 68 5e ee 3c 71 31 a0 bd
       -0.037385575 -0.12042559 0.02909775 -0.0782193
000310 3b e9 b9 bd c1 71 f8 bd 44 80 e8 bd 6d 41 4d 3d
       -0.09077688 -0.12131072 -0.1135259 0.050111223
000320 64 f6 ed 3d 0a a0 d8 3d 8e 2f f0 3d d3 86 e0 3d
       0.11619261 0.105774 0.1172782 0.10963216
000330 15 ff 90 bd 2a 2e e1 3d fd 39 1e bd 63 90 1c bd
       -0.07079903 0.10995133 -0.03862952 -0.038223635
000340 fd 5e fe bd 64 db 45 bc e7 61 52 3c ff c2 a0 bd
       -0.12420461 -0.012076233 0.012840725 -0.078496926
000350 0b 16 7b bd 3d f2 68 bd 31 cd 4c 3d 33 48 cc 3d
       -0.06130032 -0.05687164 0.050000373 0.099747084
000360 a7 0a 95 3d b8 4c 0f bd e4 18 f6 3d 44 7f c7 bd
       0.072774224 -0.034985274 0.12016466 -0.09741071
000370 58 47 f1 bc c3 d2 05 bd c1 50 fb bd 45 0a 73 bd
       -0.029452965 -0.0326717 -0.12271262 -0.059335966
000380 8e 3d bf bc 02 ff 9a 3d c8 17 ce bd 42 89 8d bd
       -0.023344781 0.0756817 -0.1006313 -0.069109455
000390 05 81 d4 bd 4d 9c b3 3d 74 64 8c bc b9 36 8d 3d
       -0.10376171 0.087700464 -0.017137744 0.06895203
0003a0 71 64 a4 bd 9f 6c 82 3d 08 fa f9 3d d1 3d 7a bb
       -0.0802697 0.06368374 0.12205893 -0.0038183818
0003b0 75 af c1 3d fe 42 e7 3d ab 55 65 bd c9 21 ae bd
       0.09457294 0.112920746 -0.055989902 -0.08502538
0003c0 ea c5 e6 3c 4b b7 fe bd 4a 4f 1a 3d f3 45 b7 3c
       0.028170545 -0.12437304 0.037673272 0.022372222
0003d0 78 ca f0 bd 5e 2f ed 3d 6d 78 f1 3d d5 53 d1 3d
       -0.11757368 0.115813 0.117905475 0.10221068
0003e0 77 13 a7 3c 27 c6 58 3d b7 0f 11 3d 51 3d 48 3d
       0.020395024 0.052923348 0.035415377 0.0488866
0003f0 04 16 e0 bd 71 a6 c7 3d 2b 71 f8 bd ca 45 c0 3d
       -0.10941699 0.09748543 -0.1213096 0.09388311
