models/sasrec_best.pt (torch, 435607 bytes, 28 tensors)

item_embedding.weight f4 [21, 64]
000000 00 00 00 00 00 00 00 00 00 00 00 00 00 00 00 00
       0.0 0.0 0.0 0.0
000010 00 00 00 00 00 00 00 00 00 00 00 00 00 00 00 00
       0.0 0.0 0.0 0.0
000020 00 00 00 00 00 00 00 00 00 00 00 00 00 00 00 00
       0.0 0.0 0.0 0.0
000030 00 00 00 00 00 00 00 00 00 00 00 00 00 00 00 00
       0.0 0.0 0.0 0.0
000040 00 00 00 00 00 00 00 00 00 00 00 00 00 00 00 00
       0.0 0.0 0.0 0.0
000050 00 00 00 00 00 00 00 00 00 00 00 00 00 00 00 00
       0.0 0.0 0.0 0.0
000060 00 00 00 00 00 00 00 00 00 00 00 00 00 00 00 00
       0.0 0.0 0.0 0.0
000070 00 00 00 00 00 00 00 00 00 00 00 00 00 00 00 00
       0.0 0.0 0.0 0.0
000080 00 00 00 00 00 00 00 00 00 00 00 00 00 00 00 00
       0.0 0.0 0.0 0.0
000090 00 00 00 00 00 00 00 00 00 00 00 00 00 00 00 00
       0.0 0.0 0.0 0.0
0000a0 00 00 00 00 00 00 00 00 00 00 00 00 00 00 00 00
       0.0 0.0 0.0 0.0
0000b0 00 00 00 00 00 00 00 00 00 00 00 00 00 00 00 00
       0.0 0.0 0.0 0.0
0000c0 00 00 00 00 00 00 00 00 00 00 00 00 00 00 00 00
       0.0 0.0 0.0 0.0
0000d0 00 00 00 00 00 00 00 00 00 00 00 00 00 00 00 00
       0.0 0.0 0.0 0.0
0000e0 00 00 00 00 00 00 00 00 00 00 00 00 00 00 00 00
       0.0 0.0 0.0 0.0
0000f0 00 00 00 00 00 00 00 00 00 00 00 00 00 00 00 00
       0.0 0.0 0.0 0.0
000100 6e 96 2d 3f 2e a7 f5 be d9 1d 50 3f 24 25 e4 3e
       0.6780766 -0.4797911 0.81295544 0.44559586
000110 4a 4b 05 bf 47 c0 40 3f c5 be 00 bf 76 d4 03 40
       -0.52068007 0.7529339 -0.5029109 2.0598426
000120 23 e8 2d bf 21 de bc 3f 01 b9 95 bd 8e 52 a1 3f
       -0.6793234 1.4755288 -0.07310677 1.2603319
000130 fb e3 9e 3f 4a 18 f5 bf 17 08 8c bd 2b 0b b4 bf
       1.2413324 -1.9148037 -0.068374805 -1.4065908
000140 42 08 17 bf 4b 5d 06 3f e2 19 73 3f 73 90 fd be
       -0.58996975 0.52486104 0.9496137 -0.49524269
000150 43 fd cb be e4 8b 4c bf bb 73 bc 3e 72 d8 e3 be
       -0.3984166 -0.79900956 0.36807045 -0.44501072
000160 24 67 04 bf 27 e6 14 3f 92 07 45 bf 06 72 c5 3e
       -0.5171988 0.58163685 -0.76964676 0.38563555
000170 29 30 12 3f b5 4e de bf e8 8c 77 bf 55 72 e4 bf
       0.57104737 -1.736777 -0.9669938 -1.7847391
000180 3b 65 c0 3c 99 78 ef 3e 9d ed 1e bf 4b c8 d9 3d
       0.02348577 0.46771696 -0.6208132 0.10633906
000190 94 6d 2b 3f f8 b0 10 40 e2 4c 7a 3f 86 8a e8 3e
       0.6696408 2.2608013 0.97773564 0.45418185
0001a0 54 9e 8f bf 6b d8 f7 be da ed cf bd e9 bc 84 bf
       -1.1220193 -0.484073 -0.101527885 -1.0370151
0001b0 c7 35 9e bf 1f 3e 8f bf 05 e5 44 be f9 42 27 bc
       -1.2360162 -1.1190833 -0.19227989 -0.010208839
0001c0 5f 53 c9 3d ae 5f 13 c0 1b ac 0d 40 11 95 91 3f
       0.09830355 -2.3027148 2.2136295 1.1373616
0001d0 cd 9e 5b 3f e4 23 6f be 65 39 88 3e d3 ca 3b be
       0.85789186 -0.23353535 0.2660629 -0.1833909
0001e0 e3 48 68 be 9d 4a 41 bf 44 e5 64 3f 80 a9 87 3f
       -0.22684054 -0.75504476 0.8941233 1.0598602
0001f0 2a 99 29 be 54 23 ba 3f ac 78 c6 3f 9d 76 47 3f
       -0.16562334 1.4542031 1.5505576 0.77915365
000200 ee 8c b8 bd 38 3e a2 bf bd 94 15 bf 68 7e 44 bf
       -0.09011255 -1.2675238 -0.5843008 -0.7675538
000210 bb 49 17 bf 48 5c 23 40 16 6d 23 3e fe 8e 2c bf
       -0.5909688 2.5525074 0.15959582 -0.6740569
000220 b1 25 2e 3f f7 01 6a 3e 68 7f c2 bf 5f f0 1f 40
       0.6802626 0.22852312 -1.5195131 2.499046
000230 24 f7 33 bf a9 dd 30 bf e8 b5 86 3d df 86 ba be
       -0.7029898 -0.69088227 0.065776646 -0.36431023
000240 48 e3 b2 3e bb 07 cf be 13 8a fc be 3c 0f 2f 3f
       0.34939027 -0.40435585 -0.49324092 0.6838262
000250 29 ce d8 3e 31 f5 a2 3e 99 8e 48 bf d9 35 98 3e
       0.42344788 0.3182769 -0.78342587 0.29728583
000260 d8 a1 41 3f 77 ab 0e be cd 50 8e bf c0 5a df 3f
       0.7563758 -0.13932596 -1.1118408 1.744957
000270 48 19 c7 3f a1 f1 dc bf 94 07 ca bc ec ec a7 3e
       1.555459 -1.7261239 -0.024661817 0.32797945
000280 9e 11 1c be 2f a5 4c 3f 30 3c d0 3e 5f a1 81 3f
       -0.15241095 0.7993955 0.4067092 1.0127372
000290 70 c0 7d bf a7 42 85 3f 5b 77 01 c0 2f 31 39 3f
       -0.9912176 1.0410966 -2.0229099 0.72340673
0002a0 dc 23 61 3f 66 c7 68 bf e3 28 87 3e 2a ee 17 c0
       0.8794534 -0.9092926 0.26398382 -2.3739114
0002b0 a3 ae 96 3e 89 f3 cc 3e 5b a5 68 be d2 c5 4e bd
       0.29430112 0.40029553 -0.22719328 -0.050481625
0002c0 65 19 28 be fd 4d 2c 3e 64 0f 19 3f 02 7c 8a bf
       -0.16415937 0.16826625 0.5978911 -1.0819094
0002d0 a9 9b 96 be 23 8b 5c be 11 8c 43 bf 22 cf 62 3f
       -0.29415634 -0.21537451 -0.763856 0.8859731
0002e0 3e b0 55 be ee 2d 69 bf 2c 23 23 bf f8 1e 44 3f
       -0.20868012 -0.9108571 -0.63725543 0.76609755
0002f0 fe f4 5d 3f df b0 ef 3f 7d ee ea 3f 5c 59 be 3e
       0.86701953 1.8725852 1.8354031 0.3717755
000300 c1 7a 04 c0 13 52 4f 3f 5f 46 f2 be 53 35 c0 3f
       -2.0699923 0.8098461 -0.47319314 1.5016273
000310 a4 95 7a bf f0 3f 8f 3f 6d 1b ab 3e cd 95 42 bf
       -0.97884583 1.1191387 0.33419362 -0.7600983
000320 eb 51 f3 be 98 10 84 bf ac fa 89 bf e3 ca f2 bf
       -0.47523436 -1.0317564 -1.0779624 -1.8968166
000330 53 d3 b6 bf 1f 39 bc 3f e8 8b ff 3f a4 16 3c ba
       -1.4283241 1.4704932 1.9964571 -0.00071750046
000340 d6 03 f0 3d 56 38 48 3f b3 bc 7f bf 27 49 bb 3f
       0.11719482 0.7821096 -0.9989731 1.4631699
000350 0e 3a 76 bf e9 69 b1 3f 1d 2b 0d 3e e2 c1 b6 ba
       -0.96182334 1.3860446 0.13785978 -0.001394328
000360 87 8c 49 3f 63 98 33 bf a6 2f d7 3d 97 e7 91 3f
       0.7873005 -0.701544 0.10507135 1.1398801
000370 51 40 37 bf 52 ab fd bd 78 be c4 3e 20 4e be 3e
       -0.71582514 -0.123861924 0.38426566 0.3716898
000380 d5 d6 ae bf db c2 03 40 ce f8 33 40 94 08 59 bf
       -1.3659312 2.058768 2.8120608 -0.84778714
000390 b6 cf e1 bd 7c 95 6d 3e 84 db 60 3e a7 59 86 bf
       -0.11025946 0.23201555 0.21958739 -1.049611
0003a0 41 9d 8e be de ab c9 bf b5 6d 9d 3f d7 01 4e 3e
       -0.2785435 -1.5755575 1.2299105 0.2011789
0003b0 5c b8 f8 be 7c 5b 76 bf 92 65 9c bd 7f 4c 27 c0
       -0.48578155 -0.96233344 -0.076365605 -2.614044
0003c0 36 4f 48 3f 02 bd 1f 3e 3a fc 0d 3f 64 4f 21 bf
       0.78245866 0.15599445 0.5546299 -0.63011765
0003d0 b1 ab 99 3f c5 92 02 be 03 a8 74 bf d0 8e 8d 3f
       1.2005521 -0.127513 -0.95568866 1.1059208
0003e0 ca 14 37 be 7d 24 cf 3e 56 16 5b 3f a1 18 15 bf
       -0.17879024 0.40457526 0.85580957 -0.58240706
0003f0 3d 73 1f 3f ac 8a a9 3f df 45 95 3e a4 9b 1e bf
       0.62285215 1.3245444 0.2915487 -0.6195624

pos_embedding.weight f4 [50, 64]
000000 65 0a 80 3f 09 b9 d6 bf ca 7b 9d 3e f1 60 f2 bd
       1.0003172 -1.6775218 0.30758506 -0.11834896
000010 5d 2d d0 3e 94 b2 35 be 7d f5 3a be 63 81 0e 3f
       0.4065961 -0.17743903 -0.18257709 0.5566618
000020 02 5d 80 bf c2 ce ca bf d4 8b bf 3d 00 17 8d bf
       -1.0028384 -1.5844347 0.09352842 -1.1022644
000030 a6 cf 6b bf bb 26 a0 3d 19 3c a5 bf 6d 3b ca bf
       -0.9211372 0.07819887 -1.2908965 -1.5799385
000040 17 5a ba 3e d4 17 c2 3d d2 e0 30 be ca 2d be 3f
       0.36396858 0.09477201 -0.17273262 1.4857724
000050 c8 60 67 3f 65 c8 96 3f d3 a8 0c 3e ca 79 67 bf
       0.9038205 1.1779906 0.13736276 -0.9042021
000060 db d2 f6 be 90 b3 91 3e 04 c2 1b c0 95 cd c1 3e
       -0.48207745 0.28457308 -2.4337168 0.3785216
000070 8c ed 8a 3f b5 26 24 bf da 11 ce 3d 26 f7 8f 3f
       1.0853744 -0.6412156 0.10061999 1.1247299
000080 3e 8c ac be 59 50 06 bf a5 23 5a bf d5 20 ed 3f
       -0.33700746 -0.5246635 -0.8521064 1.8525645
000090 f0 c6 65 3f ca 8f be be 0d da 0f bf 73 70 aa be
       0.8975668 -0.37219077 -0.56192094 -0.33288917
0000a0 c0 82 8f 3f b6 25 32 3d 0e b2 c7 bf b9 e2 61 3e
       1.1211777 0.043492995 -1.5601213 0.22059144
0000b0 14 3c 14 bf d3 aa 39 3f 5b 28 53 be 06 b7 45 bb
       -0.5790417 0.7252628 -0.20620863 -0.0030168905
0000c0 11 bb 09 40 81 cd b6 be 12 57 ea be 80 11 58 3f
       2.1520426 -0.35703662 -0.45769554 0.844017
0000d0 02 c1 de be 1a bc d2 3d 94 bb 65 3f 3f 3d 42 be
       -0.43506628 0.10289784 0.89739347 -0.18968676
0000e0 b6 80 17 c0 38 b8 c3 3e a8 ef d2 3e 53 97 a9 3f
       -2.367231 0.38226485 0.41198468 1.3249305
0000f0 67 0f 92 bf 8c e8 8e bf e7 53 0c 3f b8 39 d7 bf
       -1.141095 -1.1164718 0.54815525 -1.6814489
000100 e4 e1 a2 3f fe 71 88 3d 95 7b 94 be de fd 2e 3f
       1.2725186 0.06662367 -0.29000536 0.6835612
000110 2c 97 0f be 6b 00 23 c0 9e 73 0f 40 40 ea 6d bf
       -0.14022511 -2.5469005 2.2414317 -0.9293556
000120 74 92 f7 3e 5f aa 32 bd ac 34 91 be 5c dd 85 bf
       0.48353922 -0.04361951 -0.28360498 -1.0458179
000130 07 48 e5 be fe a0 34 be 3e e3 d6 3e 5f c2 35 40
       -0.44781515 -0.17639539 0.41970247 2.8399885
000140 3a 8f 38 be fe 55 97 be ce e9 91 bf f9 7c 38 3e
       -0.18023387 -0.29557794 -1.1399477 0.18016423
000150 f5 7e 38 3e 03 af 4a 3f da ff 37 3f bb 72 46 3f
       0.1801718 0.79173297 0.71874774 0.77518815
000160 14 06 73 be 7a 30 1b 40 c3 ca 92 3f fd 60 72 3e
       -0.23732787 2.4248338 1.1468128 0.2366981
000170 a0 1d 71 bf 62 31 3b bf 58 8d 02 3f e9 36 04 3e
       -0.9418583 -0.7312223 0.50996923 0.12911572
000180 21 62 be 3f 9a 8b ef be 08 31 69 bc bc cd 46 3f
       1.4873697 -0.46786195 -0.014232881 0.77657676
000190 6c 7e be be 27 76 5a 3f b8 99 89 3f 51 12 9f 3e
       -0.37205827 0.85336536 1.0750036 0.31068662
0001a0 62 b3 08 3f a6 27 e2 be ca eb 1f bf 83 b1 94 bf
       0.53398716 -0.44170874 -0.6246916 -1.1616672
0001b0 d0 e9 bc 3e 23 e4 57 bc a1 10 27 3f f2 0e 64 bf
       0.36897135 -0.013176951 0.6525975 -0.89085305
0001c0 c6 48 83 3d 2c 76 18 3c 4b 4d bc bf ba ad ca 3c
       0.06410365 0.009305518 -1.4711088 0.024741042
0001d0 08 ac 78 be f7 7a 89 bf 10 71 45 bf db 41 17 bf
       -0.24284375 -1.0740651 -0.77125645 -0.5908486
0001e0 4a 0a 88 3e 56 3a ed 3e 93 3b d5 bf 8a 30 ec 3f
       0.2657035 0.4633357 -1.6658806 1.8452313
0001f0 4e 53 9c 3f e1 fb dc bf 88 66 75 bf 3b 84 93 bf
       1.2212923 -1.7264367 -0.95859575 -1.1524729
000200 e0 f2 4f bf 28 e5 0c 3f 6b cf b0 3f f1 3a 0c 3f
       -0.8122997 0.55037165 1.3813299 0.5477744
000210 1e 09 7d 3f 72 eb 67 3f 20 86 60 bc d6 7e 48 3e
       0.98842037 0.90593636 -0.013703853 0.19579634
000220 0a 68 52 bf 3f 2e 9b bf 6d 4c 96 bf 05 d9 ba 3f
       -0.8219 -1.2123488 -1.1742073 1.4597479
000230 2f 78 b4 be 8d 4a 93 3f 69 a9 2f bf 93 e5 3d be
       -0.35247943 1.1507126 -0.68617874 -0.18544607
000240 dd 12 57 3f ae f1 a7 bf 48 d0 b2 bf f7 46 56 bf
       0.8401316 -1.312063 -1.3969812 -0.83702034
000250 85 db af 3f 46 00 72 be 52 19 5e bf cd d4 e3 bf
       1.3738867 -0.23632917 -0.86757386 -1.7799317
000260 00 f8 97 be 7a be 6e bf 7d b0 b3 be f6 1c 06 3f
       -0.29681396 -0.93259394 -0.35095587 0.5238794
000270 81 bb 9d bf 02 ff f8 3d a6 48 17 bf 29 f0 73 3f
       -1.2322847 0.12158014 -0.5909523 0.9528833
000280 11 37 06 3f aa 13 84 3e 3f db ca bf 48 be ba bb
       0.52427775 0.25796252 -1.5848159 -0.005698953
000290 e3 b6 79 be 75 3a 04 3f 96 34 30 3d 3a dd db 3f
       -0.24386172 0.516517 0.0430189 1.7176888
0002a0 1c 51 5f be d0 f0 1e 3f 0b 52 7a be bd 5e e7 3f
       -0.21808285 0.620862 -0.2444536 1.8075787
0002b0 24 f5 4e be 32 2c 44 bf e6 44 f1 bf 70 14 6b bd
       -0.20210701 -0.76629937 -1.8849151 -0.057392538
0002c0 35 49 2c bf 36 ac 25 bf ba 93 b2 3f 2f 68 39 3f
       -0.67299205 -0.647159 1.3951333 0.72424597
0002d0 b5 f0 28 3f 8f b6 c3 be da 62 d1 3e 68 26 56 bf
       0.6599229 -0.3822522 0.4089573 -0.83652353
0002e0 3e 77 72 bf cb e4 84 bb 7b ef 83 bf 6f 0a 15 40
       -0.947132 -0.0040555946 -1.0307459 2.3287618
0002f0 fc 89 d8 3e c2 6f 1e be 31 c8 96 bf 30 71 f1 be
       0.42292774 -0.1547232 -1.1779844 -0.47156668
000300 28 f4 ef be a1 37 d0 bf d7 7e 5e 3e 95 65 da 3f
       -0.46865964 -1.6266977 0.21728073 1.706225
000310 66 74 47 3f 3e 13 70 bf b7 7e 97 3f 0f a2 ad be
       0.77911985 -0.9377936 1.1835545 -0.33912703
000320 63 3d 7c 3f 6f 7c a8 3f 92 d9 a8 3e f2 c8 f0 be
       0.9853117 1.3162974 0.32978493 -0.4702831
000330 05 f5 a6 3e bc 86 f8 be 2a c0 e9 3d c4 f3 53 bf
       0.3260881 -0.48540294 0.114136055 -0.8279383
000340 33 36 13 bf 96 ca e8 3e f8 de 57 be 67 d2 f1 3f
       -0.57504576 0.4546706 -0.2108115 1.8892335
000350 de 86 64 bd 3b 01 95 3d a1 cc 31 3f 74 61 10 bf
       -0.055792682 0.07275625 0.69452864 -0.563987
000360 b0 f7 43 bd ee 8a d6 bf fd 9b c6 3f 4a a5 b3 bd
       -0.047843635 -1.6761148 1.5516354 -0.08771761
000370 62 1b 1d bf 20 64 8d 3f c0 24 93 3e 26 bf 2b be
       -0.6136991 1.1046181 0.28738976 -0.16772136
000380 b6 a7 00 3e 9b 19 92 3c 94 34 95 bf cc 5a 1c bd
       0.12563977 0.017834475 -1.165667 -0.03817253
000390 02 fa e6 bd 68 80 bb bf 70 69 04 40 65 61 a9 bf
       -0.11278154 -1.4648561 2.0689354 -1.3232847
0003a0 19 ae b5 3f f0 4d d6 bf f7 25 b0 3e 7b 87 93 3e
       1.4193755 -1.6742535 0.34403965 0.288143
0003b0 aa 01 c6 bf d4 05 f2 3e cc ae 54 3f 38 59 12 be
       -1.5469258 0.47270072 0.8307922 -0.14291847
0003c0 ab bd 50 3f a6 5a 06 bf ca e4 7c 3f cd 00 49 3f
       0.8153941 -0.5248207 0.98786604 0.78516847
0003d0 33 9d 3c 3f 5b c3 3c 3f 12 b2 dc bd 3a d8 f5 3e
       0.73677367 0.7373559 -0.10776152 0.4801653
0003e0 12 dd 0b bf e6 f7 26 c0 80 36 63 bf 86 a9 2b 3f
       -0.546342 -2.6088805 -0.88755035 0.6705555
0003f0 55 a1 34 bf f5 40 cc 3c 93 b9 23 3f f1 5c 17 3f
       -0.70558673 0.024933318 0.6395504 0.5912619

transformer.layers.0.self_attn.in_proj_weight f4 [192, 64]
000000 4b 1d 2e bd 49 69 5d 3c f7 0e b7 bc 03 6f fe bd
       -0.042508405 0.0135138715 -0.022346003 -0.124235176
000010 3a 35 de bd 58 64 2f bd 0d 3d fe 3b 2d bd 03 be
       -0.10849996 -0.042820305 0.0077587427 -0.12865134
000020 3f 5e 1d bc 3c 8b 62 bd 88 50 05 be 76 be fc bd
       -0.00960499 -0.055308565 -0.13019001 -0.12341015
000030 f2 43 10 3e 3c 2b 0c be 63 f6 09 3c 9c dc db bb
       0.14088419 -0.13688368 0.00842056 -0.0067096483
000040 bb b1 ae 3d c2 f5 a6 bd 7a 06 40 3d fe 11 89 3d
       0.08529993 -0.08152343 0.046881177 0.06692885
000050 cf 8a 09 3e bd 83 1e 3e c7 53 02 be bc 14 c7 3d
       0.13431858 0.15479942 -0.12727271 0.09720752
000060 41 5b 8f bd 0e 31 26 3b 33 75 f2 3d 3f 40 2a bd
       -0.06999827 0.0025358829 0.1183876 -0.041565176
000070 49 5d a3 3d 95 79 50 3d 00 c3 dd 3d 7a 63 07 3e
       0.07976777 0.0508972 0.10828209 0.13221541
000080 3b ea 07 bd 75 9f 80 bd 2d b9 a0 3d 90 6b ce bb
       -0.033182364 -0.06280414 0.078478195 -0.0062994435
000090 2e 95 32 3d 84 95 7b bd 44 64 04 be 1a 3b 05 3d
       0.0435993 -0.061421886 -0.12928873 0.032527067
0000a0 21 cf b0 3d 64 c5 ad 3d 9b 4e f1 3d 7d e8 f3 3d
       0.08633257 0.08484915 0.11782571 0.11909578
0000b0 43 c7 bf 3c 22 62 0c 3e 20 73 ed bd 61 10 df 3c
       0.023410445 0.1370931 -0.11594224 0.02722949
0000c0 3f c6 95 bd 41 3f b3 bd ef 94 d3 bb 55 5b 08 bc
       -0.07313203 -0.08752299 -0.0064569633 -0.0083225565
0000d0 ae 5a 6a bd 96 b9 52 3d 04 58 cf bd 13 e2 ca bc
       -0.057215385 0.05144652 -0.101242095 -0.024766004
0000e0 ee 54 86 bd 48 10 71 3d 2b c9 01 3c 27 1b 1b bd
       -0.06559168 0.058853418 0.007921497 -0.03786769
0000f0 73 ea 82 3d 4a 94 e3 bb 12 74 e3 3c dc 77 76 bd
       0.06392374 -0.0069451677 0.027765308 -0.0601729
000100 71 25 c0 bd 7d 56 be 3d 37 5d 99 3d 23 1e 86 3d
       -0.093821414 0.0929384 0.074884824 0.06548717
000110 e8 55 9f bd 5a 1b 1f bc 95 fc f4 bc 35 11 05 3c
       -0.07780057 -0.009711111 -0.029905597 0.008121778
000120 bf 2f a2 bd 9d e1 0d 3e de 0d fc 3c 6b 88 ca 3d
       -0.07919263 0.13855596 0.030768331 0.09889301
000130 88 29 e8 bc 10 a9 ec bd 48 01 3d 3d b9 ed 94 bd
       -0.028340116 -0.115556836 0.0461438 -0.072719045
000140 d7 16 b0 3c 6c 5c 35 bd a2 08 0b 3e a0 ca a0 3b
       0.021495266 -0.044277593 0.13577512 0.0049069673
000150 08 0f 0c 3e 0f 52 15 3e 05 de e7 3d b3 e4 0a 3d
       0.13677609 0.14582084 0.11321644 0.03390951
000160 ad d9 d7 bc a5 9b 25 bc 9b 33 58 3d f7 59 fc 3d
       -0.026348913 -0.010107909 0.05278359 0.12321847
000170 f7 f6 11 3e a2 74 a5 bd 39 ee 16 be 96 bc 17 be
       0.14254366 -0.080788866 -0.14739312 -0.14818034
000180 b4 b8 92 3d 07 b2 40 bd 6d 99 dd 3d 3e 22 91 bd
       0.071641356 -0.04704478 0.10820279 -0.07086609
000190 12 62 66 3c 23 19 1c bd f0 e9 e5 3c 27 ed 46 bd
       0.014061468 -0.03810991 0.028065652 -0.04856601
0001a0 76 7c 3e 3c 89 71 18 bd ca 1d 0b 3e 0d 16 1d bd
       0.0116263535 -0.03721765 0.13585582 -0.038351107
0001b0 22 01 28 3d 6b 06 bf 3d 32 06 b2 3d 03 5e f5 3d
       0.041016705 0.09327396 0.08692588 0.11980822
0001c0 e0 3a d9 bc af 6d 75 bd 8c cc bc bd f0 f5 1b 3c
       -0.026517332 -0.059919056 -0.09218702 0.009519085
0001d0 9e fd d3 bd 39 59 a2 ba de 59 f1 bc 0f 34 30 bc
       -0.10351108 -0.001238621 -0.029461797 -0.010754599
0001e0 ef 6e dc bd 16 b1 95 bd 9c 75 b0 bd 0b c5 84 bd
       -0.107633464 -0.07309167 -0.08616182 -0.064828955
0001f0 cb d1 0c bd 21 26 ce bb 91 10 a4 3c 58 9d 8c bd
       -0.03437976 -0.0062911664 0.02002743 -0.068659484
000200 c1 a1 ff bc af a7 cd 3d c4 31 95 3d bc c2 92 bd
       -0.03120506 0.10041749 0.07284883 -0.07166049
000210 59 78 3e bd 6f e9 3a 3b 50 82 02 be 6f aa f7 3c
       -0.04650149 0.0028520485 -0.12745023 0.030232636
000220 4d 68 8b 3c 75 9a 09 3d 16 80 18 be ba 5b cc 3c
       0.017017508 0.033594567 -0.14892611 0.024946082
000230 23 b3 57 3d 56 2a b3 bc 0a 80 0e 3e 80 5d c1 3d
       0.052661072 -0.021870773 0.1391603 0.09441662
000240 55 bd 17 be b0 b0 76 3c 8e d9 86 3d ce d6 f9 3d
       -0.14818318 0.015056774 0.06584464 0.12199174
000250 81 eb b5 bb 8a b3 e3 3d 87 4c 7d bd 1c 0c 10 3e
       -0.005551756 0.11118229 -0.06184056 0.1406712
000260 0a f3 06 3e d5 5c f8 bd 9d 06 ad bd d6 1c a3 bd
       0.1317865 -0.12127081 -0.08448527 -0.079644844
000270 64 2e be bd 47 19 01 3e 70 28 0b 3e 04 a0 dd bc
       -0.09286192 0.12607299 0.13589644 -0.02705384
000280 95 02 78 3d a1 39 28 bd 4a f1 05 3e bc ba 3a 3c
       0.060549337 -0.041070584 0.13080326 0.01139706
000290 b9 59 bf bd ac 04 87 bd 96 02 c0 bd d0 48 14 bd
       -0.09343285 -0.06592688 -0.09375493 -0.036202252
0002a0 dc 0b cb 3d e3 53 2d 3c ca d9 8e 3d 4c da 16 3e
       0.09914371 0.010579082 0.06975134 0.14731711
0002b0 e1 71 f7 bc 4e a4 bf bd d4 4b d7 bc 1b 7f b2 3d
       -0.030205669 -0.093575105 -0.026281275 0.0871565
0002c0 c1 26 80 3d ff f3 13 be 3e 7f ca bd 4a 67 bb 3c
       0.06257392 -0.14448546 -0.09887551 0.0228764
0002d0 b9 14 f1 bd 80 22 b9 bd 39 9e 55 bd 2c 4e f2 3c
       -0.11771531 -0.090397835 -0.052152846 0.02957829
0002e0 25 b9 74 3d e4 8c a5 3d 90 4d 52 3d 30 b3 0c 3e
       0.05974688 0.080835134 0.0513435 0.1374023
0002f0 7d 1c 1f be 97 64 7b bc 70 96 c3 3b a3 6c b2 3d
       -0.15538211 -0.015343807 0.0059688613 0.08712127
000300 b9 6e 0c 3e 94 8d a9 bd ea 1e 5d 3d af 83 c6 3d
       0.13714112 -0.08278957 0.05398456 0.096930854
000310 2c a7 72 bd b1 a4 5c 3d c8 2c 86 3d d6 e5 af 3d
       -0.05924146 0.053868 0.0655151 0.085887596
000320 46 92 0f be e2 f7 1f be 90 1d 0b 3e e9 1f 6a 3d
       -0.14020643 -0.15621904 0.13585496 0.05715934
000330 1f 42 03 3e b7 88 c6 bd 20 76 a2 3d e2 e9 f4 3c
       0.12818192 -0.09694045 0.07932687 0.02989668
000340 d1 37 cb bd 1b b8 1d 3e 96 dc 0c 3e 37 b1 0b 3e
       -0.099227555 0.15402262 0.13756022 0.13641821
000350 e0 95 ea bd 96 f9 ea 3d 84 e1 ee bd 89 5b 3c bd
       -0.11454368 0.11473386 -0.116641074 -0.045985732
000360 42 aa f4 3b fb b1 5b bc 64 d4 f6 bc f5 67 bb 3d
       0.0074665854 -0.013409133 -0.030130573 0.091506876
000370 49 a9 e9 bd f9 97 3b 3d 5c 84 e7 bd 81 d8 15 3c
       -0.11409242 0.04579923 -0.113045424 0.009145857
000380 bd a3 ab 3d 90 90 8c 3d 76 ff 79 3d 29 88 f4 3d
       0.0838084 0.068635106 0.061034642 0.11940033
000390 31 d5 09 3e 8f ed e2 bb b8 da 10 bd 1a de 08 be
       0.13460232 -0.006925292 -0.035364836 -0.13365975
0003a0 1d 54 00 be 08 ea cb 3c 86 55 c1 bd 49 b1 3d bd
       -0.12532087 0.024891868 -0.094401404 -0.04631165
0003b0 53 2f 03 3e 25 6e 72 bd 5d 25 b2 3d 25 d8 3b bd
       0.12811022 -0.059187073 0.08698533 -0.04586043
0003c0 96 19 03 3e a6 60 48 bd 51 00 dc 3d 59 d0 da 3d
       0.12802729 -0.048920296 0.10742248 0.106842704
0003d0 68 c1 c7 3b 2c 14 12 be f7 a9 04 be 68 7a 6d ba
       0.006096054 -0.14265507 -0.12955461 -0.00090590725
0003e0 d0 56 a9 3d 37 b5 18 3e ca 62 97 3d 13 57 17 3e
       0.08268511 0.14912878 0.073918894 0.1477931
0003f0 54 ec 20 be 1c cb e1 3b fc 71 e1 3d 1b a1 14 be
       -0.15715152 0.0068906676 0.11008069 -0.14514582

transformer.layers.0.self_attn.in_proj_bias f4 [192]
000000 47 a1 01 3a f2 46 a1 bb 29 43 52 3b 97 53 b4 3b
       0.00049449917 -0.0049217874 0.0032083488 0.0055031287
000010 79 67 e6 bb 83 05 c8 bb 18 cc c7 bb e2 6e 04 ba
       -0.007031378 -0.0061041727 -0.006097328 -0.0005051923
000020 a7 a1 9e ba 87 a3 a6 3b 11 41 08 3b f5 d8 88 3b
       -0.001210262 0.005085412 0.0020790736 0.004176254
000030 4c f1 ae 38 0f 79 9e bb 8a 18 46 3a 5c ec 8f 3b
       8.3419116e-05 -0.0048362087 0.0007556757 0.00439219
000040 96 e8 f8 ba 79 19 aa 3b 28 3e f7 bb 75 44 f6 3a
       -0.0018990214 0.005191025 -0.0075452514 0.0018788712
000050 e1 58 96 bb c4 32 b2 3b d2 f9 cd bb 6a 5d a0 3a
       -0.004588232 0.0054381806 -0.0062858844 0.0012234871
000060 8c 2a 6b ba d1 89 89 3b 1f 1e 7b 3b ea 7f 3f 3a
       -0.00089708786 0.004197337 0.0038317514 0.00073051325
000070 41 71 fb ba 0d be 80 3b 44 e4 a1 bb e9 aa 98 bb
       -0.0019183533 0.003928906 -0.0049405415 -0.004659046
000080 72 e2 8c bb 47 e6 db ba c1 7d 1c bb 32 d3 87 3a
       -0.0042994553 -0.0016777002 -0.0023878666 0.0010362624
000090 58 26 15 bb c3 4c 8c b9 17 70 86 bb fb e6 50 3b
       -0.002275845 -0.00026760073 -0.0041027176 0.0031875956
0000a0 16 e2 2d 3a 50 db b3 bb 3f 50 3f ba 7d be dc 3a
       0.00066331157 -0.0054887906 -0.00072980294 0.0016841438
0000b0 3e c7 ff 39 fe 82 ed b9 83 bf 61 bb 73 18 b1 bb
       0.00048785837 -0.0004530176 -0.0034446425 -0.005404526
0000c0 7a 9c 91 3b 6c cc 30 bb a2 c6 98 3b 85 29 a7 3b
       0.0044437023 -0.0026977314 0.0046623508 0.005101385
0000d0 a1 cb 51 3b 60 29 00 3b 0b a4 9a bb 01 1d 6a 3b
       0.0032012241 0.0019555911 -0.0047192625 0.0035722854
0000e0 5a b9 e8 39 88 22 a1 b9 97 47 1f ba 43 51 c3 ba
       0.00044388586 -0.0003073404 -0.00060760364 -0.0014901537
0000f0 19 61 c1 ba c3 1d 89 ba 9e 19 f8 ba 3c 61 84 3a
       -0.0014753669 -0.001046114 -0.0018928533 0.0010099779
000100 68 69 42 b7 8e c8 a5 35 73 96 fe b7 00 08 77 b6
       -1.1587843e-05 1.2351827e-06 -3.0349218e-05 -3.6810525e-06
000110 cf 08 d5 36 ca b6 aa 38 42 5b 83 37 33 38 81 37
       6.34892e-06 8.140279e-05 1.5658912e-05 1.5404168e-05
000120 2d aa b2 37 d4 31 f6 37 50 02 94 37 3b 1d 57 38
       2.1298498e-05 2.9348688e-05 1.7644052e-05 5.1287218e-05
000130 f1 fe a0 37 df a3 99 b7 44 d1 c2 b7 90 68 9f b7
       1.9192203e-05 -1.831533e-05 -2.3224049e-05 -1.9002968e-05
000140 9d c2 e4 37 43 f6 8c 38 2c 0f 8e 38 aa 22 32 b7
       2.7270342e-05 6.72159e-05 6.7739136e-05 -1.0617698e-05
000150 02 f2 97 36 75 e3 75 37 0e b8 40 37 cd b4 22 b8
       4.528324e-06 1.4656097e-05 1.1486945e-05 -3.8792194e-05
000160 9b 2b e3 38 eb ed 61 b8 36 b9 c6 b7 3b 4b 52 38
       0.00010832326 -5.386576e-05 -2.3689685e-05 5.0137965e-05
000170 cc f8 98 36 25 20 91 b7 69 16 c0 37 e0 3c 30 b3
       4.5589168e-06 -1.7300315e-05 2.289862e-05 -4.103356e-08
000180 2d 6e 72 37 e9 d0 36 b7 ea 0d ad b7 6f 13 a8 37
       1.4449976e-05 -1.0896686e-05 -2.0629686e-05 2.003621e-05
000190 e1 fd a3 b7 62 90 19 37 a5 bb f5 b7 c7 3e ae 37
       -1.9549336e-05 9.153127e-06 -2.9293655e-05 2.077165e-05
0001a0 24 0a 6a 37 01 b4 3a 38 38 22 c2 b5 b3 18 3f 38
       1.3949848e-05 4.4513497e-05 -1.4464085e-06 4.556095e-05
0001b0 e2 02 02 b6 0a 77 06 b8 ea 49 e4 36 c0 2f d1 b6
       -1.9373188e-06 -3.2058953e-05 6.8035342e-06 -6.234244e-06
0001c0 ec a9 e7 36 fe f3 9b b7 48 c5 f1 b6 68 07 29 b8
       6.904118e-06 -1.8591058e-05 -7.2053263e-06 -4.0299637e-05
0001d0 bc ca ba b5 6c 73 84 b7 e3 97 17 b8 54 72 a0 b7
       -1.3917083e-06 -1.5789374e-05 -3.614266e-05 -1.9126725e-05
0001e0 16 c5 27 b7 b6 30 bf 36 67 21 ef 36 44 eb ff 37
       -9.999863e-06 5.6979143e-06 7.1266436e-06 3.0507923e-05
0001f0 42 84 f3 36 0d 13 74 b7 70 60 2c 36 54 54 9c 37
       7.257361e-06 -1.4547969e-05 2.5686131e-06 1.8635918e-05
000200 ae 15 38 3b a9 a6 22 bb 6d d7 ca ba 78 01 ad 3b
       0.0028089094 -0.0024818575 -0.0015475579 0.005279716
000210 30 47 a5 bb a6 d8 90 b9 42 9a d1 bb e8 40 45 bb
       -0.0050438866 -0.00027627236 -0.006396563 -0.0030098502
000220 3b 32 b1 bb ee ee 0f bb 38 fc ac 3b d6 17 37 b9
       -0.0054075993 -0.0021962482 0.0052790903 -0.0001746112
000230 24 17 8f 3b 78 04 a4 bb 9d 17 40 3b a2 4a 82 3a
       0.0043667722 -0.0050054155 0.002931095 0.0009940455
000240 26 45 c2 ba 88 49 66 3b 23 f9 8c bb 09 7b 45 bb
       -0.0014821633 0.0035139043 -0.0043021603 -0.003013315
000250 b1 c0 14 3b 77 4c 23 bb 9e 02 2b bb 26 34 90 3a
       0.002269786 -0.0024917403 -0.002609409 0.001100187
000260 0d a2 c6 bb 52 ca 35 3a 6e fe e8 ba ff 0a 0a bb
       -0.0060617984 0.000693475 -0.0017776021 -0.0021063683
000270 01 c9 f9 ba 77 27 6c bb 17 21 8f 39 c1 d5 58 bb
       -0.0019057096 -0.0036034265 0.0002729974 -0.0033086392
000280 d8 df 67 3a 99 88 33 bb 4b 67 1d 3b 72 5d 3c 3b
       0.0008845306 -0.002739465 0.0024017866 0.0028742221
000290 ae 6e 03 ba b3 3b 91 bb 81 c6 3a bb 45 1b 78 3b
       -0.0005013746 -0.0044321655 -0.0028499665 0.003785805
0002a0 fe 73 75 3b ec c9 c1 39 64 8f d5 bb f8 0b 64 bb
       0.003745317 0.00036962272 -0.0065173376 -0.0034797173
0002b0 a2 06 2c bb 7a ff c8 ba 84 64 29 bb 83 31 c1 bb
       -0.002624907 -0.0015334927 -0.0025847265 -0.005895795
0002c0 ca 73 b5 ba 48 7a 36 ba 9b 49 dc 3b 0e dc 92 bb
       -0.0013843712 -0.00069609703 0.0067226416 -0.004481799
0002d0 10 d8 3e bb d6 11 d1 39 c9 7e 86 bb 87 11 74 3b
       -0.0029120483 0.00039876875 -0.0041044694 0.0037241892
0002e0 ba 0a ce ba 84 e6 dc 3b 22 7e 93 ba d0 5d 66 bb
       -0.001571975 0.006741347 -0.00112528 -0.0035151131
0002f0 7c 41 ea 3a 67 78 d0 3a b4 b0 b9 ba 02 ef d1 ba
       0.0017872299 0.0015905023 -0.0014167042 -0.0016016664

transformer.layers.0.self_attn.out_proj.weight f4 [64, 64]
000000 f5 80 35 bd 87 01 a7 3d 91 3d fa bb 5c 65 d6 bd
       -0.044312436 0.08154588 -0.007636734 -0.104685515
000010 fc 02 0d bd e2 f6 ba ba b3 5c 99 3d 13 0f d9 3c
       -0.034426674 -0.0014264251 0.07488384 0.026496446
000020 91 1a 32 3c cd c5 dd bc 8d 2b bc bd fb cb 8a 3c
       0.010870592 -0.027071858 -0.09187994 0.016942969
000030 a7 ba 49 3d 76 80 8c 3a 0f 4b 27 3c e4 77 03 3e
       0.04925027 0.0010719437 0.010210766 0.12838703
000040 1f 06 88 3d 00 e5 f7 3d bd 8a e8 bd 31 81 bd bd
       0.066417925 0.12104225 -0.11354587 -0.09253157
000050 e8 84 a1 bc af 43 ce bd 31 6a 31 bd d6 dd 32 3d
       -0.019716695 -0.10071503 -0.043314163 0.04366859
000060 14 39 10 bd 7f 22 06 3d 18 96 26 3c 1f 62 f0 bd
       -0.035210684 0.03274774 0.010167621 -0.11737465
000070 78 41 05 3d ad 99 9c bd a1 f5 8e 3b 2d f1 80 bd
       0.03253314 -0.07646499 0.0043627773 -0.06296001
000080 6a ca 72 bc 06 8a 00 3e 9b 53 ce bd cd ed d4 3d
       -0.014818767 0.12552652 -0.1007454 0.103969194
000090 b9 e2 d3 3c b2 36 06 3d a3 8b 6d bd 73 b2 11 bd
       0.025864946 0.032767005 -0.057994496 -0.035570573
0000a0 07 3b b4 bd 91 07 be bb ac cc 9f bc 08 af 6b bd
       -0.08800321 -0.005799242 -0.019506775 -0.05753997
0000b0 e8 0c a9 3d 6d 3b b3 bc bb f1 c7 3d c5 ae 8e bd
       0.08254415 -0.021878922 0.09762903 -0.069669284
0000c0 f4 2a 6b 3d 04 00 80 3d 3d 32 02 3e 9f 80 d1 bd
       0.05741401 0.06250003 0.12714477 -0.10229611
0000d0 7d 2e 89 3c 4d 3d 0d bb 36 0f c9 bc 2a f8 cc ba
       0.0167458 -0.002155143 -0.024543386 -0.0015637923
0000e0 90 c3 b3 ba af 41 14 3d 82 d8 36 bd 57 1f c0 bc
       -0.0013714898 0.036195453 -0.04464007 -0.023452444
0000f0 b7 a6 e7 3d ca 86 ec 3c 54 55 b0 ba cb 0a 45 bd
       0.11311095 0.028872866 -0.0013453164 -0.048105996
000100 20 7c ee bd cb 42 9a 3c 74 ea be 3b 0b ea ff bb
       -0.11644769 0.018830677 0.005826289 -0.0078098825
000110 46 63 4c 3d 3b 6c 07 bc 37 f0 dc bd 88 63 87 bd
       0.049899362 -0.00826555 -0.10788005 -0.06610781
000120 d8 7d a6 bc 08 ad b1 bd 7b d7 d0 bd 52 9c c1 bd
       -0.020323679 -0.08675581 -0.1019735 -0.09453644
000130 a9 fe 9e 3c 3a 5d df bd 87 1b 36 bd 52 8e 23 bd
       0.01940854 -0.109064534 -0.044459846 -0.03993065
000140 98 82 34 3d 4c 46 8f bd cc 05 a8 3c 80 41 70 3c
       0.044069856 -0.0699583 0.020510577 0.014664054
000150 27 d6 ab bd b7 e5 fc bc 6b 74 45 3c 4e 83 9c 3d
       -0.08390456 -0.030871255 0.012051682 0.07642232
000160 66 25 29 3d 03 01 8f bd 47 fa e8 3c b1 78 52 3d
       0.04129543 -0.06982615 0.028439654 0.05138463
000170 5a 06 87 3d 8e 03 61 bd 5f a8 ea 3d 7b dc b5 3c
       0.06593008 -0.05493503 0.114578955 0.02219986
000180 23 af 34 3d 50 8f e9 bd ca 4e bf 3d 72 01 c2 3d
       0.044112336 -0.11404288 0.093412 0.09472932
000190 3a f3 de bd cc 4b a9 bd b1 cf 5a bd 8d 5d bf 3c
       -0.108862355 -0.0826641 -0.053420726 0.023360038
0001a0 e8 f7 d2 3d 77 7a 84 bd 5c 00 c7 3d 1d 74 8f bd
       0.103011906 -0.06468671 0.097168654 -0.07004569
0001b0 7e 49 ad bd b3 c2 dd bd a8 80 db bb 6f 40 32 bd
       -0.08461283 -0.108281516 -0.0066986866 -0.04351848
0001c0 a9 5c db 3d f2 30 fe bd 40 4a d2 3c a5 96 52 3d
       0.10711033 -0.12411679 0.02567017 0.051413197
0001d0 d7 29 58 3d b8 fe 64 3d 18 45 8d 3d 8d 24 f6 3d
       0.052774277 0.05590698 0.06897944 0.1201869
0001e0 34 d4 77 3d f7 f1 50 3c 4e 8e ff 3d 55 5a 42 bd
       0.060505107 0.012753001 0.12478314 -0.04744943
0001f0 30 d2 b3 bd 18 9d ea 3a 9e 19 03 bd 6c ff d4 bd
       -0.087803245 0.0017899601 -0.032006852 -0.1040028
000200 23 fa cb bc 39 c1 88 3d 0a 60 68 3d 24 82 be 3d
       -0.024899548 0.06677479 0.056732215 0.09302166
000210 ac 13 c8 3d 3a 0a fd 3d f1 b0 6a bd ed f3 84 bd
       0.09769377 0.12355466 -0.05729765 -0.06491838
000220 5c 31 4b 3d 62 c9 e5 bd 83 54 eb 3d eb 4b d4 bd
       0.04960762 -0.11220051 0.11490729 -0.10366043
000230 6f 70 8c 3d 60 23 db 3d 7f e0 13 3d e7 73 ea 3d
       0.068573825 0.107001066 0.036102768 0.11447888
000240 01 1b 80 bc 49 7e fa bd a4 12 2d 3d 15 ee 5d bc
       -0.015637876 -0.12231118 0.042254105 -0.013545533
000250 43 09 f5 3d 74 1c 8e 3d 0a df 4d bc 09 77 f9 3d
       0.11964657 0.06939021 -0.012565384 0.12180907
000260 79 eb e9 3d 57 28 96 bd 10 8c a1 3d ce c7 c4 bd
       0.11421866 -0.07331913 0.07888043 -0.09608422
000270 91 4e bb 3d 1a df a7 3d 4e ef 41 3d 31 6e 40 bc
       0.09145845 0.0819685 0.04734736 -0.011745022
000280 2b c1 f6 bd 9f 4a 25 3d 6f 67 19 bd 15 74 b2 3d
       -0.120485626 0.040354367 -0.037452158 0.08713547
000290 6a 5c 81 3b c5 f8 2a bd 1b cf f8 3c 07 d1 a7 bd
       0.003947784 -0.04174115 0.030372193 -0.08194166
0002a0 b1 fa 83 bc 5b 4f 95 bc bb c0 39 bd fd b1 44 3c
       -0.01611075 -0.018226316 -0.045349818 0.012005326
0002b0 9f cc a5 3d aa f2 41 bd e6 8d 65 3d 34 89 97 bd
       0.08095669 -0.047350563 0.056043528 -0.07399216
0002c0 02 16 31 3d b1 e8 aa 3d 77 e5 59 bc ec 72 1c 3d
       0.04323388 0.083451636 -0.013299338 0.038195536
0002d0 2c aa ef bc ff 45 52 bd 60 e6 b3 3d ae 1c c9 3d
       -0.029255949 -0.051336285 0.08784175 0.09819923
0002e0 11 85 12 3d 30 69 cc 3d c0 d6 7a bd 14 aa 71 3c
       0.035771433 0.099810004 -0.061239958 0.014750022
0002f0 56 4e 88 bd 4f 9f f4 3d 58 bb 00 bc c7 6a 4f 3d
       -0.066555664 0.11944448 -0.007857166 0.05063894
000300 b9 0b 51 bd 97 56 a2 3d 8a d4 03 bd 9c 01 2f 3d
       -0.05103657 0.07926672 -0.032185115 0.042726144
000310 87 b9 6a bc 0e f4 47 3d fe 34 c7 bd 94 47 68 bc
       -0.01432646 0.048816733 -0.09726904 -0.014177222
000320 58 08 b8 3d e6 92 a5 3d 02 cf 33 bd 4d 62 b5 3b
       0.089859664 0.08084659 -0.04389859 0.0055354
000330 e1 1f 7a 3d 7c 64 09 3c 0f 61 03 bc ae 96 2d 3c
       0.06106556 0.008385774 -0.008018746 0.010595007
000340 f2 9a 0b 3d 2d 1c 6d 3c aa 42 c6 3d 05 7b 1c 3d
       0.034083314 0.01447205 0.09680684 0.038203258
000350 8b 3e cc bd 4d c8 c8 3d d9 80 c7 3c 40 96 97 bd
       -0.099728666 0.09803829 0.024353432 -0.07401705
000360 f9 10 ca bd 41 03 a5 3d 5a 4d af bd fa b1 14 bd
       -0.098665185 0.08057261 -0.085596755 -0.036302544
000370 1b ec 97 3d c1 3c 84 3d a6 f4 c7 bd 24 1d a8 bd
       0.074180804 0.064569004 -0.0976346 -0.08208683
000380 b7 ea 82 bd d2 17 53 bd 98 22 e3 bc 26 b8 c3 bd
       -0.063924246 -0.05153639 -0.027726457 -0.09556608
000390 f9 64 d3 3c 95 6e 3a 3b ce 6d b3 3d a9 fb 79 3d
       0.025804983 0.002844726 0.08761178 0.061031017
0003a0 56 06 84 3c f0 e8 85 3c b0 7d b9 bd 0f 16 cf bd
       0.016116302 0.016346425 -0.09057176 -0.10111629
0003b0 58 5c 81 3d 29 1c d0 3d be 1a 72 bc aa 48 8d bd
       0.06316441 0.10161621 -0.014776884 -0.06898625
0003c0 61 89 6b bd 17 3e dd 3d da 71 42 bd bb 26 d1 3d
       -0.05750406 0.10802858 -0.04747186 0.102124654
0003d0 10 21 95 bd 80 59 8e bd 16 31 87 bc 67 2c 9b bd
       -0.07281697 -0.069506645 -0.016502898 -0.075768284
0003e0 90 94 e0 bd 74 ef d8 3d 48 b7 96 3d 3b fc 8c bd
       -0.10965836 0.10592547 0.07359177 -0.06884047
0003f0 12 38 ff bc 1e 45 cb bc bd 1f a9 3c 78 73 93 bd
       -0.031154666 -0.024813231 0.020645017 -0.07199758

transformer.layers.0.self_attn.out_proj.bias f4 [64]
000000 5b d4 c6 3b a7 be b6 3b 1b f8 92 3b ba c8 98 3b
       0.006067795 0.0055769267 0.004485143 0.0046626003
000010 2d 59 e9 ba e7 a1 8d bb 46 d8 71 ba 8a 3e be bb
       -0.0017803066 -0.004322279 -0.00092256477 -0.005805795
000020 f9 a1 6a 3b bd 30 9b 3a d6 34 c3 3b 78 24 6d 38
       0.003580211 0.0011840087 0.0059572263 5.6539167e-05
000030 f4 df 08 3b 72 80 93 b9 e4 9e a5 ba 0c c1 b8 b8
       0.002088544 -0.00028133724 -0.0012635854 -8.8097615e-05
000040 17 28 5c 3a fa 80 7e 39 5e 2d 0a bb ca 52 0a 3b
       0.0008398308 0.00024271375 -0.002108417 0.0021106475
000050 c2 c8 14 3b 55 50 b6 bb d4 79 b7 b6 5b 56 55 3b
       0.0022702669 -0.0055637755 -5.4680077e-06 0.0032552693
000060 c1 c5 08 ba 0e 89 2c bb 3b 15 82 3b 86 8c 96 bb
       -0.0005217456 -0.0026326808 0.003969816 -0.0045943884
000070 ed 04 97 3b b2 67 3d ba 10 e5 3e bb c5 20 9d bb
       0.0046087415 -0.00072252296 -0.002912823 -0.004795166
000080 d5 9b 83 bb 94 21 09 3b d0 a6 43 bb c6 30 70 ba
       -0.0040163794 0.0020924555 -0.0029854067 -0.0009162541
000090 0c 00 a3 b9 20 ed 9a ba 16 52 b4 3b 20 47 15 bb
       -0.00031089818 -0.0011819936 0.0055029495 -0.002277799
0000a0 e9 07 87 bb a3 27 8e ba 91 92 80 bb 91 53 cb 3b
       -0.004120816 -0.0010845553 -0.003923722 0.0062050303
0000b0 c5 e0 50 bb b3 0e 55 bb 59 31 08 bb 5b 89 55 bb
       -0.0031872254 -0.0032509982 -0.0020781367 -0.003258309
0000c0 46 ae c0 bb ac 0f f0 3a 9d 08 a4 3b fb b5 76 3b
       -0.00588015 0.0018315217 0.0050059096 0.003764509
0000d0 f1 50 fc bb 04 16 e2 3b 8e 56 59 3a c8 8a 0d 3b
       -0.0077000787 0.006899597 0.0008290791 0.0021597613
0000e0 3b 16 a9 3a 81 d0 c5 b9 90 c9 8e 3a 60 fb ca ba
       0.0012900302 -0.00037730116 0.001089381 -0.0015486293
0000f0 c4 07 21 ba d5 66 d5 3b 28 07 ab ba ae c5 31 3a
       -0.000614282 0.0065125027 -0.0013048397 0.0006781471

transformer.layers.0.linear1.weight f4 [256, 64]
000000 de 0f 08 bc 32 5e 84 bd ca 6d eb 3d 3a d0 9d 3d
       -0.008304564 -0.06463279 0.1149555 0.07705732
000010 11 09 fe 3d f6 4f f2 3d db 55 81 3d 21 9c c5 bd
       0.12404073 0.118316576 0.06315204 -0.0964892
000020 c5 72 54 bd cc a0 e7 bd 90 2c 00 3e 6a 03 9a bd
       -0.051867265 -0.113099664 0.12516999 -0.075201824
000030 5c 29 a0 3c e4 37 1f bb 78 d8 e8 3d 0d 6d 80 3d
       0.019550972 -0.0024294788 0.11369413 0.062708
000040 4e 48 72 bd bc 6a 6d bc 10 d5 cf bd b2 97 b8 3d
       -0.059150986 -0.0144907795 -0.1014806 0.090133086
000050 25 ed 31 bc 9d 28 c9 3d 54 7c 3a 3d 00 12 b4 3d
       -0.010859762 0.098221995 0.045528725 0.08792496
000060 f5 70 75 3d 9d 8f a3 bb 2a f7 32 bd 09 15 76 3d
       0.059922177 -0.0049914853 -0.043692745 0.060078654
000070 bf 4d ee 3c 6f 7b e1 bd 5b c0 d5 bd 9e 7b 75 bd
       0.029089807 -0.11009871 -0.104370795 -0.059932344
000080 c6 40 91 bc ef 96 66 bc f6 30 80 3d a8 0b 4a 3d
       -0.017731082 -0.014074071 0.062593386 0.049327523
000090 09 35 d2 3c b1 6d 63 bd 1e fc ca 3d 64 87 8d bd
       0.025660055 -0.05552453 0.09911369 -0.06910589
0000a0 93 9e 50 bd 6e ac 32 3d 48 e6 85 bd a6 14 b8 ba
       -0.05093248 0.043621473 -0.06538063 -0.001404424
0000b0 39 ad 8d 3d 8e b0 dd 3c 1c ba 08 bd 49 2b cc bd
       0.06917805 0.027061727 -0.033380613 -0.099691935
0000c0 d7 7b 8f 3d 3e 5d a6 bd cc c7 f8 bd 56 e7 6d bc
       0.070060425 -0.08123253 -0.12147483 -0.014520487
0000d0 e1 3b 87 bd c4 04 1b 3c 76 7f 77 3c c3 32 b8 3d
       -0.06603218 0.009461585 0.015106073 0.08994057
0000e0 4b 91 c1 bd 78 86 46 bd 4c 5b ee 3d 10 e1 d7 bd
       -0.094515406 -0.048468083 0.11638507 -0.10540974
0000f0 9d 60 6c bb 9e 11 0c bd 49 e2 e8 3d 04 3a e3 bd
       -0.0036068328 -0.03419649 0.113712855 -0.1109505
000100 03 bc ad bd f2 2a ac bc ef dd 36 bd a2 c5 6d bd
       -0.08483126 -0.021016572 -0.044645246 -0.058049805
000110 fe 2a 98 3d dd af 22 bd c6 65 c5 3d 17 71 fd bd
       0.07430075 -0.039718498 0.09638552 -0.12375086
000120 b0 fd dd bd 86 4c 36 3c 3f 4b 27 3d 65 cf eb bd
       -0.10839403 0.011126643 0.040843245 -0.11514167
000130 03 28 91 bd 5d 00 4a 3c 29 8e a5 3c 03 6a 5a bd
       -0.0708771 0.012329188 0.020209389 -0.053323757
000140 87 c0 e8 bd df b8 0a bd f6 b1 96 bd c9 30 a5 bd
       -0.11364847 -0.033867713 -0.07358162 -0.08065946
000150 74 58 98 bd 15 03 c5 bd 07 ee 20 bc 80 ae 16 bd
       -0.07438746 -0.096197285 -0.009822375 -0.03678751
000160 d7 ca 9d 3c ef 4f f2 3d 5f 11 bd 3c 37 d8 3a bc
       0.01926176 0.118316524 0.023079572 -0.011404089
000170 d3 7c e4 3d 3c ae d1 bd d0 b1 f7 bb cc 91 f8 bb
       0.11156621 -0.10238311 -0.0075590387 -0.0075857397
000180 fb 99 e7 3d 44 e0 1c 3d 45 63 e2 bd 21 cf a2 bd
       0.11308666 0.038299814 -0.110540904 -0.07949663
000190 a7 5f b3 bc 1d 70 dc bd a1 6b 90 3d 8d 84 7a 3d
       -0.021896197 -0.107635714 0.070517786 0.061161567
0001a0 cc da 00 bd 27 d2 24 3c ba d1 79 bd ad a4 05 bd
       -0.03145866 0.01005987 -0.060991026 -0.03262775
0001b0 58 c3 fa 3d da 8c 00 3d c8 7a 8c 3d b3 b2 99 bd
       0.1224429 0.031384327 0.06859356 -0.07504787
0001c0 b8 f2 6d bd 65 3a 36 bc 49 10 88 3d 86 8c 1e bd
       -0.058092803 -0.011122321 0.06643731 -0.038708232
0001d0 6b 1b 99 bc a8 a4 f5 3d 53 96 f9 bd 72 bb a4 3d
       -0.018689832 0.11994296 -0.12186875 0.08043565
0001e0 ea 01 9a bd d8 11 9c 3d 88 58 d4 3b ac 1b f1 bc
       -0.07519896 0.07620591 0.0064802803 -0.02943214
0001f0 cc 29 78 3d 5b 4e 41 3d d4 b3 d9 bd 6c b7 38 3d
       0.060586736 0.047193866 -0.106300026 0.0450968
000200 97 9b d4 3c 59 08 46 bd 86 8e b5 bd 1a 79 13 3d
       0.025953097 -0.048347805 -0.08865075 0.036004163
000210 4b e5 6e bd 7d 31 ba 3d 00 7f d1 bc 20 35 a3 3d
       -0.05832414 0.090914704 -0.025573254 0.07969117
000220 ae 04 fd 3d ac fe 9d bd c3 4e e5 3d a5 6a bd 3d
       0.12354408 -0.077145904 0.11196663 0.092488565
000230 2a ce c5 bd bc d8 ee 3d 96 63 70 3d 3c 13 d3 bd
       -0.09658463 0.116624326 0.058688723 -0.10306403
000240 af 05 dd 3d cf 99 94 3d 0f e1 f9 3c e4 27 32 3d
       0.107921 0.07255899 0.030502824 0.043495074
000250 6f ed 55 bd 50 47 eb bd 17 54 22 3d 68 6f 6a 3d
       -0.052228387 -0.11488211 0.039630976 0.05723515
000260 b8 b6 ff 3d 9b 6f e3 bd 3b 25 c8 3d db 55 0e bd
       0.12486023 -0.111052714 0.09772726 -0.034749847
000270 d4 1f 91 3d 61 32 2f bd 98 c2 c0 3c 3a 09 98 bd
       0.07086149 -0.042772654 0.02353029 -0.07423635
000280 07 92 35 3d 92 95 dd 3a 19 85 b2 bd c4 e1 0d bd
       0.044328716 0.0016905537 -0.087167926 -0.034639135
000290 f1 45 24 3c 1d 4b 2e 3d 1f 5e f3 bc 63 de c5 bd
       0.010026441 0.042552102 -0.029707966 -0.096615575
0002a0 c5 1d ea 3d f6 97 60 3d 70 b0 c0 bd a2 c9 a5 3d
       0.11431459 0.05483242 -0.09408653 0.08095099
0002b0 c4 14 c8 bd ce d9 03 be c8 99 4b b9 b5 9f 8d 3c
       -0.09769586 -0.12876055 -0.00019416877 0.017288068
0002c0 ae 0c 17 bd 5c 70 2b 3d 58 e4 cd bd 9b 60 96 3d
       -0.036877327 0.0418552 -0.10053319 0.07342645
0002d0 bf fd 04 3e 2c 7e aa bd 2e 91 6d bd d0 50 09 3d
       0.12987421 -0.083248466 -0.057999782 0.033524334
0002e0 d0 38 c6 3d af 64 97 3d d9 b6 ac ba f8 08 b6 bd
       0.09678805 0.07392251 -0.0013177051 -0.088884294
0002f0 06 de 7b 3c 3a 14 6b 3d 74 0a ac 3d 81 9e bf bc
       0.015372759 0.057392336 0.08400431 -0.02339101
000300 9e 6a ec bd 68 e9 bc 3d 9f ff f3 bd 83 1f f8 bd
       -0.11543773 0.09224206 -0.1191399 -0.121153854
000310 92 f2 85 bd 26 64 34 3d 1c 3c b0 3d d0 58 a8 bb
       -0.06540407 0.04404082 0.08605215 -0.0051375404
000320 79 5f 62 3c d7 da e2 3d 45 fc bc bd de a2 9f 3b
       0.013816708 0.11076897 -0.09227804 0.00487171
000330 23 f1 6b 3d 8e d8 61 3d dc 92 d4 3c 7b b1 2e 3d
       0.057603013 0.055138163 0.025948934 0.042649727
000340 f3 4e b0 bd 7c f7 b4 3d 25 5c 52 bd 56 1d 83 3d
       -0.08608808 0.088362664 -0.051357407 0.0640208
000350 b7 2e f0 39 b9 dc a5 bd 29 9a d7 3c b7 3d 51 3c
       0.00045811172 -0.0809874 0.026318626 0.012771062
000360 c8 d8 57 3c 49 a9 98 bd 23 23 de bd 07 2d e2 3d
       0.013174243 -0.074541636 -0.108465455 0.110437445
000370 b0 57 ae 3d aa 7d c0 3d 0d 3c af bd 39 4c 05 bc
       0.08512819 0.093989685 -0.08556376 -0.008135849
000380 33 1e c3 3c d8 44 7b 3d 31 93 94 bb ef 54 2a bd
       0.023818111 0.06134495 -0.004534148 -0.041584905
000390 34 a4 71 bd 1a 18 8d 3d 0c db c8 3b cd 31 01 3c
       -0.058994487 0.06889363 0.006129628 0.007885409
0003a0 21 47 09 3b f8 c3 f5 bc da 48 91 3d b2 43 c1 3d
       0.0020946937 -0.030000672 0.070939735 0.0943674
0003b0 55 a1 a4 bd 4b e2 db 3d 68 4c e7 3d 89 58 7c bd
       -0.08038584 0.10736521 0.1129387 -0.06160787
0003c0 c3 4d 21 3d fe 46 88 3c 61 33 8c 3d b8 d2 e7 3d
       0.0393808 0.016635414 0.06845737 0.11319488
0003d0 8a 2f d6 bd 9a 84 31 bd 2c 23 94 3d 5e 1a fe bc
       -0.10458286 -0.04333935 0.07233271 -0.031018432
0003e0 38 81 be 3d 69 49 ff 3c 5b 6a b4 bc 30 61 1a 3d
       0.0930199 0.031162934 -0.02202337 0.03769034
0003f0 33 c2 29 bd 1b de b9 bd 5d 57 14 bd d3 a5 43 3d
       -0.04144497 -0.090755664 -0.03621613 0.047765564

transformer.layers.0.linear1.bias f4 [256]
000000 8a a9 94 3d eb 10 5c 3d 15 71 b3 bb 10 55 a2 3c
       0.072588995 0.05372707 -0.005476127 0.019815952
000010 06 ef e7 3d 42 df 81 bc 10 e3 ac bc 92 45 14 bd
       0.11324887 -0.015853528 -0.021104366 -0.03619916
000020 26 10 18 bc 74 aa 49 3d 0c 34 02 3e a7 d9 df bd
       -0.009281194 0.049234822 0.12715167 -0.10930186
000030 36 d4 c4 3b c9 15 a9 bd aa a0 82 bd 35 50 54 3d
       0.006006743 -0.08256108 -0.063783005 0.051834304
000040 12 50 be 3d 29 48 86 bd 84 45 f4 bb 1f c9 68 3c
       0.09292616 -0.06556732 -0.007454576 0.014208107
000050 dd 44 39 bd 83 29 d9 3d 4c e2 5c 3b fa f5 74 3d
       -0.04523169 0.10603621 0.003370422 0.059804894
000060 bf f8 b5 bd 3a ef d0 3d 5d 39 fd bd 8f 74 a4 3d
       -0.08885335 0.10201879 -0.12364457 0.08030044
000070 a4 20 e3 3d bb 5d 31 bd 38 c5 9b 3d 73 ab 9e bc
       0.1109021 -0.04330228 0.07605976 -0.019368863
000080 51 58 26 bd 9f 9f e2 3d 09 9f c4 3d da b4 98 bd
       -0.04061157 0.110656016 0.09600646 -0.0745637
000090 94 f4 5b bd b3 a8 90 bd d6 ea 9f bd d8 8d e9 3d
       -0.053700045 -0.07063427 -0.07808463 0.11404008
0000a0 c1 ca 91 bd 45 5e cc 3d 5b f7 6b 3b 60 4e 84 3d
       -0.0711875 0.09978918 0.003600559 0.06460261
0000b0 be 62 ab 3d c3 ff 91 bd 4a 03 6e bc 11 9b ba bd
       0.08368443 -0.07128861 -0.014527151 -0.09111608
0000c0 55 4a bd bd a0 a8 92 3d fe 9f 3d 3d 4b e0 37 3d
       -0.09242693 0.07161069 0.04629516 0.044891637
0000d0 06 c4 c2 3d 19 7c d4 bd 04 14 a7 bc a2 b0 01 3e
       0.09510045 -0.10375232 -0.020395286 0.12665036
0000e0 7e c0 60 bc ec 08 ec bc a8 30 95 3c 3d 70 d6 3d
       -0.013717769 -0.028812848 0.018211678 0.104706265
0000f0 b1 44 c9 3c 83 cf 83 3d 7e 84 8e 3d c8 a6 23 3d
       0.024568887 0.06436064 0.06958865 0.039953977
000100 30 98 1d 3d 25 ae c6 3d 8a f4 ae 3d d2 a4 bd 3d
       0.038475215 0.09701184 0.08542736 0.092599526
000110 3f 7d ac 3d d1 35 a6 bc b1 51 f7 3d f5 19 12 3d
       0.08422326 -0.020289334 0.12076128 0.035669286
000120 37 11 1d 3d 58 f4 6a bd 64 a3 71 3d d0 c2 56 bd
       0.038346495 -0.05736193 0.058993712 -0.05243188
000130 dc 81 ac 3d 7a 58 07 3d 67 cb d1 bd d7 52 95 3c
       0.08423206 0.033043362 -0.10243874 0.018227978
000140 40 06 cf 3b 50 9d dd bd 71 57 c1 3d 73 c1 d8 3d
       0.0063178837 -0.108210206 0.09440506 0.105837725
000150 9a e8 b3 3d 02 f0 c8 3d 4f e4 d6 bd da 0e a1 bd
       0.087845996 0.09811403 -0.10492765 -0.07864161
000160 eb 71 e8 3d d2 20 b3 bd fc 84 69 3d 89 99 ff 3c
       0.11349853 -0.08746494 0.05701159 0.031201141
000170 36 ec e1 39 b4 93 a4 3a ff 2d d9 bd ff 87 5c bd
       0.00043091335 0.0012556226 -0.10604476 -0.053840633
000180 3d 17 f2 3c da b8 ff 3c 99 1c fd 3c 44 83 82 bc
       0.029552097 0.031216074 0.030897425 -0.015931733
000190 d1 dd e3 3d 1d 5d ad 3d 47 9c af 3d d2 ea e6 3d
       0.111262925 0.084650256 0.085747294 0.11275257
0001a0 f8 06 a4 3d 25 54 59 bd a0 d5 db bd 77 83 5a bd
       0.08009142 -0.053058762 -0.10734105 -0.05334803
0001b0 37 b1 ff bc 17 27 76 3d a6 58 cd bd 4a e0 d2 bd
       -0.031212432 0.060095873 -0.10026674 -0.10296686
0001c0 73 b3 ee 3d 2a 74 04 3d 47 1b d1 3d fd 7e bf 3d
       0.11655321 0.032337345 0.10210281 0.09350393
0001d0 43 6d 02 bd e3 0d d0 bd a0 b0 c9 bd e2 9c b8 3c
       -0.03184248 -0.10158899 -0.09848142 0.022535745
0001e0 28 92 0c bd 42 8a 62 bd 6f 9e c1 bd 2a 59 8c 3b
       -0.034319073 -0.055307634 -0.09454047 0.00428309
0001f0 0f bd 84 3d c0 bd d2 3d 4f c2 0b 3d 81 ec e2 bc
       0.064813726 0.10290098 0.034120854 -0.027700664
000200 b7 c4 d9 bd f0 3a 9d bd f2 e3 95 bd 01 ee 84 3d
       -0.106332235 -0.07677257 -0.07318868 0.06490708
000210 27 95 9c 3d c8 8d e8 3c 04 90 f4 3d c2 45 26 bd
       0.07645636 0.028387919 0.11941531 -0.04059387
000220 c0 f4 00 be 38 fd 15 3d 7d 7b dd 3c 02 e5 a6 bd
       -0.12593365 0.03661844 0.027036423 -0.081491485
000230 9f 09 f5 3d 3a 1b f4 3c 87 e6 dc bd 9b 86 ca 3c
       0.11964726 0.029798139 -0.10786157 0.024722388
000240 5e 79 84 3d 08 11 b3 bd 58 42 f4 bd 74 41 9f 3d
       0.064684615 -0.08743483 -0.119267166 0.07776156
000250 37 02 09 bc 5f b8 08 3d 2a d0 2c 3d 40 f0 24 3d
       -0.0083623445 0.033378955 0.04219071 0.040268183
000260 52 d6 82 3d a7 83 99 3d cb ec bf 3d e1 7c 5e bd
       0.063885346 0.07495814 0.093713365 -0.054318313
000270 bc 81 eb bd d6 33 e2 bd d1 b1 64 bd e6 81 92 bd
       -0.11499354 -0.11045043 -0.05583364 -0.071536824
000280 aa 26 0b bd 2a 2f d6 3d a3 8e 8a 3d 20 80 df bd
       -0.03397242 0.104582146 0.06765487 -0.1091311
000290 a6 00 c0 bd 72 bf 04 3d 0a 35 a6 bd 2e a9 9f 3c
       -0.09375124 0.03240914 -0.08115585 0.01948985
0002a0 7e 34 85 3d e4 8d 89 3d 36 ed ec bd 95 85 88 3d
       0.06504153 0.067165166 -0.11568682 0.06666104
0002b0 58 7b fe bd 3a 38 aa 3c 00 9f 6a 3d 38 b8 48 3d
       -0.1242587 0.020778764 0.05728054 0.04900381
0002c0 6f ce ad 3c 55 70 ce 3d cc 16 2f bd 89 76 1a bc
       0.0212166 0.100800194 -0.04274635 -0.009427675
0002d0 44 ba 41 bc bb c6 0c 3d 43 1c df 3c 02 90 c4 bd
       -0.011824194 0.03436921 0.027235156 -0.0959778
0002e0 c3 c6 d5 3c 81 ab 9e bc 83 b9 61 3d da 57 95 3b
       0.026095754 -0.019368889 0.05510856 0.004557592
0002f0 40 73 8c bd da b4 67 3d b1 fb a9 3c 63 ba dd 3b
       -0.0685792 0.056568958 0.020749899 0.006766604
000300 ac e1 8b 3d a4 f4 d7 38 12 0d b2 bc 2e 50 82 bd
       0.06830153 0.00010297567 -0.021734748 -0.06362949
000310 b4 d6 c6 bd 9d 1d 1b bd a5 79 f2 bc cb 44 31 bd
       -0.0970892 -0.03787004 -0.02959902 -0.043278497
000320 06 be 78 bd cc f5 a4 bd 68 86 9b bd c6 a3 3d 3c
       -0.060728095 -0.080546945 -0.07593995 0.011574691
000330 6c cf bd 3d 74 87 bf 3d 23 ec 78 bc a5 9a c2 bd
       0.09268078 0.093520075 -0.015193018 -0.09502152
000340 9d 96 24 bd 0c ce a7 bc 0b 3a e5 3d e3 8c 76 bd
       -0.0401827 -0.020483993 0.111927114 -0.060192954
000350 79 84 92 bb 36 cb 9c 3d f1 27 79 3c 78 8e 88 3d
       -0.0044713584 0.07655947 0.015207277 0.06667799
000360 28 a4 f6 bd 48 48 d5 3d b3 4e f1 3d 67 d5 1e bc
       -0.12043029 0.10414177 0.11782589 -0.009694434
000370 32 04 5a bd 7e 61 5a bd 3b 38 da 3c 5d 9a e5 bd
       -0.053226657 -0.053315632 0.02663814 -0.11211083
000380 ab 7d 48 3d 55 c3 b2 bd 9a 6d 83 39 13 ae 7f bd
       0.04894797 -0.08728663 0.00025067927 -0.06242187
000390 83 1c ab bc e4 1a b1 3d c9 76 e3 bd c8 78 aa 3d
       -0.020887619 0.08647707 -0.11106641 0.083238184
0003a0 32 9a d2 3d 78 33 14 bd 10 c4 c3 3d 6b 1f f5 3c
       0.10283317 -0.036181897 0.0955888 0.029922208
0003b0 f6 9a f2 bd 68 78 c7 3c 94 95 c5 bc a0 72 29 bc
       -0.11845963 0.024349406 -0.024119176 -0.01034227
0003c0 15 cd da 3d b8 9e ac bd b2 05 fc 3d 19 60 59 3d
       0.106836475 -0.08428711 0.12305774 0.05307016
0003d0 8c 6d d6 3d 92 35 e8 3d f1 d0 67 3d e5 a6 eb bd
       0.10470113 0.11338343 0.056595746 -0.11506442
0003e0 2c 2d 81 3d 53 33 b1 3c 88 2f 73 bd 99 e8 c7 3c
       0.06307444 0.021630919 -0.0593715 0.024402903
0003f0 10 fc cb 3d 50 78 da bc 72 f0 e3 bd ee fd 52 bd
       0.099601865 -0.026668698 -0.11129846 -0.051511697
