models/sasrec_best.pt (torch, 436055 bytes, 28 tensors)

item_embedding.weight f4 [21, 64]
0	0x00000000	0.0
1	0x00000000	0.0
2	0x00000000	0.0
3	0x00000000	0.0
4	0x00000000	0.0
5	0x00000000	0.0
6	0x00000000	0.0
7	0x00000000	0.0
8	0x00000000	0.0
9	0x00000000	0.0
10	0x00000000	0.0
11	0x00000000	0.0
12	0x00000000	0.0
13	0x00000000	0.0
14	0x00000000	0.0
15	0x00000000	0.0
16	0x00000000	0.0
17	0x00000000	0.0
18	0x00000000	0.0
19	0x00000000	0.0
20	0x00000000	0.0
21	0x00000000	0.0
22	0x00000000	0.0
23	0x00000000	0.0
24	0x00000000	0.0
25	0x00000000	0.0
26	0x00000000	0.0
27	0x00000000	0.0
28	0x00000000	0.0
29	0x00000000	0.0
30	0x00000000	0.0
31	0x00000000	0.0
32	0x00000000	0.0
33	0x00000000	0.0
34	0x00000000	0.0
35	0x00000000	0.0
36	0x00000000	0.0
37	0x00000000	0.0
38	0x00000000	0.0
39	0x00000000	0.0
40	0x00000000	0.0
41	0x00000000	0.0
42	0x00000000	0.0
43	0x00000000	0.0
44	0x00000000	0.0
45	0x00000000	0.0
46	0x00000000	0.0
47	0x00000000	0.0
48	0x00000000	0.0
49	0x00000000	0.0
50	0x00000000	0.0
51	0x00000000	0.0
52	0x00000000	0.0
53	0x00000000	0.0
54	0x00000000	0.0
55	0x00000000	0.0
56	0x00000000	0.0
57	0x00000000	0.0
58	0x00000000	0.0
59	0x00000000	0.0
60	0x00000000	0.0
61	0x00000000	0.0
62	0x00000000	0.0
63	0x00000000	0.0
64	0x3e6f1e1c	0.2335133
65	0x3d604414	0.054752424
66	0x3f237472	0.63849556
67	0x3ecc14b3	0.39859542
68	0x3ebd05a2	0.3691836
69	0xbf1b076e	-0.6055821
70	0xbe7a2139	-0.24426736
71	0x3f798d49	0.9748121
72	0x3f33c1f7	0.7021784
73	0xbffb8dae	-1.9652612
74	0x3ed1a6a7	0.40947458
75	0xbf48ac9c	-0.7838838
76	0xbfdee692	-1.7414114
77	0xbe84d928	-0.25946927
78	0x3fb654f8	1.424468
79	0xbfb03cc2	-1.3768542
80	0x3f149ff6	0.5805658
81	0xbf7110e1	-0.9416638
82	0xbf4237da	-0.7586647
83	0x3faf31b9	1.3687049
84	0xbfd6854e	-1.6759431
85	0x3f8ec403	1.1153568
86	0xbdaf6dc1	-0.08565856
87	0xbf3c53df	-0.7356548
88	0x3e83c69c	0.25737464
89	0x3f119e97	0.56882614
90	0xbecd5e16	-0.40110844
91	0xbf3010e4	-0.68775773
92	0xbe684e57	-0.22686134
93	0x3f5b9038	0.85766935
94	0x3f844c78	1.0335836
95	0xbea2ba21	-0.3178263
96	0xbf2073ea	-0.6267687
97	0x3f4bf145	0.79665023
98	0x3fa54eaf	1.2914637
99	0x3f274d16	0.65352
100	0xbf78dc9d	-0.9721163
101	0xbf599a18	-0.85000753
102	0xbf110c0e	-0.5665902
103	0x3f75772c	0.95884967
104	0x3fcf9ddc	1.622005
105	0x3f1f7065	0.62280875
106	0xbea39175	-0.31946912
107	0xbf30eb53	-0.69109076
108	0x3f272032	0.652835
109	0x3ecc0011	0.398438
110	0x3c745e10	0.014915004
111	0x3f554fba	0.8332478
112	0xbf199abe	-0.6000174
113	0xbc78a7e2	-0.015176745
114	0x3ed55a31	0.41670373
115	0x3f8ab732	1.0837157
116	0x3f4320ec	0.7622211
117	0x3f4bf65c	0.7967279
118	0xbeb3aeb5	-0.35094228
119	0xbef8b3ef	-0.48574778
120	0xbf64b1ec	-0.8933399
121	0xbd8ccb58	-0.06874722
122	0x3f6c7b65	0.92375785
123	0xbf3cce18	-0.73751974
124	0xbcc8227a	-0.024430502
125	0xbeed0b20	-0.4629755
126	0x3f0a3a08	0.539948
127	0xbf81e170	-1.0146923
128	0x3f2a76fd	0.6658781
129	0xbff8facc	-1.9451537
130	0x3fc0ee62	1.5072749
131	0x3ebf7652	0.3739496
132	0x3e9fc51e	0.31205076
133	0x3f6e5b02	0.93107617
134	0x3f87d4d2	1.0611823
135	0xbf5c2c78	-0.86005354
136	0xbf58b149	-0.84645516
137	0xbff52023	-1.9150432
138	0xbf98694d	-1.1907135
139	0x3ee11ade	0.4396581
140	0xbca14849	-0.019687789
141	0xbe869d2e	-0.26291794
142	0xbf899baa	-1.075063
143	0x3fd6f1e5	1.679257
144	0xbfda789e	-1.706806
145	0x3f5b6ec2	0.8571588
146	0x3e0ac342	0.13551047
147	0xbf9b42f9	-1.2129813
148	0xbd84d587	-0.064860396
149	0xbfc5b448	-1.5445642
150	0xbf196d96	-0.5993284
151	0x3f278107	0.65431255
152	0xbe862c0d	-0.26205483
153	0xbfc3980f	-1.528078
154	0xbf86d919	-1.0535003
155	0xbf3b1925	-0.7308524
156	0x3fbccd95	1.4750239
157	0xbe577954	-0.21042377
158	0x3e934135	0.28760687
159	0x3f043680	0.5164566
160	0x3e6473d1	0.22309805
161	0xbfd7e80e	-1.6867692
162	0xbea21ee5	-0.31664196
163	0xbf044626	-0.5166954
164	0x3f9c11f2	1.2192976
165	0xbfaa1cde	-1.329006
166	0x3e20ef46	0.15716276
167	0xbf95c3b2	-1.1700346
168	0x3beacc3e	0.007165461
169	0x3edd7b01	0.43257907
170	0x3ebc070b	0.36724123
171	0xbe4149a0	-0.18875742
172	0x3d89a5b7	0.06721061
173	0xbf7d1bc7	-0.9887051
174	0x3ee9528c	0.4557079
175	0xbebf5954	-0.3737284
176	0x3cf1dbad	0.029523695
177	0x3f18bbe8	0.5966172
178	0xbe04a11a	-0.1295208
179	0x3f82efbd	1.0229412
180	0xbfaae88e	-1.335222
181	0xbf663c0a	-0.8993536
182	0xbddf3574	-0.10898867
183	0xbea78736	-0.32720345
184	0xbfefc89e	-1.8733099
185	0x3ef0ab9f	0.47005937
186	0xbfba3b5e	-1.4549367
187	0xbf7748d5	-0.9659551
188	0x3fe251a5	1.7681166
189	0x3f596b8a	0.84929717
190	0xbfef702a	-1.8706105
191	0x3f933a47	1.150216
192	0xbedca990	-0.43098116
193	0xbf7a5fb0	-0.9780226
194	0x3f77bf6a	0.9677645
195	0xbf0e155f	-0.5550136
196	0xc002d5ef	-2.0443075
197	0xbf8a760e	-1.0817277
198	0xbdc2e1f9	-0.09515757
199	0x3f6ba24d	0.92044526
200	0x3f015ec9	0.50535256
201	0x3fca5ee8	1.5810213
202	0x3e8d4075	0.2758824
203	0xbf0dfd3e	-0.5546454
204	0x3f3d400e	0.73925865
205	0xbe9b2ed1	-0.30309156
206	0xbfc4b29e	-1.536701
207	0xbf748ed2	-0.95530427
208	0xbcc3820b	-0.02386572
209	0x3f819cb8	1.0125952
210	0xbf11edba	-0.57003367
211	0xbec95d3a	-0.3932894
212	0x3f79328f	0.9734277
213	0x3f68d1bd	0.90945035
214	0x3ddadd45	0.10686735
215	0xbef17b0e	-0.47164196
216	0x3eac29ca	0.33625633
217	0x3f906287	1.1280068
218	0xbeab008a	-0.3339885
219	0x3fb74cf3	1.4320358
220	0x3a953e44	0.0011386354
221	0xbea60b65	-0.32430568
222	0xbfa7a666	-1.3097656
223	0xbed4d003	-0.4156495
224	0x3e384f1a	0.17998925
225	0x3ebb02e9	0.36525658
226	0x3f144a73	0.579261
227	0x3f83578c	1.0261092
228	0xbdb26965	-0.08711509
229	0x3f71990b	0.9437415
230	0x3e0c5fee	0.1370847
231	0x3efb4b1d	0.49080744
232	0x3e820522	0.2539454
233	0x3e91f684	0.2850839
234	0xbebcd232	-0.36879116
235	0x3ff5c9ac	1.920217
236	0xbf910fef	-1.1332988
237	0x3f3e30a4	0.7429297
238	0x3e843d57	0.2582805
239	0xbe8cbad0	-0.27486277
240	0xbeb954ae	-0.36197418
241	0xbfc2489d	-1.517841
242	0xbf53f575	-0.8279641
243	0x3fd02871	1.6262342
244	0x3f90e27b	1.1319116
245	0x3f4c38ca	0.79774153
246	0xbf3d73df	-0.7400493
247	0xbfe331b2	-1.7749541
248	0x3c874d47	0.01651634
249	0xbfc3f6b7	-1.5309666
250	0xbd3ff675	-0.0468659
251	0xbf895716	-1.0729702
252	0xbe9ef6fe	-0.31047815
253	0xbeb8e0bb	-0.36108956
254	0x3f6e4f80	0.9309006
255	0xbfc699f8	-1.5515738

pos_embedding.weight f4 [50, 64]
0	0x4018239e	2.377174
1	0x3f665793	0.8997738
2	0xbf49da04	-0.7884829
3	0xbe3ac5a4	-0.18239456
4	0xbdf68708	-0.12037474
5	0x3f6471e4	0.89236283
6	0xbe74c9c1	-0.23905088
7	0xbe647c46	-0.22313032
8	0x3f174309	0.5908666
9	0x3e6f4e9c	0.23369831
10	0xbfdefcf9	-1.7420951
11	0x3fc78bdd	1.5589558
12	0xbf947dbe	-1.1600873
13	0xbec8cb5f	-0.3921766
14	0xbf65e0f7	-0.89796394
15	0xbddb779a	-0.107161716
16	0x3f540c75	0.8283151
17	0x3f0324e4	0.51228166
18	0xbcdf35cb	-0.02724733
19	0xbf870a41	-1.0550004
20	0x3e59ef2b	0.21282642
21	0xbfceb9ac	-1.6150413
22	0xbfeed76f	-1.8659495
23	0xbe3ffc49	-0.18748583
24	0xbf2672a3	-0.6501867
25	0xbf9aaabd	-1.2083355
26	0x3f0d6471	0.55231386
27	0xbe8e6f2a	-0.27819186
28	0xbf8b3a5a	-1.0877182
29	0x3fcd408c	1.6035323
30	0x3fb8838c	1.4415145
31	0xbf15e9ce	-0.5855988
32	0x3f1182a2	0.56839955
33	0x3f78f2cb	0.9724547
34	0xbf5577cb	-0.83385915
35	0xbe6dfce8	-0.23241007
36	0x3f3abdeb	0.7294604
37	0xbf86501d	-1.0493199
38	0x3ee14dbf	0.44004628
39	0x3f835c76	1.0262592
40	0xbf409feb	-0.75244015
41	0xbf48132f	-0.7815427
42	0xbcbabadd	-0.022794181
43	0xbe488e82	-0.19585612
44	0xbfc716a8	-1.5553789
45	0xbffd8903	-1.9807438
46	0xbd4de5bd	-0.050267924
47	0x3e3c5502	0.18391803
48	0x3f0200e1	0.5078259
49	0x3fa9bf4c	1.3261504
50	0x3f938e89	1.1527873
51	0xbeb74883	-0.3579751
52	0x3e395b41	0.18101217
53	0x3e287259	0.1644987
54	0xbf0ef8d8	-0.55848455
55	0xbf0cb5c5	-0.5496486
56	0x3e3aa830	0.18228221
57	0x3dd25f61	0.10272098
58	0x3f1cb2df	0.61210436
59	0xbf19a6e3	-0.60020274
60	0x3e100912	0.1406596
61	0x3e07bcf5	0.13255675
62	0x3f91d5c2	1.1393359
63	0xbfc578ca	-1.5427487
64	0xbec3832e	-0.3818602
65	0x3e259917	0.1617168
66	0x3d847397	0.064673595
67	0x3c965020	0.018348753
68	0xbd03dd8b	-0.0321937
69	0x3fbdc703	1.4826359
70	0xbf1fe992	-0.62465775
71	0xbff75b09	-1.9324657
72	0x3e1452d9	0.14484729
73	0xbe51f76e	-0.20504543
74	0xbe452e41	-0.19255926
75	0x3f4caa2e	0.79947174
76	0xbe3c7919	-0.1840557
77	0xbf32cde1	-0.69845396
78	0xbfa79f47	-1.3095483
79	0x3eb2e74f	0.349421
80	0xbf2100cf	-0.6289186
81	0x3e26df02	0.16296008
82	0xbee0f3cb	-0.43936
83	0xbd7bd0a3	-0.06147827
84	0x3d753162	0.05986155
85	0x3f337842	0.70105374
86	0x3f77c295	0.96781284
87	0xbfb98685	-1.4494177
88	0xbd6bc950	-0.057565033
89	0xbf3d5df5	-0.7397149
90	0xbeb107fc	-0.34576404
91	0x3f8af984	1.0857396
92	0x3e0c3816	0.1369327
93	0x3f730840	0.94934464
94	0x3f63869e	0.88877285
95	0x3d18aaaf	0.03727215
96	0x3e209504	0.15681845
97	0xbf257dec	-0.64645267
98	0x3e0a0719	0.1347927
99	0x3dd30cce	0.10305177
100	0x3e007116	0.12543139
101	0x3e28324b	0.16425435
102	0xbe9a5533	-0.30143127
103	0xbef44b10	-0.47713518
104	0xbe8c65b5	-0.27421346
105	0xbf14ab51	-0.5807391
106	0xbed72b64	-0.42025292
107	0xbf69610a	-0.91163695
108	0x3d946c93	0.072472714
109	0x3f0512d8	0.5198188
110	0x3fb18927	1.386998
111	0xbf163306	-0.58671606
112	0xbff4ba81	-1.9119416
113	0x3f968762	1.1760066
114	0xbd46c012	-0.048523016
115	0xbf8c9935	-1.0984255
116	0xbef83e8d	-0.48485222
117	0x3eb75070	0.35803556
118	0xbfb26fd3	-1.3940376
119	0xbf692fa7	-0.91088337
120	0x3fa8a201	1.317444
121	0x3e28d5f0	0.1648786
122	0xbf2f1362	-0.6838895
123	0x3e048877	0.12942682
124	0x3f8b017d	1.0859829
125	0xbff78193	-1.9336418
126	0x3f9b49d4	1.2131906
127	0xbfca37b1	-1.5798246
128	0xbedd9a3e	-0.4328174
129	0x3fb8c0eb	1.4433874
130	0x3ee2f598	0.44327998
131	0xbf8fd706	-1.1237495
132	0xbec239d2	-0.37934738
133	0x3fcac466	1.5841186
134	0xbf6e4de0	-0.9308758
135	0x3edab17c	0.42713535
136	0x40030722	2.0473104
137	0xbd15c04c	-0.03656034
138	0x3efba1b5	0.4914681
139	0x3faa1d43	1.329018
140	0x3fddfba7	1.7342423
141	0xbfffafc5	-1.9975516
142	0x403ee479	2.9826949
143	0xbf66c318	-0.9014144
144	0x3e974ca8	0.29550672
145	0x3eeffce9	0.46872643
146	0x3f755be5	0.95843345
147	0xbe5247fa	-0.2053527
148	0xbe84c5f8	-0.25932288
149	0x3e625c3f	0.22105502
150	0xbec13aec	-0.37740266
151	0xbcfba616	-0.030718844
152	0x3f052e7c	0.52024055
153	0xbf647a2a	-0.8924891
154	0xbf990030	-1.1953182
155	0xbe9a36c9	-0.30119923
156	0x3ef87069	0.48523262
157	0x3e53b3b9	0.20674028
158	0x3f2c9dfe	0.67428577
159	0x3e67a75d	0.22622438
160	0x3f38e463	0.7222349
161	0xbee75dc0	-0.45188713
162	0x3ecb55d5	0.39713922
163	0xc028ee5b	-2.639548
164	0xbdaa2de4	-0.08309534
165	0x3cdc8efa	0.026923645
166	0x3e9a6f34	0.30162966
167	0x3e84eccb	0.2596191
168	0xbeef8f93	-0.46789226
169	0xbf3bd48c	-0.73371196
170	0x3d2bd218	0.041948408
171	0xbe096629	-0.13417877
172	0x3d94c2c0	0.07263708
173	0x3fc97a5e	1.5740469
174	0xbe0588d2	-0.13040474
175	0xbfa6c74e	-1.3029573
176	0xbfcbf010	-1.5932636
177	0x3ed0ef1d	0.4080743
178	0x3efea28e	0.49733394
179	0xbf98f540	-1.1949844
180	0x3ef369ec	0.4754175
181	0xbf9b2ea4	-1.2123609
182	0x3f6feda9	0.93722016
183	0x3ead4757	0.3384349
184	0x3ed11dbd	0.40843
185	0x3dedb9e1	0.11607719
186	0xbef0c3bb	-0.4702433
187	0xbe95b45d	-0.2923917
188	0xbeeab81a	-0.45843583
189	0x3f83f340	1.0308609
190	0x3f5afe9f	0.8554477
191	0xc0166387	-2.3498247
192	0x3ea1a4ff	0.31571195
193	0x3f2701de	0.65237224
194	0x3f3a4285	0.7275775
195	0xbd689f09	-0.056792293
196	0x3f3b8bde	0.73260295
197	0x3f6a3695	0.91489536
198	0xbf277042	-0.65405667
199	0x3f1d6065	0.6147521
200	0xbfe51e19	-1.789981
201	0x3f1c2774	0.609977
202	0x3f99cfe3	1.2016567
203	0x3fdb937e	1.7154386
204	0xbf4d5a8a	-0.80216277
205	0x3eec04df	0.46097466
206	0x3e5f6782	0.21816829
207	0x3e0c4ee3	0.13701968
208	0xbf7a2420	-0.9771137
209	0x3f0c5783	0.5482103
210	0xbf367cdd	-0.71284276
211	0xbeaf7e4c	-0.34276044
212	0x3f804249	1.0020229
213	0x3e6b3c60	0.2297225
214	0x3e246daa	0.16057459
215	0xbf3dbd2b	-0.7411677
216	0x3f5029c9	0.8131376
217	0x3f48e9a9	0.7848154
218	0xbec2076f	-0.37896296
219	0xc00a9a79	-2.1656783
220	0x3d444693	0.047918867
221	0xbf2b3d3b	-0.66890305
222	0x3e3e153d	0.1856279
223	0xbf4190fd	-0.7561186
224	0xbf068684	-0.52549005
225	0xbdcbce08	-0.09951407
226	0x3e138b39	0.14408578
227	0xbd1c1da6	-0.038114212
228	0x3f928cfc	1.1449275
229	0x3f9a71f7	1.2066029
230	0xbfda099e	-1.7034185
231	0x3dce6a8f	0.10078918
232	0xbf610e30	-0.87912273
233	0x3e9208a5	0.2852222
234	0xbf2e25a6	-0.68026197
235	0xbefadd88	-0.4899714
236	0xbf8a0cf2	-1.07852
237	0x3edbc4b4	0.4292351
238	0xbf377a60	-0.71671104
239	0x3fa7ef95	1.311999
240	0x3fc468ba	1.534446
241	0x3efc3a14	0.4926306
242	0xbe174b5a	-0.14774838
243	0xbf7dcab9	-0.99137455
244	0x3f1e654a	0.61873305
245	0xbf1b8838	-0.6075473
246	0xbf560ef6	-0.8361658
247	0x3f8ba58c	1.0909896
248	0xbf7a0d52	-0.97676575
249	0xbeb13fb3	-0.3461891
250	0x3f3d4986	0.7394031
251	0x3ffba7c2	1.9660571
252	0xbeb5140b	-0.35366854
253	0x3fbfcbb9	1.4984046
254	0x3ee17ba0	0.4403963
255	0x3f81ff91	1.0156118

transformer.layers.0.self_attn.in_proj_weight f4 [192, 64]
0	0x3dd8e889	0.105912276
1	0xbcd01479	-0.025400387
2	0xbcbc7712	-0.023005996
3	0x3d8f6bde	0.07002996
4	0x3d0e99bd	0.034814585
5	0xbd7f549e	-0.062336557
6	0x3c3ca9a0	0.011515051
7	0xbdfe179e	-0.12406848
8	0x3d97bc01	0.07408906
9	0x3d7c2e34	0.0615675
10	0xbde20765	-0.11036567
11	0xbd8827b0	-0.06648195
12	0xbddc9879	-0.10771269
13	0xbd10390d	-0.035210658
14	0x3d4fe469	0.05075494
15	0xbe04f808	-0.12985241
16	0x3e0a02d6	0.13477644
17	0x3e0e4bed	0.13896151
18	0x3acf1f73	0.0015802219
19	0xbdc05d5c	-0.09392807
20	0x3d0640fb	0.032776814
21	0x3d967d61	0.07348133
22	0xbdc9f42e	-0.09861027
23	0xbcbb5571	-0.02286789
24	0xbdd4d3c5	-0.10391954
25	0x3d63fc8e	0.055660777
26	0x3d098b3d	0.033580054
27	0x3d8df04b	0.06930598
28	0x3d94239d	0.07233355
29	0xbd0de5aa	-0.034642853
30	0xbd3b79e1	-0.04577053
31	0x3dd5abac	0.104331344
32	0x3c4c8c8b	0.01248468
33	0xbe0f0081	-0.13965036
34	0x3cedb329	0.029016094
35	0x3cb168e2	0.021656457
36	0xbe0e9000	-0.13922119
37	0xbd98eb8f	-0.07466804
38	0x3db9cb89	0.090720244
39	0xbd37faaa	-0.044916786
40	0xbd8823c1	-0.066474445
41	0x3d2713df	0.040790435
42	0xbe1d0b1b	-0.15336268
43	0x3de5c31f	0.11218857
44	0x3e0dd562	0.1385093
45	0xbd0ab40c	-0.033863112
46	0xbd8624fe	-0.065500244
47	0x3c7919a7	0.01520387
48	0x3dc541dc	0.09631702
49	0xbda08b49	-0.078390665
50	0xbd5110b9	-0.05104134
51	0xbd886a8f	-0.066609494
52	0xbd9682c5	-0.07349161
53	0x3bfcb4db	0.0077119893
54	0x3ddc70b1	0.10763682
55	0xbd0f3809	-0.03496555
56	0x3c86f8d1	0.016476067
57	0xbe182190	-0.14856553
58	0xbda47718	-0.08030528
59	0xbe1f579b	-0.15560763
60	0xbe01e41f	-0.12684678
61	0x3d2cee47	0.042219426
62	0x3def6689	0.11689479
63	0x3db4d9ac	0.0883058
64	0x3d28b052	0.041183777
65	0xbd85916c	-0.06521878
66	0x3db92889	0.090409346
67	0x3df0c6b3	0.11756649
68	0xbc8c5ab8	-0.017133102
69	0x3cb56160	0.022141159
70	0xbd5ee30a	-0.05441574
71	0xbe0db695	-0.13839181
72	0x3dd8f9b4	0.10594502
73	0xbccfa143	-0.02534545
74	0x3dd2bdd8	0.10290116
75	0xbca1df01	-0.019759657
76	0xbdc9a2d1	-0.09845508
77	0xbc4484ea	-0.01199458
78	0x3ddf7d3a	0.10912557
79	0x3d97f504	0.0741978
80	0x3dca5fd0	0.09881556
81	0x3d13ee18	0.036115736
82	0x3d65dc0d	0.05611806
83	0xbd6d0f72	-0.057876058
84	0x3e05e205	0.13074501
85	0x3de73d49	0.11290986
86	0x3d91fcd5	0.07128302
87	0xbe10f8ee	-0.14157459
88	0xbce9e1f8	-0.028550133
89	0xbdbad1dd	-0.091220595
90	0xbe04fa6f	-0.12986158
91	0xbdaa83aa	-0.08325894
92	0x3e1bc7d1	0.15212943
93	0x3df5f2e6	0.1200922
94	0xbd1dd06a	-0.038528837
95	0x3db1c7b7	0.08680671
96	0x3e1a8775	0.15090735
97	0xbd68c425	-0.056827683
98	0x3e189b14	0.14902908
99	0xbd510794	-0.051032618
100	0xbd1538fd	-0.0364313
101	0xbdc64b2f	-0.09682309
102	0xbd98d39e	-0.07462238
103	0xbda62596	-0.08112638
104	0x3cda0c52	0.026617203
105	0xbc65d939	-0.014028841
106	0x3e098921	0.13431217
107	0xbdbce69e	-0.09223674
108	0x3e0a587d	0.13510318
109	0xbc6cb26e	-0.014446838
110	0xbe183984	-0.1486569
111	0xbc511e56	-0.01276358
112	0x3dcb2785	0.09919647
113	0x3c213b3f	0.0098407855
114	0xbdaf14ed	-0.08548913
115	0xbe061198	-0.13092649
116	0xbdcae3ac	-0.09906706
117	0xbdd4b2ba	-0.10385652
118	0x3d9a1bd2	0.075248376
119	0xbde368eb	-0.11103996
120	0x3d403ebb	0.046934824
121	0x3d8500df	0.06494307
122	0xbe0f6b08	-0.14005673
123	0x3cc5f6c7	0.024165524
124	0x3ce3acc1	0.027792336
125	0xbde4ed38	-0.111780584
126	0xbd5c3524	-0.053761616
127	0xbd7475ad	-0.059682537
128	0x3ddb9ffd	0.10723875
129	0x3b94bdbf	0.004539221
130	0x3b892ae4	0.004186021
131	0xbde18553	-0.11011758
132	0x3e1e8132	0.15478972
133	0x3d949e03	0.07256701
134	0xbcd5da12	-0.02610496
135	0xbd95b60a	-0.07310112
136	0xbce040a6	-0.027374577
137	0xbdec5c1f	-0.11541008
138	0x3dd7b75d	0.10533021
139	0x3d622461	0.055210475
140	0xbdffce79	-0.124905534
141	0x3df2c67b	0.118542634
142	0x3d9574da	0.07297678
143	0xbd389c9e	-0.045071237
144	0x3dcd351e	0.10019897
145	0x3cf99c9c	0.030470185
146	0x3dd946f7	0.106092386
147	0x3df415d8	0.11918229
148	0x3da66e3f	0.081264965
149	0xbdea05c8	-0.11426884
150	0x3cb017ec	0.021495782
151	0x3dbc76b8	0.09202331
152	0x3d68f8d9	0.056877945
153	0xbe1b289f	-0.15152214
154	0xbd6bf5fb	-0.057607632
155	0x3d20a2b7	0.039217677
156	0x3e233f89	0.15942205
157	0x3d811d19	0.06304378
158	0x3d192abf	0.03739428
159	0xbdebc89f	-0.11512875
160	0xbe101b75	-0.14072974
161	0x3d1d0f97	0.038344946
162	0x3e1bba43	0.15207772
163	0xbe15adab	-0.1461703
164	0xbd8a6c63	-0.067589544
165	0xbe1d4f2f	-0.15362237
166	0x3d809183	0.06277754
167	0xbdd92558	-0.10602826
168	0x3ce8e665	0.028430173
169	0x3d94a125	0.072572984
170	0xbe01ba11	-0.12668635
171	0x3d94368b	0.07236966
172	0xbdefeed9	-0.117154785
173	0x3d68abd6	0.0568045
174	0x3deefd3b	0.11669394
175	0xbc704294	-0.014664311
176	0x3de1dfe8	0.11029035
177	0xbde55eb7	-0.11199706
178	0x3e13b7d5	0.14425595
179	0x3e1bfb4d	0.15232582
180	0x3db2b918	0.0872671
181	0xbc8531d6	-0.016259115
182	0x3dade5f2	0.08491124
183	0x3c226b79	0.009913319
184	0xbe19062e	-0.14943764
185	0x3e035e06	0.12828836
186	0x3da87ac3	0.0822654
187	0xbdc12e40	-0.094326496
188	0xbc6f8bb5	-0.014620711
189	0x3d3fb0ae	0.046799354
190	0xbca1b5b2	-0.01973996
191	0xbdc20435	-0.09473459
192	0xbc16f69a	-0.009214068
193	0xbcd1c587	-0.025606884
194	0x3d6e2a4d	0.05814581
195	0xbdb2a373	-0.08722582
196	0x3d26fd19	0.040768716
197	0x3de6c27b	0.11267563
198	0xbc5474f9	-0.012967342
199	0xbd4a6ea9	-0.04942194
200	0x3cffb96e	0.03121635
201	0xbdf1a3a9	-0.11798794
202	0xbd55739d	-0.05211221
203	0xbe04966f	-0.12948011
204	0xbdbdbe66	-0.09264831
205	0xbbc00301	-0.005859733
206	0x3e0c7090	0.13714814
207	0x3d560c63	0.052257907
208	0xbd86b9f4	-0.065784365
209	0xbe231133	-0.1592453
210	0x3cbfe9d0	0.02342692
211	0x3da6b003	0.0813904
212	0x3d13abc6	0.036052488
213	0x3be9b7f8	0.0071325265
214	0xbe157890	-0.14596772
215	0x3d847e33	0.06469383
216	0x3c8f7321	0.017510952
217	0xbe08cf7d	-0.133604
218	0x3db222b7	0.086980276
219	0x3d013ea3	0.031553876
220	0xbd827a16	-0.06370942
221	0x3e11c1cb	0.14234082
222	0x3d35a65b	0.044348102
223	0x3dd2b87c	0.10289094
224	0x3df4e999	0.11958618
225	0xbd34e98b	-0.044168036
226	0xbddf79d7	-0.10911911
227	0xbdd0ef22	-0.10201861
228	0x3dbacc36	0.091209814
229	0x3c924cec	0.017858945
230	0xbdaf4cfc	-0.085596055
231	0xbda10741	-0.07862712
232	0x3c087f68	0.008331157
233	0xbe030333	-0.12794189
234	0x3dde6c14	0.10860458
235	0xbe1c84d7	-0.1528505
236	0xbd5282d0	-0.051394284
237	0x3e131496	0.14363322
238	0xbd495638	-0.04915449
239	0xbc9b493e	-0.018955823
240	0x3d80616f	0.06268584
241	0xbd61e3cf	-0.055148896
242	0x3ddfb4c2	0.10923149
243	0x3d87916d	0.06619535
244	0xbd8802cb	-0.06641158
245	0xbcb92991	-0.022602828
246	0x3dc58097	0.09643667
247	0xbc870e21	-0.01648623
248	0x3d59efd1	0.053207222
249	0xbc2140bd	-0.009842095
250	0xbd166748	-0.03671959
251	0x3dd5d4f5	0.10441009
252	0xbd97abc5	-0.07405809
253	0xbdd64368	-0.104620755
254	0xbdf2bbe4	-0.118522435
255	0xbcbdafef	-0.02315518

transformer.layers.0.self_attn.in_proj_bias f4 [192]
0	0xba432a42	-0.00074449566
1	0xbb74d178	-0.0037356298
2	0x3ae01520	0.001709614
3	0xba857b4a	-0.0010183838
4	0xbbaa3d26	-0.0051952777
5	0xbb1c5c24	-0.002385863
6	0x3b5384a7	0.0032275112
7	0x3b5a23e4	0.0033285553
8	0xb99e063b	-0.0003014075
9	0x3ab5e9ac	0.0013878844
10	0xbb545aee	-0.003240283
11	0x3b6435f0	0.0034822188
12	0x3b3b0aba	0.002854033
13	0xb9cbfb65	-0.0003890648
14	0x3ab5cc10	0.001387002
15	0x3a671ef8	0.00088165654
16	0xbb8527fc	-0.0040636044
17	0xbb86d395	-0.004114578
18	0xbab1e7f7	-0.0013573159
19	0x3a93dcee	0.0011281052
20	0x3aed2d1c	0.0018095109
21	0xba13a7cc	-0.00056326087
22	0xbad3835c	-0.0016137171
23	0x3b4b6667	0.0031036378
24	0xba2cfaff	-0.00065986806
25	0x3a0ed0e4	0.0005447997
26	0xbbea28a5	-0.0071459585
27	0xbb92750e	-0.0044695204
28	0xbb93ac59	-0.0045066294
29	0xbb6c9cb3	-0.0036104142
30	0x3a8970e3	0.0010485913
31	0x3aaccb3c	0.0013183127
32	0x3b2865ef	0.0025695523
33	0x3b294004	0.002582551
34	0x3b104e2e	0.0022019255
35	0xba8a0da8	-0.0010532634
36	0x3bbee4fb	0.0058256364
37	0xbb5e673b	-0.0033936042
38	0x3b2279da	0.0024791867
39	0xba4b87c6	-0.0007764067
40	0xbbd736c9	-0.00656781
41	0xbb5adbd3	-0.0033395186
42	0xbc127306	-0.008938557
43	0xbbbb04a2	-0.0057073394
44	0x3aa347f1	0.0012457353
45	0x3b9d4eb9	0.0048006442
46	0xbb4c7ad9	-0.0031201153
47	0x3b8c0084	0.0042725224
48	0x3bb28770	0.0054482743
49	0xbb852dac	-0.0040642824
50	0xbbdebfe0	-0.0067977756
51	0xb939608b	-0.0001767894
52	0x3b2a6beb	0.0026004266
53	0x3b510610	0.0031894483
54	0x3b7bd467	0.0038426162
55	0x3baa2c4a	0.005193268
56	0xbb11282f	-0.0022149195
57	0x3a5585f4	0.0008145266
58	0xba1900f4	-0.0005836629
59	0xbb9870eb	-0.0046521327
60	0x3be466ea	0.006970276
61	0xbb2f5d57	-0.0026758516
62	0xbb00ad3a	-0.00196345
63	0xbb45e404	-0.0030195722
64	0x3864181a	5.4381882e-05
65	0x3944dc07	0.00018773983
66	0x37fe4d39	3.031512e-05
67	0x38de1181	0.00010589045
68	0x390f5c22	0.00013671865
69	0x376b7f51	1.4036735e-05
70	0x372896f9	1.0048731e-05
71	0xb7a7c480	-1.9999454e-05
72	0xb8bae193	-8.9111876e-05
73	0xb885d18b	-6.3809646e-05
74	0x3690994d	4.309381e-06
75	0xb905128c	-0.00012690778
76	0xb82948d0	-4.036055e-05
77	0x398184da	0.0002470378
78	0x38ddc80c	0.00010575363
79	0x38ed315d	0.00011310235
80	0x3777e926	1.4776631e-05
81	0xb935e395	-0.00017346286
82	0xb8ef04fe	-0.00011397338
83	0xb8282fb1	-4.0098737e-05
84	0xb9369135	-0.00017410966
85	0xb8196efc	-3.6581405e-05
86	0xb834d9d8	-4.3118227e-05
87	0xb88dc798	-6.760581e-05
88	0xb90f8e27	-0.00013690499
89	0xb9211b75	-0.00015364385
90	0xb8e97e84	-0.00011133871
91	0x3870d65b	5.7420093e-05
92	0x388facd6	6.8509646e-05
93	0xb88fa983	-6.8503454e-05
94	0xb7809717	-1.5329146e-05
95	0x38bf365f	9.117717e-05
96	0xb8e42543	-0.00010878828
97	0x378b1e30	1.6584148e-05
98	0xb8a849a0	-8.024578e-05
99	0x388c0172	6.6759894e-05
100	0xb8c95019	-9.599346e-05
101	0x38d4e880	0.00010152254
102	0x39887531	0.00026027256
103	0x38b31995	8.54015e-05
104	0xb84d454e	-4.8940354e-05
105	0x3913e57e	0.00014104505
106	0x3856e0ad	5.123082e-05
107	0x3993fa3c	0.00028224464
108	0xb9329ac1	-0.00017033053
109	0xb9767260	-0.00023502996
110	0x3886a2de	6.419954e-05
111	0x39055a7c	0.00012717576
112	0xb967fc94	-0.0002212397
113	0xb74d7659	-1.2246507e-05
114	0x391fd7c8	0.00015243806
115	0xb9992c86	-0.00029215607
116	0xb90c6710	-0.00013389834
117	0xb891e443	-6.956656e-05
118	0x37956d65	1.7813125e-05
119	0x3966771b	0.0002197888
120	0xb94d8308	-0.00019599136
121	0xb9540dbb	-0.0002022301
122	0x38ab3122	8.163067e-05
123	0x393e4ed8	0.00018149184
124	0xb8686584	-5.5407654e-05
125	0x37a65620	1.9828847e-05
126	0x37d318d3	2.516472e-05
127	0x3729e1d5	1.0125766e-05
128	0xbba0993f	-0.004901081
129	0xbbecd790	-0.0072278455
130	0xba470e6a	-0.00075933954
131	0xbb81b381	-0.003958166
132	0xbbfc8b22	-0.0077070156
133	0x3aaf4c1c	0.0013374123
134	0xbb834d5e	-0.0040070256
135	0x3b95090c	0.0045481976
136	0xbb5324df	-0.0032218022
137	0x3b6181e6	0.00344097
138	0x3b973959	0.0046149907
139	0xbaf8304e	-0.0018935294
140	0xbb2bad0d	-0.0026195676
141	0x3b88c2f4	0.004173631
142	0xbb347c9e	-0.0027540098
143	0xbb99c654	-0.004692832
144	0x3bc50786	0.0060128598
145	0xbbbe4ed6	-0.005807738
146	0xbbcfdec8	-0.0063436963
147	0x3bbc4511	0.005745538
148	0xbb760a1f	-0.0037542654
149	0xbbd6e222	-0.006557719
150	0x3bd14a17	0.006387006
151	0xbbe23021	-0.00690271
152	0xbb0c8487	-0.0021441297
153	0xbb9c428b	-0.0047686747
154	0x3b92351d	0.004461898
155	0x3baeee84	0.005338492
156	0xbb022fcc	-0.0019864915
157	0x3b1bdb2a	0.0023781755
158	0xbbe20270	-0.006897263
159	0x3b46133c	0.0030223867
160	0x3ba0bcec	0.0049053337
161	0x399d7530	0.00030032685
162	0xbb088aed	-0.002083476
163	0x39370d9d	0.00017457311
164	0x3ab95024	0.0014138264
165	0xb987909c	-0.0002585695
166	0x3bdf9e71	0.0068243076
167	0xbb048088	-0.0020218212
168	0xbbb8abca	-0.005635713
169	0xbb8c5145	-0.004282149
170	0xbb1afce4	-0.002364927
171	0x3bc456e5	0.005991804
172	0x3b328b77	0.0027243772
173	0x3b829f74	0.0039862934
174	0x3b77f9f1	0.0037838186
175	0xbac098ca	-0.0014693972
176	0x3a7ca371	0.0009637392
177	0x3a73342d	0.0009277489
178	0xbbc9bb6c	-0.0061563756
179	0xba86c5ec	-0.0010282374
180	0x3b7aaead	0.0038251088
181	0xbb50026a	-0.003173972
182	0xbb361aab	-0.0027786891
183	0x3bb0f31c	0.0054000746
184	0x3babc1ff	0.005241632
185	0x3b8b2d6e	0.004247359
186	0x3b09003e	0.0020904685
187	0xbbd384fb	-0.0064550615
188	0x3b979b8e	0.004626698
189	0x3bddb33f	0.0067657526
190	0xbad668f2	-0.001635818
191	0x3bc8eaa0	0.006131485

transformer.layers.0.self_attn.out_proj.weight f4 [64, 64]
0	0x3dfae810	0.12251294
1	0x3cf93d5c	0.030424766
2	0xbc7cc111	-0.01542689
3	0xbc9c40bb	-0.019073835
4	0xbd52f1b0	-0.051500022
5	0xbcf079ea	-0.029355008
6	0xbdc9d89d	-0.09855769
7	0x3dedc654	0.11610094
8	0x3d355781	0.044272903
9	0xbc212f9e	-0.009838013
10	0xbdc2859b	-0.094981395
11	0x3dac0e8f	0.08401214
12	0xbd81b7bd	-0.063338734
13	0x3de3076d	0.11085401
14	0x3dc9ef9b	0.09860154
15	0x3d793f6c	0.0608515
16	0xbc35eafa	-0.011103386
17	0x3daf5a79	0.08562178
18	0xbd67260b	-0.056432765
19	0xbdcaeffd	-0.099090554
20	0x3b277fac	0.0025558276
21	0xbd9e4391	-0.07727731
22	0xbc4b8d62	-0.012423845
23	0xbd1290eb	-0.035782736
24	0x3c4b5417	0.012410185
25	0xbd5d053f	-0.05396008
26	0x3cc71d27	0.024305893
27	0xbca39b61	-0.019971551
28	0xbcf1a5be	-0.029497977
29	0x3dc9d9c8	0.098559916
30	0xbc1251fc	-0.008930679
31	0xbcd4a502	-0.025957588
32	0x3cc8f1cf	0.024529366
33	0x39452924	0.0001880271
34	0x3dd205d5	0.102550186
35	0x3d72c826	0.059272908
36	0xbc5c33c9	-0.013440081
37	0x3d60fca6	0.054928444
38	0x3de0ec88	0.10982615
39	0x3d784ae1	0.060618285
40	0x3de69db5	0.11260549
41	0xbdab9ca0	-0.08379483
42	0x3db770d5	0.08957068
43	0x3e023348	0.12714875
44	0x3d495566	0.049153708
45	0x3db395b7	0.0876879
46	0x3dd54ed6	0.104154274
47	0x3ca28f55	0.019843737
48	0x3dda4458	0.10657567
49	0x3d3ef3d4	0.04661925
50	0xbd4234c9	-0.04741362
51	0x3ddfb7da	0.10923739
52	0x3d6f3a8d	0.058405448
53	0x3db9488f	0.090470426
54	0xbde32f89	-0.11093051
55	0x3d99ab8c	0.07503423
56	0x3dc9157e	0.098185524
57	0x3df2ef73	0.118620776
58	0xbd3eded7	-0.046599235
59	0x3e063a60	0.13108206
60	0x3d9e78a8	0.07737857
61	0x3e02198c	0.12705058
62	0xbd1009b1	-0.035165492
63	0x3db69113	0.089143895
64	0x3ddedbd4	0.10881773
65	0xbdca3fa7	-0.09875422
66	0xbd0a156c	-0.033711836
67	0xbcd39a50	-0.025830418
68	0x3d676333	0.056491088
69	0xbd93b3d9	-0.072120376
70	0x3d96fe58	0.07372731
71	0x3dde0495	0.10840718
72	0x3d3c70a3	0.046005856
73	0x3da52c08	0.08065039
74	0xbd387e61	-0.0450424
75	0x3df87033	0.12130775
76	0xbd14f74b	-0.03636865
77	0xbc8d031b	-0.017213395
78	0xbc1b4a75	-0.009478201
79	0xbdc38fb4	-0.095488936
80	0x3c2c5881	0.010519148
81	0xbdbc73fc	-0.0920181
82	0xbd79167b	-0.060812455
83	0x3d5a0f7a	0.053237416
84	0xbd9cad91	-0.07650293
85	0xbb9a4192	-0.0047075236
86	0xbde6b3d6	-0.1126477
87	0x3def28f4	0.11677733
88	0xbdfdb95e	-0.123888716
89	0xbc6dcd73	-0.014514315
90	0xbd9c052a	-0.076181725
91	0xbd9d2185	-0.07672409
92	0x3c396459	0.011315429
93	0x3de012c5	0.1094108
94	0x3df7c9a0	0.12099004
95	0xbd79c179	-0.060975526
96	0xbdb73a10	-0.089466214
97	0x3da16277	0.07880109
98	0x3d09025a	0.03344951
99	0x3d2a3e8f	0.041563567
100	0xbd896c65	-0.06710128
101	0x3c898c44	0.016790517
102	0x3df88766	0.121352
103	0x3dd640e7	0.10461598
104	0xbcf90855	-0.03039948
105	0x3db3f738	0.087873876
106	0x3da0d831	0.07853735
107	0x3da2a1df	0.07941031
108	0x3c57bf5e	0.013168184
109	0xbc9c35ca	-0.019068617
110	0x3b919800	0.0044431686
111	0xbdb1c360	-0.08679843
112	0xbdff26f9	-0.12458605
113	0xbd9bec8a	-0.076134756
114	0x3d15e560	0.036595702
115	0xbc14a6fb	-0.009073014
116	0xbd998a14	-0.074970394
117	0xbd1f2113	-0.0388499
118	0x3dd6b5dc	0.10483906
119	0x3dddb1dd	0.1082494
120	0x3d72c435	0.05926915
121	0xbdd4adb8	-0.10384697
122	0x3bb3fb9d	0.005492641
123	0x3d42b373	0.047534417
124	0xbd81127a	-0.06302352
125	0xbc8ec3f9	-0.017427431
126	0x3ca3a60a	0.019976635
127	0xbdf9d669	-0.121990986
128	0x3d9089ab	0.07057508
129	0x3da1a2fd	0.07892416
130	0x3deb3078	0.11483854
131	0xbc0b2409	-0.008492478
132	0x3ca37a93	0.019955909
133	0xbdba3c92	-0.09093584
134	0xbd805341	-0.062658794
135	0x3df159ee	0.11784731
136	0xbd10d9ae	-0.035363846
137	0x3ddf1674	0.108929545
138	0xbc8696d0	-0.016429335
139	0xbd38b6eb	-0.04509632
140	0xbde159af	-0.11003434
141	0x3de9c7b1	0.11415041
142	0xbd5c5b8e	-0.05379825
143	0x3db161db	0.086612426
144	0x3d6f5654	0.05843194
145	0xbd7336c0	-0.059378386
146	0x3dd2e78d	0.10298071
147	0xbdc68691	-0.09693635
148	0x3d4ff2fa	0.05076883
149	0x3b7aa559	0.0038245528
150	0xbc53ee1c	-0.012935188
151	0xbdbc796e	-0.092028484
152	0xbd695a43	-0.056970846
153	0xbd4f0f42	-0.05055166
154	0x3d90eae8	0.07076055
155	0x3ce610ed	0.028084243
156	0x3de5b831	0.11216772
157	0xb8b4869c	-8.608142e-05
158	0x3d6d0ac3	0.05787159
159	0x3d88f958	0.066881835
160	0x3ca3237e	0.019914385
161	0xbd005f43	-0.03134085
162	0xbdce6ba4	-0.100791246
163	0x3df5ca93	0.120015286
164	0xbced4a17	-0.028965993
165	0x3db93bcc	0.090446085
166	0x3d4b7b28	0.049677998
167	0xbdcd584e	-0.100266084
168	0xbdc8ce3e	-0.098049626
169	0x3d021b78	0.031764477
170	0x3df3e37a	0.11908622
171	0x3d82953d	0.06376121
172	0xba768533	-0.00094040035
173	0x3de1a742	0.1101823
174	0x3dade3d5	0.08490721
175	0xbcfd6b9d	-0.030935103
176	0xbba12d62	-0.00491874
177	0x3d88f0e4	0.06686571
178	0x3de5b433	0.11216011
179	0x3defdc60	0.11711955
180	0xbdb00b59	-0.085959144
181	0xbdeab9e6	-0.114612386
182	0x3b5e4049	0.0033912829
183	0x3d25e09e	0.040497415
184	0x3d431fd3	0.04763777
185	0x3c08065c	0.008302297
186	0xbdc73e15	-0.09728638
187	0x3cb2a1e5	0.021805713
188	0xbd2356d4	-0.039877728
189	0xbdb48459	-0.08814306
190	0xbc3d117c	-0.011539813
191	0x3cc67125	0.024223873
192	0x3d69ed26	0.057110928
193	0x38fd4088	0.00012076
194	0x3dace81a	0.08442707
195	0x3d7af141	0.061265234
196	0x3d410974	0.047128156
197	0xbe04bb64	-0.12962109
198	0xbde6308e	-0.1123973
199	0xbdebdcb7	-0.115167074
200	0xbddd54d2	-0.10807194
201	0x3d0a5de4	0.033780947
202	0xbd283302	-0.04106427
203	0x3d9356af	0.07194268
204	0x3d345f96	0.04403647
205	0xbc77e9f2	-0.0151314605
206	0xbd3aca83	-0.045603286
207	0x3bb57131	0.005537175
208	0xbdc0a5e2	-0.0940664
209	0xbce0ca4d	-0.027440215
210	0xbd33c36c	-0.04388754
211	0x3d875b7f	0.06609248
212	0x3d96d01f	0.07363915
213	0x3d8c5f35	0.06854097
214	0xbc2dadb1	-0.010600493
215	0xbda50557	-0.08057659
216	0xbe03c047	-0.12866317
217	0xbdb5d7b2	-0.08879031
218	0x3d9b38b4	0.07579175
219	0x3cc3b2ad	0.02388891
220	0xbd609e3e	-0.05483841
221	0xbd3b7afc	-0.045771584
222	0xbd258e7d	-0.04041909
223	0xbde9dab2	-0.11418666
224	0xbd1f5c86	-0.038906597
225	0xbd9e4a15	-0.07728974
226	0xbcbe638f	-0.023240833
227	0xbd9d6d12	-0.07686819
228	0xbdaae461	-0.08344341
229	0xbdcbc331	-0.09949339
230	0xbdda5c72	-0.10662164
231	0xbd80fc38	-0.06298107
232	0x3dab15ae	0.083537444
233	0x3dddd164	0.10830954
234	0x3c574f92	0.01314153
235	0x3c3b2f5d	0.0114248665
236	0x3c8683f6	0.016420346
237	0xbdbefc4b	-0.09325465
238	0x39aa2b29	0.00032457084
239	0x3d6c975d	0.05776154
240	0xbdcf7123	-0.10129001
241	0x3d5bb600	0.053640366
242	0xbd92b447	-0.071632914
243	0x3dddf5ae	0.10837875
244	0xbdd39092	-0.10330309
245	0xbd8b4360	-0.0679996
246	0xbd9f6962	-0.07783772
247	0x3dc7d4b0	0.09757364
248	0xbd077365	-0.033069033
249	0xbdd9ebfd	-0.10640714
250	0xbd1fa9b1	-0.03898019
251	0xbddb31f6	-0.10702889
252	0x3b57d4a8	0.003293315
253	0xbe07a9e9	-0.1324841
254	0xbc861ef1	-0.016372176
255	0x3b3ba999	0.0028635024

transformer.layers.0.self_attn.out_proj.bias f4 [64]
0	0x397b79df	0.00023982626
1	0xba7bcb46	-0.000960518
2	0x3a46bd0a	0.00075812696
3	0xbbcf05b5	-0.006317819
4	0xbbbdc460	-0.005791232
5	0xba1d191c	-0.00059928163
6	0xbb7c9b64	-0.0038544768
7	0xbb197912	-0.002341811
8	0xbbbb963e	-0.0057246974
9	0xbb9dc851	-0.0048151393
10	0x39ab334f	0.0003265389
11	0x3ba60f31	0.005067729
12	0xbb2a6c7a	-0.0026004598
13	0x3be92d7d	0.0071160183
14	0x3ba1f269	0.0049422276
15	0x3b2ab229	0.0026046133
16	0xbc02ae4e	-0.007976128
17	0x3b33d587	0.0027440505
18	0xbbc87dd6	-0.0061185164
19	0xbae75f69	-0.0017652336
20	0x3a042a35	0.000504169
21	0xbbb63ad3	-0.0055612116
22	0xb9009418	-0.000122622
23	0xbb31202f	-0.002702724
24	0xbb1671e5	-0.002295607
25	0x3bb7f12c	0.0056134667
26	0x3ac4f828	0.001502757
27	0x3b235af6	0.0024926043
28	0x3ab0ec0c	0.0013498082
29	0x3bc003b2	0.0058598155
30	0x3b26ac06	0.0025432124
31	0xb98cd2f4	-0.00026860053
32	0x3b6c8ea2	0.0036095758
33	0xba821fa9	-0.0009927648
34	0xbabd73de	-0.0014454087
35	0x3b89f523	0.004210131
36	0x3b8bee41	0.0042703454
37	0xbbd94480	-0.0066304803
38	0xbaf6a7a8	-0.0018818276
39	0x3a2627f8	0.0006338353
40	0x3ad60108	0.0016327212
41	0xbb0e3cf6	-0.0021703816
42	0x3c020522	0.007935794
43	0xbb723887	-0.0036959962
44	0x3bb6345a	0.00556044
45	0xbb9861f8	-0.0046503507
46	0xba667c7b	-0.0008792353
47	0xbb178cb8	-0.0023124646
48	0xbb854023	-0.0040664836
49	0x3b5abe28	0.0033377502
50	0x3aff99b8	0.0019500768
51	0xbaf9c3bd	-0.0019055527
52	0x3ba5c981	0.0050594215
53	0x3ae6b3f0	0.0017601233
54	0x3a69c278	0.0008917223
55	0x3bcd2e66	0.0062616346
56	0x3bd85c0f	0.006602771
57	0xbb78782e	-0.003791343
58	0x3af5d29b	0.0018754782
59	0xbbca2bb2	-0.0061697597
60	0xbb1503cd	-0.002273786
61	0x3a4a7d67	0.0007724375
62	0x3b05dae8	0.0020424668
63	0xbbb1179b	-0.0054044253

transformer.layers.0.linear1.weight f4 [256, 64]
0	0xbdfa2d2a	-0.122156456
1	0x3d67cf16	0.056593977
2	0x3dc9e4fa	0.09858127
3	0xbe007f71	-0.12548615
4	0xbcbb0930	-0.02283153
5	0xbd772090	-0.06033379
6	0xbde4f449	-0.11179406
7	0x3d9091bc	0.070590466
8	0x3c85b1ca	0.016320128
9	0x3ba796be	0.0051144054
10	0xbd6a9952	-0.057275124
11	0x3dbbea16	0.09175508
12	0x3c0a9dca	0.008460471
13	0x3daa678f	0.083205335
14	0xbd852886	-0.0650187
15	0xbd08c272	-0.033388563
16	0xbcfb454b	-0.03067269
17	0x3bad36a5	0.005286055
18	0x3d73f5f0	0.059560716
19	0x3d1d26ed	0.0383672
20	0x3ddc1e41	0.10747958
21	0x3d7562fc	0.059908852
22	0x3c723521	0.014783175
23	0x3c977dbd	0.018492574
24	0xbd5ffa13	-0.05468185
25	0x3db1a90f	0.086748235
26	0xbddbd233	-0.10733452
27	0xbc5aa9d2	-0.013346152
28	0x3dc0d2e4	0.09415224
29	0xbdfb4cd8	-0.12270516
30	0xbd04a826	-0.03238692
31	0xbddf660f	-0.10908138
32	0xbd935b10	-0.07195103
33	0x3da61eea	0.08111365
34	0xbda8a00b	-0.08233651
35	0x3d7400bc	0.059571013
36	0xbde75e72	-0.11297311
37	0x3dd11750	0.10209525
38	0xbdf97240	-0.121799946
39	0x3d9b07ce	0.07569848
40	0xbd7ceaa6	-0.061747216
41	0xbd4a0d3b	-0.049329024
42	0x3da7b86b	0.08189472
43	0xbd9caade	-0.07649778
44	0xbd965ce2	-0.07341935
45	0xbd07f84a	-0.03319577
46	0x3db5ff51	0.08886588
47	0xbda47865	-0.08030776
48	0xbd65c342	-0.056094415
49	0xbc81bfdb	-0.015838554
50	0xbdfdb662	-0.123883024
51	0x3d90de3b	0.07073637
52	0x3d1fa539	0.038975928
53	0xbdf3b2ed	-0.11899362
54	0xbd9b18f6	-0.0757312
55	0x3d71f5a8	0.059072167
56	0x3cee2e03	0.029074674
57	0x3d96b970	0.07359588
58	0x3c345365	0.011006211
59	0xbdd83cb0	-0.1055845
60	0x3dd03d38	0.101679265
61	0xbda12c1a	-0.0786974
62	0x3d44f080	0.04808092
63	0x3dada278	0.08478254
64	0xbcb5c398	-0.022187993
65	0xbdf8a73a	-0.12141271
66	0x3dcbed23	0.099573396
67	0xbdb9f403	-0.09079745
68	0xbcc70184	-0.024292715
69	0x3dc61217	0.09671419
70	0xbd60e3ad	-0.05490463
71	0xbc065249	-0.008198329
72	0x3b760d61	0.0037544596
73	0xbbec8d87	-0.00721902
74	0xbc87601e	-0.016525324
75	0xbdf7c91f	-0.12098908
76	0x3d604795	0.054755766
77	0x3d28cc5e	0.041210525
78	0xbd9096f5	-0.07060043
79	0xbd8e002f	-0.06933629
80	0x3da6ad03	0.08138468
81	0xbdbcc944	-0.09218076
82	0x3da586a9	0.08082325
83	0x3dfcb5b7	0.12339347
84	0xbdfb99f1	-0.12285221
85	0xbda919e5	-0.08256892
86	0x3cb64f32	0.02225456
87	0xbd615815	-0.055015642
88	0xbdf88f9f	-0.121367685
89	0x3dcd7076	0.10031216
90	0xbdfb2676	-0.12263195
91	0x3ddcaac1	0.10774756
92	0x3bb404ee	0.0054937517
93	0x3d4cf27e	0.050035946
94	0xbcf430ce	-0.029808428
95	0x3c3c9610	0.011510387
96	0xbcba8a09	-0.022770898
97	0x3d8592cc	0.0652214
98	0xbca9e281	-0.020737888
99	0xbda390f5	-0.07986633
100	0x3d59ac25	0.053142685
101	0xbd5b26d9	-0.053503845
102	0x3c1bc57b	0.009507532
103	0xbd974681	-0.073864944
104	0x3d55098d	0.05201106
105	0xbd9566da	-0.07295008
106	0xbd17442b	-0.036930244
107	0xbdbb7c4f	-0.09154569
108	0x3dec3234	0.11533013
109	0xba562e8c	-0.0008170388
110	0x3cfd9e13	0.030959165
111	0x3dcb77ba	0.099349454
112	0x3d50f8d0	0.051018536
113	0xbdb8d82c	-0.090256065
114	0x3def0d24	0.11672428
115	0x3d51a79c	0.051185235
116	0xbcef26ed	-0.029193366
117	0x3d56fb46	0.052485727
118	0xbd2b663b	-0.04184554
119	0x3d300f04	0.04298307
120	0x3c701daf	0.014655515
121	0x3e00317b	0.12518875
122	0xbc0678b0	-0.008207485
123	0xbdf4aa4f	-0.11946546
124	0x3d723fc0	0.059142828
125	0x3d739f9c	0.059478387
126	0xbd5c395f	-0.05376565
127	0x3c1c3147	0.009533233
128	0x3cceed64	0.025259681
129	0xbd0c4cf9	-0.034253094
130	0xbc1d77ac	-0.0096110515
131	0xbdeb6ac0	-0.1149497
132	0xbdae64cd	-0.0851532
133	0x3de4877a	0.111586526
134	0xb9f504ab	-0.0004673352
135	0xbbf233a8	-0.007391412
136	0xbaf713b3	-0.0018850475
137	0xbd82475a	-0.063612655
138	0x3d2b8e3c	0.041883692
139	0xbd26e5a3	-0.040746342
140	0x3d0118bd	0.031517733
141	0x3b8c5f9b	0.004283858
142	0xbd793d39	-0.060849402
143	0x3d80b0e7	0.062837414
144	0xbb6de00f	-0.003629688
145	0x3db97ef9	0.09057421
146	0xbc8048ad	-0.015659655
147	0xbdb0331a	-0.08603497
148	0x3dc42f3b	0.09579321
149	0x3da887f9	0.0822906
150	0xbdee88ad	-0.116471626
151	0xbd6822e6	-0.056673907
152	0xbdf29f33	-0.11846771
153	0x3cb7a54e	0.02241769
154	0xbc0a38f4	-0.00843643
155	0xbce9d97c	-0.028546087
156	0xbdd8ebc2	-0.10591842
157	0xbd2bc635	-0.04193707
158	0x3d9607b8	0.07325691
159	0x3aef8cde	0.0018276235
160	0x3d8446ab	0.06458791
161	0xbdce2a10	-0.100666165
162	0x3d35cd66	0.044385336
163	0xbddb6813	-0.1071321
164	0x3cbfc212	0.02340797
165	0x3db0e67e	0.08637713
166	0xbd597f57	-0.053099956
167	0xbdb2a0b3	-0.08722057
168	0xbd989ccc	-0.07451782
169	0xbd0e08c4	-0.03467633
170	0x3d50ed48	0.05100754
171	0x3c4f6440	0.012658179
172	0x3b1b522c	0.0023700101
173	0xbdf3c886	-0.11903481
174	0x3dae1fb7	0.08502143
175	0xbdba2049	-0.09088189
176	0x3d8806b4	0.066419035
177	0x3d3a17b1	0.04543275
178	0xbca664d8	-0.020311758
179	0x3de2edf8	0.11080545
180	0x3d80996a	0.062792614
181	0xbd0ca631	-0.03433818
182	0xbd9e7c75	-0.07738582
183	0x3c469283	0.012119892
184	0xbd451800	-0.04811859
185	0x3cb69095	0.022285739
186	0x3c68586d	0.014181239
187	0x3bc24c43	0.0059295013
188	0x3d958ce2	0.07302262
189	0xbd3dc1e0	-0.04632747
190	0x3cb2d95d	0.021832163
191	0xbdf589c8	-0.1198917
192	0x3dd4e3bf	0.103950016
193	0x3cbef931	0.023312183
194	0xbde085dd	-0.109630324
195	0x3dc53767	0.09629708
196	0xbcda65b6	-0.026659828
197	0xbd223c47	-0.039608266
198	0xbdce4d2b	-0.10073312
199	0xbde3993b	-0.11113211
200	0x3df48fc3	0.11941483
201	0x3db8f511	0.09031118
202	0x3df6ad18	0.12044734
203	0x3b001a45	0.0019546908
204	0xbda84dc3	-0.08217957
205	0xbd339c95	-0.0438505
206	0xbc80b1e7	-0.01570983
207	0x3d45f792	0.048331805
208	0xbdaa7be4	-0.083244115
209	0x3dfe0218	0.12402743
210	0x3d21364e	0.03935843
211	0x3d8c6097	0.068543606
212	0xbc452790	-0.012033358
213	0xbde36277	-0.11102765
214	0x3d8ea45a	0.06964941
215	0x3ca8d516	0.02060942
216	0x3d92e41e	0.07172416
217	0xbd505039	-0.050857756
218	0x3ddb6dee	0.10714327
219	0x3da77016	0.081756756
220	0x3da030a7	0.0782178
221	0xbd993174	-0.074801356
222	0xbd81a242	-0.06329776
223	0xbdaf08bf	-0.0854659
224	0xbd8064ac	-0.06269202
225	0x3cf8a341	0.030351283
226	0x3d8c8780	0.06861782
227	0x3da13cb0	0.07872903
228	0xbd972b79	-0.073813386
229	0xbdb37c51	-0.08763946
230	0xbd871f49	-0.06597764
231	0xbad0430e	-0.0015889124
232	0xbc942fb6	-0.018089157
233	0xbd04a3ca	-0.032382764
234	0xbd1cea1a	-0.038309194
235	0xbd64a0bb	-0.055817347
236	0xbaf4cca5	-0.0018676711
237	0xbdf7fe12	-0.12109007
238	0x3d84a9a2	0.064776674
239	0xbd389f4a	-0.045073785
240	0xbda6db1f	-0.08147263
241	0xbdc76457	-0.09735935
242	0x3da34fbb	0.07974192
243	0xbd76ca1d	-0.060251344
244	0xbd4c0eef	-0.04981893
245	0x3c67363f	0.014112054
246	0x3d813b83	0.06310179
247	0xbdcf85aa	-0.10132916
248	0xb7e9fa3a	-2.7892285e-05
249	0x3d3812eb	0.044939917
250	0xbd86e607	-0.06586843
251	0x3d94067b	0.072277986
252	0x3db5d38f	0.08878242
253	0xbd402625	-0.046911377
254	0xbd791d9c	-0.060819253
255	0xbcbd2491	-0.023088725

transformer.layers.0.linear1.bias f4 [256]
0	0x3c74a160	0.014931053
1	0x3c9d954c	0.01923623
2	0xbda41711	-0.08012212
3	0x3d4d8a84	0.050180927
4	0x3c06da4f	0.00823076
5	0xbc9d3eaf	-0.019194929
6	0xbd4e36f3	-0.050345372
7	0x3e01f402	0.12690738
8	0x3db0d5e7	0.08634549
9	0xbda36e99	-0.07980079
10	0x3d882771	0.06648148
11	0xbb551d3b	-0.0032518643
12	0x3dbdab39	0.09261174
13	0xbc9ed53c	-0.019388787
14	0x3dd92300	0.10602379
15	0xbd9970b4	-0.074921995
16	0xbdb71358	-0.089392364
17	0xbc8615d9	-0.01636784
18	0x3d7abc9c	0.06121503
19	0x3d02f339	0.031970236
20	0xbddceda0	-0.10787511
21	0x3dbed65a	0.09318228
22	0xbc3c1bad	-0.011481208
23	0x3dbede89	0.09319789
24	0xbdad6ff8	-0.08468622
25	0xbc9054ae	-0.017618503
26	0x3c8b8e1d	0.017035538
27	0x3c66ec49	0.014094421
28	0x3c4ec6c6	0.0126206335
29	0xbdb47747	-0.08811813
30	0xbb7ff954	-0.0039058523
31	0xbdddf4f3	-0.10837736
32	0xbd9fb4c0	-0.07798147
33	0xbd66e8b6	-0.056374274
34	0x3d9e7c53	0.07738557
35	0x3dd9484a	0.10609491
36	0x3d311672	0.043234296
37	0x3d420706	0.04736998
38	0x3dd57da1	0.104243524
39	0x3dfd1089	0.123566695
40	0xbdd3e9bc	-0.10347316
41	0x3d73058d	0.059331466
42	0xbdb53710	-0.08848393
43	0x3d4c3f06	0.04986479
44	0x3d6eda89	0.05831388
45	0x3de2478b	0.11048802
46	0xbde3f91b	-0.111314975
47	0x3d7e57c7	0.06209543
48	0xbd039212	-0.032121725
49	0x3d052eff	0.032515522
50	0x3cbeadb3	0.023276186
51	0x3d813978	0.063097894
52	0x3c78ccf9	0.015185588
53	0x3df12a83	0.117756866
54	0xbd61e1b1	-0.055146877
55	0x3dd7eb71	0.10542954
56	0xbc65ba69	-0.014021494
57	0x3db5508e	0.08853255
58	0xbd377693	-0.044790816
59	0x3cd30fdd	0.0257644
60	0x3d0127c4	0.031532064
61	0xbced4c84	-0.02896715
62	0x3d50fb9d	0.051021207
63	0x3dac93db	0.08426639
64	0x3d288445	0.041141767
65	0x3dd8dfc6	0.105895564
66	0x3d65f4d2	0.056141682
67	0x3d2ce2e1	0.042208556
68	0x3d7475e6	0.05968275
69	0xbc3eafca	-0.011638591
70	0x3db4c08d	0.08825789
71	0x3dca96fc	0.09892079
72	0xbdb353e7	-0.087562375
73	0xbd47904c	-0.048721597
74	0x3d76fb9d	0.06029855
75	0x3db7b5e7	0.08970242
76	0x3d99203c	0.07476851
77	0xbb716f84	-0.003684015
78	0x3c094faa	0.00838081
79	0x3ccf9cb3	0.025343275
80	0xbd8d202a	-0.068909004
81	0xbd627548	-0.05528763
82	0xbb867cef	-0.0041042487
83	0x3dda40b5	0.10656873
84	0xbd80a4a2	-0.06281401
85	0x3d79897d	0.060922135
86	0xbd6428fa	-0.05570314
87	0x3c591027	0.01324848
88	0xbd7633a1	-0.06010783
89	0xbc63622c	-0.0138783865
90	0x3d2bb9e3	0.041925322
91	0xbc42543e	-0.011860905
92	0xbd2e029e	-0.042482965
93	0xb73aa52e	-1.1124923e-05
94	0x3dae9348	0.085241854
95	0x3d88f2bb	0.06686922
96	0xbbd9fbfb	-0.006652353
97	0x3d1348d3	0.035958122
98	0xbb8053b5	-0.0039162287
99	0xbd2550c6	-0.040360235
100	0x3dc7d341	0.0975709
101	0xbdd8084a	-0.10548456
102	0x3d5d5973	0.054040384
103	0xbd00724d	-0.031359006
104	0x3bcc935f	0.006243154
105	0x3d6912d0	0.056902707
106	0xbc958f74	-0.01825688
107	0xbb540ce1	-0.003235631
108	0xbd2a17a5	-0.041526455
109	0xbd09664a	-0.033544816
110	0x3c9bc3f5	0.019014338
111	0x3bcd9cb4	0.006274784
112	0x3d012017	0.031524744
113	0x3d803912	0.06260885
114	0x3d579d3a	0.052640177
115	0xbdb0c1a8	-0.08630687
116	0xbb9f5be3	-0.0048632487
117	0xbd5b9734	-0.053610995
118	0xbd2bbfa7	-0.04193082
119	0xbd5c7834	-0.053825572
120	0xbca5a03e	-0.020218011
121	0xbcdcee24	-0.026969023
122	0x3d515ec1	0.051115755
123	0xbd51f24c	-0.051256463
124	0x3ae03bc2	0.0017107653
125	0x3d3b65aa	0.04575125
126	0x3db5c748	0.088759005
127	0xbd38724e	-0.045030884
128	0xbd882a2e	-0.0664867
129	0x3d59d55a	0.053181984
130	0xbd0352e2	-0.032061465
131	0xbdcc3cd7	-0.09972542
132	0x3d97b505	0.074075736
133	0xbcf2b7cb	-0.029628655
134	0xbd98cd76	-0.074610636
135	0xbda37a01	-0.07982255
136	0xbc283bf4	-0.0102682
137	0xbdeb240b	-0.11481484
138	0xbde46e7c	-0.11153886
139	0xbda6c782	-0.08143522
140	0x3cfd5300	0.030923367
141	0x3d6d74d4	0.057972744
142	0xbc456279	-0.0120474035
143	0x3ddba17d	0.10724161
144	0xbd95ea4d	-0.0732008
145	0xbd8467cd	-0.06465111
146	0x3df654bf	0.12027883
147	0xbdd6ff7e	-0.1049795
148	0xbdd8caf5	-0.10585586
149	0xbdd467b1	-0.1037134
150	0x3d8a3abd	0.06749485
151	0xbdc5790e	-0.0964223
152	0xbd26384c	-0.040581033
153	0xbdcb29a4	-0.09920052
154	0xbc69c245	-0.014267509
155	0xbca7d47f	-0.020487068
156	0x3ce41c48	0.027845517
157	0x3d920f77	0.07131856
158	0x3dbac7a4	0.0912011
159	0xbd8ec000	-0.06970215
160	0xbc1e6464	-0.00966749
161	0xbdba8c2f	-0.09108769
162	0x3d924fdc	0.07144138
163	0x3d84d012	0.06484999
164	0x3d240c48	0.040050775
165	0x3c9bdb14	0.019025363
166	0xbdb74085	-0.08947853
167	0x3da369e2	0.0797918
168	0xbddd0e45	-0.10793737
169	0x3dcb89ff	0.0993843
170	0x3da5e0b0	0.08099496
171	0x3df3b5c9	0.11899907
172	0xbd7ce381	-0.061740402
173	0xbd23230f	-0.039828356
174	0xbd5efb4d	-0.054438878
175	0xbddd4101	-0.10803414
176	0xbc73a68a	-0.014871249
177	0x3d958e6c	0.073025554
178	0xbc7475e7	-0.014920688
179	0xbd8bcfec	-0.06826767
180	0xbd2d1d11	-0.042264048
181	0xbc8ede07	-0.017439855
182	0xbd10f1fd	-0.035387028
183	0x3dc6e992	0.09712519
184	0x3c3fb5e9	0.011701086
185	0x3d775e5d	0.060392726
186	0xbc594111	-0.013260142
187	0x3d9d33ed	0.0767592
188	0x3dd1dbb9	0.10246987
189	0x3df88173	0.121340655
190	0x3ddec74b	0.10877856
191	0xbd079fe0	-0.033111453
192	0xbe001fa4	-0.1251207
193	0x3d928bd8	0.07155579
194	0x3cc0ebb2	0.023549888
195	0xbdc5a24b	-0.096500956
196	0xbdbf1c29	-0.09331543
197	0xbd8e35c5	-0.069438495
198	0x3db6edb6	0.089320585
199	0xbd47811e	-0.04870712
200	0xbd891de0	-0.06695151
201	0xbe04bc2c	-0.12962407
202	0xbcafdbab	-0.02146705
203	0xbd8abc3c	-0.06774184
204	0x3da1b5ff	0.07896041
205	0x3b68df4d	0.0035533488
206	0x3dc058be	0.09391926
207	0xbcca9322	-0.024728362
208	0x3d95fb91	0.07323373
209	0x3cb0a97c	0.021565191
210	0xbdce7592	-0.100810185
211	0xbd9f7efd	-0.07787893
212	0x3d23a97b	0.03995655
213	0x3dae914f	0.08523809
214	0x3dbef550	0.093241334
215	0x3d0f9424	0.035053387
216	0xbd47cb53	-0.04877789
217	0x3c7810f2	0.015140759
218	0x3d62c098	0.055359453
219	0xbc8a0ba9	-0.016851263
220	0x3df5094c	0.11964664
221	0xbd3fc357	-0.04681715
222	0x3c761af4	0.015021075
223	0xbdf85131	-0.12124861
224	0x3cedb712	0.029017959
225	0x3dda1fe5	0.10650615
226	0x3db7a2e9	0.089666195
227	0x3d6614aa	0.05617205
228	0xbdb16c90	-0.08663285
229	0xbdbb2b89	-0.09139163
230	0x3d379e23	0.044828545
231	0xb9354256	-0.00017286217
232	0x3dd0f207	0.10202413
233	0xbd860437	-0.06543773
234	0x3b9d426c	0.004799178
235	0xbd895bbb	-0.06706949
236	0x3dd2a2b4	0.102849394
237	0x3dc01d3e	0.093805775
238	0xbd828fa3	-0.06375053
239	0xbbae76a8	-0.0053242035
240	0xbde933f6	-0.11386864
241	0xbb4a40a3	-0.003086128
242	0xbda99e75	-0.082821764
243	0x3dba3cac	0.090936035
244	0x3b96512a	0.004587312
245	0x3d0f8653	0.03504021
246	0xbdccaee0	-0.09994292
247	0xbdef8482	-0.11695196
248	0x3d889c83	0.06670477
249	0x3de95bdd	0.11394475
250	0xbd3190df	-0.04335105
251	0xbe00c5d5	-0.12575467
252	0xbd6ebdc4	-0.058286443
253	0xbbcc752a	-0.006239553
254	0x3c637286	0.013882285
255	0x3d312d97	0.04325637
