models/sasrec_best.pt (torch, 435607 bytes, 28 tensors)

item_embedding.weight f4 [21, 64]
0.0 0.0 0.0 0.0 0.0 0.0 0.0 0.0
0.0 0.0 0.0 0.0 0.0 0.0 0.0 0.0
0.0 0.0 0.0 0.0 0.0 0.0 0.0 0.0
0.0 0.0 0.0 0.0 0.0 0.0 0.0 0.0
0.0 0.0 0.0 0.0 0.0 0.0 0.0 0.0
0.0 0.0 0.0 0.0 0.0 0.0 0.0 0.0
0.0 0.0 0.0 0.0 0.0 0.0 0.0 0.0
0.0 0.0 0.0 0.0 0.0 0.0 0.0 0.0
0.18275523 -0.09940153 -0.6906772 0.23299158 -0.3618667 -0.050725475 0.17963243 -0.3865192
-2.3924787 -0.7599879 1.5257262 0.8191183 -0.2370368 -0.28623456 -1.6071738 -0.91949123
0.47679132 0.014687586 0.5905065 0.83461803 1.5590649 -0.24638024 1.7072331 0.9524889
-0.34594816 -0.106908314 0.82886904 -0.65072453 0.783424 -0.19572046 -0.97055596 0.816575
0.9512092 1.8495427 -1.5297177 -0.22286291 -0.062005002 0.0074984226 -0.6350275 -0.39549008
-0.717357 -1.1046221 0.6716808 -0.5267621 1.060259 1.950834 2.6516907 1.0278727
0.7988634 -1.1216913 -0.80147403 -0.005349146 0.34803006 -1.6216931 -0.088349484 -1.0179523
-0.2601748 0.40823483 -1.6720011 1.6352544 -0.014197658 -0.08660156 -0.76951975 1.6708361
-1.1868243 0.61737084 -0.15636918 -1.027334 -0.79217154 0.4115825 0.3520617 0.5600148
1.1411774 -0.9635122 0.5127724 -1.7914275 0.45009166 0.73597705 -0.9042438 0.009115437
0.008984185 0.0035405923 0.38714778 -1.0219947 0.7240592 0.2854746 0.20644094 1.5908022
-2.37337 1.7548492 -0.48130816 0.94267136 1.0358564 -0.047068454 -1.1936057 -0.20158343
-1.7129134 0.9498211 0.81675 0.088060394 -0.94768155 -1.1044006 -0.5901688 -1.2088147
0.062697314 0.16392925 0.8009536 -0.4266362 -0.81108594 0.17635627 0.5976275 -0.37746623
0.26624873 -0.7019674 -0.3240953 1.5463543 1.8987821 -0.93288684 0.451049 -0.8461008
0.18295367 0.1318545 -1.1716944 1.0221103 1.3955913 -1.2876782 1.0726293 -0.7045717
-2.5856082 0.38102433 -0.5482533 -1.461927 0.87879914 -0.6611731 0.44368014 1.053422
0.68282413 -2.4421659 -0.4800711 0.73770714 -1.2109804 -2.2002819 3.365754 -0.6720177
0.44014063 -0.34549055 0.28323025 1.4913287 -0.8241963 0.8873243 -3.3542583 0.61354625
0.08227685 0.22386126 -1.1311964 -0.94700706 -0.18463348 -0.7892002 -0.20172916 -1.3124284
-0.024412967 1.1492631 2.0325592 1.1855388 -0.09513649 -0.037199657 1.1578614 -1.9903711
0.7579521 1.3234233 0.41490945 -1.7081516 0.90332144 0.10911752 1.0178467 0.64280695
-0.34840617 -0.1073892 1.2311586 0.47753936 -0.61854297 -0.849444 0.7676429 -1.30985
-0.18996602 0.74543476 -2.538945 -0.44496763 0.7379467 0.5475959 -1.0979613 0.81333387
00000000: 0000 0000 0000 0000 0000 0000 0000 0000
00000010: 0000 0000 0000 0000 0000 0000 0000 0000
00000020: 0000 0000 0000 0000 0000 0000 0000 0000
00000030: 0000 0000 0000 0000 0000 0000 0000 0000
00000040: 0000 0000 0000 0000 0000 0000 0000 0000
00000050: 0000 0000 0000 0000 0000 0000 0000 0000
00000060: 0000 0000 0000 0000 0000 0000 0000 0000
00000070: 0000 0000 0000 0000 0000 0000 0000 0000
00000080: 0000 0000 0000 0000 0000 0000 0000 0000
00000090: 0000 0000 0000 0000 0000 0000 0000 0000
000000a0: 0000 0000 0000 0000 0000 0000 0000 0000
000000b0: 0000 0000 0000 0000 0000 0000 0000 0000
000000c0: 0000 0000 0000 0000 0000 0000 0000 0000
000000d0: 0000 0000 0000 0000 0000 0000 0000 0000
000000e0: 0000 0000 0000 0000 0000 0000 0000 0000
000000f0: 0000 0000 0000 0000 0000 0000 0000 0000
00000100: 3024 3b3e 0893 cbbd 39d0 30bf 5895 6e3e
00000110: 9846 b9be 84c5 4fbd 90f1 373e d8e5 c5be
00000120: 5f1e 19c0 918e 42bf ff4a c33f bdb1 513f
00000130: c6b9 72be 568d 92be dfb7 cdbf c763 6bbf
00000140: fe1d f43e 33a4 703c 6f2b 173f 87a9 553f
00000150: 708f c73f 1a4b 7cbe 9d86 da3f 50d6 733f
00000160: 1e20 b1be bff2 dabd c330 543f e295 26bf
00000170: 7a8e 483f f26a 48be 5b76 78bf 0f0b 513f
00000180: 7282 733f d1bd ec3f cacd c3bf 2d36 64be
00000190: f5f8 7dbd 54b5 f53b 2a91 22bf ad7d cabe
000001a0: b5a4 37bf 4264 8dbf 46f3 2b3f e2d9 06bf
000001b0: 91b6 873f eeb4 f93f 4db5 2940 5591 833f
000001c0: 5082 4c3f 9593 8fbf 672d 4dbf e447 afbb
000001d0: ff30 b23e a493 cfbf 93f0 b4bd 434c 82bf
000001e0: a235 85be 2804 d13e 2204 d6bf 0450 d13f
000001f0: 4b9d 68bc 295c b1bd 3fff 44bf f5dd d53f
00000200: dce9 97bf 040c 1e3f 3e1f 20be ae7f 83bf
00000210: c1cb 4abf f1ba d23e 6e41 b43e 215d 0f3f
00000220: 1a12 923f bca8 76bf 0d45 033f 7f4d e5bf
00000230: 6a72 e63e fe68 3c3f 867c 67bf ea58 153c
00000240: 6732 133c 4809 683b 3c38 c63e b9d0 82bf
00000250: f25b 393f ba29 923e 4165 533e 689f cb3f
00000260: 4be5 17c0 e69e e03f 066e f6be e952 713f
00000270: f196 843f daca 40bd 12c8 98bf e36b 4ebe
00000280: bf40 dbbf 7a27 733f 8716 513f 0259 b43d
00000290: 429b 72bf 005d 8dbf 4d15 17bf 71ba 9abf
000002a0: 7367 803d 12dd 273e 4c0b 4d3f 0f70 dabe
000002b0: 54a3 4fbf bd96 343e 1efe 183f 4143 c1be
000002c0: c151 883e 23b4 33bf d2ef a5be f0ee c53f
000002d0: 4b0b f33f acd1 6ebf e5ef e63e 109a 58bf
000002e0: 3558 3b3e de04 073e 15fa 95bf 83d4 823f
000002f0: bca2 b23f a4d2 a4bf eb4b 893f d05e 34bf
00000300: 9b7a 25c0 9f15 c33e 545a 0cbf 6d20 bbbf
00000310: fbf8 603f a442 29bf 0b2a e33e 88d6 863f
00000320: 90cd 2e3f 724c 1cc0 e1cb f5be 60da 3c3f
00000330: 6801 9bbf 6bd1 0cc0 8368 5740 5a09 2cbf
00000340: 1d5a e13e 23e4 b0be 8e03 913e dce3 be3f
00000350: 87fe 52bf af27 633f 2bac 56c0 5e11 1d3f
00000360: c480 a83d e33b 653e 0bcb 90bf 0e6f 72bf
00000370: 8f10 3dbe 0609 4abf 1792 4ebe a7fd a7bf
00000380: b4fd c7bc 0e1b 933f 7315 0240 bcbf 973f
00000390: ecd6 c2bd ab5e 18bd cd34 943f 7bc4 febf
000003a0: 2609 423f ef65 a93f 036f d43e b6a4 dabf
000003b0: 1340 673f 0279 df3d cd48 823f ff8e 243f
000003c0: 4b62 b2be deee dbbd 9b96 9d3f 0a80 f43e
000003d0: d558 1ebf 2975 59bf 3f84 443f 2aa9 a7bf
000003e0: 7486 42be d0d4 3e3f 137e 22c0 ccd2 e3be
000003f0: 13ea 3c3f 3f2f 0c3f ff89 8cbf a636 503f

pos_embedding.weight f4 [50, 64]
1.2601131 0.28114304 0.08349835 -1.4588047 -0.3644961 -0.57990026 -0.7135444 -0.09559599
-0.36583403 0.20099343 2.1550276 -0.6360154 -0.42131814 0.5457977 -2.8816693 0.23117352
0.6985735 0.85891765 0.66286796 -0.2223756 -1.2346447 0.06405045 -0.547902 1.6906531
-0.28176123 0.75186944 -1.2205415 0.71522534 -0.81325775 1.5505772 -2.215344 -0.28496385
-0.10731889 1.277 -0.18765096 0.5049102 0.22954892 -2.595346 1.152133 -1.1828585
0.11888051 -0.8136504 1.7510595 -1.6738153 -0.5008963 1.2273574 -0.9446341 -0.21793914
0.60461015 -0.5045048 -1.4580883 -2.024468 -1.0903932 -2.0827715 0.022716975 0.49276853
0.71774244 0.28638646 1.1781912 -0.14417757 -0.07819234 0.9760715 0.13443092 -0.30582395
-0.31638864 0.9141704 0.3873966 -1.5127845 0.4489884 0.6234453 0.6509298 1.372239
-0.6315887 0.51948184 1.9346597 -1.3929875 0.022747526 0.16377379 -0.22848214 -0.97598296
-0.95626456 1.767935 1.0669616 0.84339625 0.82193977 0.2247037 -0.23899338 -0.85517204
-0.5459087 -0.8878127 -0.08573533 0.1797137 0.408497 -0.03400155 0.3421942 -2.0837083
-0.5560778 1.6454635 -0.3098844 -0.7777242 0.7480944 -0.239607 0.11596549 -0.10707039
1.0916259 0.10483502 1.0335959 0.543881 -0.37977138 1.0175415 0.5082872 0.8395372
1.3441882 -0.5342646 0.53784287 1.3147502 1.6946455 -0.37979144 1.2843145 -0.049411707
-0.3329577 0.2074735 -0.55600744 -0.8725399 0.75387573 0.38022402 -0.6985828 0.39998648
-1.2601974 0.22600223 -0.7052378 0.35645765 -0.8176844 -1.0364243 1.2949136 1.0217012
-0.6622582 -0.029895447 0.23750353 -0.28008854 3.258531 1.622682 1.0983876 -1.296942
-0.9513594 1.4798601 -1.1240429 -0.24404497 -0.29018837 -0.9208343 0.53459215 -0.030625325
1.3233349 2.3110597 0.23038138 -0.49908495 -1.3438448 0.36064836 -0.9118969 1.4938726
-0.6762368 0.61437005 0.44565925 1.1672515 -0.46110973 1.3013866 0.19413091 -1.0723534
0.70590395 -0.8656749 1.1959034 -0.17645147 0.03163313 -0.6153666 0.6137917 -1.3631903
-0.47054002 -0.8362274 0.042983014 -1.2686975 2.060717 0.37702045 0.58034027 0.9302799
0.39822227 -1.8326774 -0.032172747 1.3621283 -0.37862605 0.67171633 -0.1915169 -0.98022795
-0.082141705 -0.26240286 -0.09059636 -0.4659056 -0.021292353 -0.89406943 0.54724485 -1.3838419
0.8078906 -0.09597024 -0.2553369 0.46018657 0.6314205 2.5223699 0.2648714 0.28845337
-1.3852289 -1.3308367 0.92234164 -0.67309946 -0.21379368 0.72362614 0.97980624 0.15641831
0.14383774 0.100837685 -0.7799451 1.1114572 -1.0536013 -1.5635631 0.9686725 1.0021727
0.027525207 -0.037180774 -1.0028142 -1.4355967 1.1477643 0.60640615 -0.36753237 -0.34807965
0.28955945 -1.2033293 1.6627318 0.6823996 0.17080162 0.006512068 -0.34183973 -0.8892901
-2.1647718 -0.32235783 0.1063122 -0.4780775 0.27105823 -1.6224324 1.7150226 -0.5242952
-0.14580415 0.66161054 2.2653973 0.61232096 -1.0083635 1.0655068 -1.3951074 0.40195993
00000000: 634b a13f fbf1 8f3e 2f01 ab3d 1dba babf
00000010: 3c9f babe 5874 14bf d9aa 36bf d5c7 c3bd
00000020: 994e bbbe 39d1 4d3e f9eb 0940 e8d1 22bf
00000030: 03b7 d7be 66b9 0b3f 456d 38c0 c0b8 6c3e
00000040: b7d5 323f 07e2 5b3f b7b1 293f 6eb6 63be
00000050: d608 9ebf e22c 833d 4e43 0cbf 5267 d83f
00000060: 0243 90be 847a 403f b43a 9cbf 0219 373f
00000070: a931 50bf 5079 c63f 32c8 0dc0 c8e6 91be
00000080: 02ca dbbd bc74 a33f 9327 40be cb41 013f
00000090: df0e 6b3e 261a 26c0 1879 933f e867 97bf
000000a0: a077 f33d 654b 50bf b822 e03f 943f d6bf
000000b0: bd3a 00bf 0c1a 9d3f 8ad3 71bf 702b 5fbe
000000c0: bbc7 1a3f 3a27 01bf a3a2 babf e290 01c0
000000d0: 0192 8bbf 214c 05c0 f318 ba3c 284c fc3e
000000e0: f8bd 373f 3fa1 923e f8ce 963f 49a3 13be
000000f0: 4e23 a0bd d2df 793f 42a8 093e f594 9cbe
00000100: b1fd a1be 1207 6a3f d958 c63e eca2 c1bf
00000110: cfe1 e53e 1c9a 1f3f 56a3 263f 87a5 af3f
00000120: ccaf 21bf c3fc 043f eea2 f73f 6a4d b2bf
00000130: 0559 ba3c 51b4 273e 39f7 69be 05da 79bf
00000140: c1cd 74bf b24b e23f 3392 883f d1e8 573f
00000150: a56a 523f ba18 663e aeba 74be 8eec 5abf
00000160: acc0 0bbf b147 63bf 0196 afbd de06 383e
00000170: 8526 d13e 3645 0bbd 1434 af3e 7a5b 05c0
00000180: 1d5b 0ebf 8c9e d23f 2ba9 9ebe ef18 47bf
00000190: 1d83 3f3f 8a5b 75be 517f ed3d b847 dbbd
000001a0: 66ba 8b3f beb3 d63d df4c 843f c93b 0b3f
000001b0: 6571 c2be cd3e 823f 1c1f 023f e9eb 563f
000001c0: 5c0e ac3f 91c5 08bf 12b0 093f bc49 a83f
000001d0: 25ea d83f 0674 c2be 6b64 a43f ee63 4abd
000001e0: 6f79 aabe ef73 543e 8156 0ebf c65e 5fbf
000001f0: 00fe 403f b9ac c23e 53d6 32bf 07cb cc3e
00000200: 264e a1bf 216d 673e 778a 34bf 9e81 b63e
00000210: c453 51bf 8da9 84bf bbbf a53f 1bc7 823f
00000220: c189 29bf 4ce7 f4bc 2034 733e c467 8fbe
00000230: c68b 5040 0bb4 cf3f f797 8c3f 3202 a6bf
00000240: 4a8c 73bf 0e6c bd3f a3e0 8fbf ede6 79be
00000250: 9293 94be ccbb 6bbf 08db 083f f6e1 fabc
00000260: 0a63 a93f 67e8 1340 19e9 6b3e 1088 ffbe
00000270: 1b03 acbf e7a6 b83e 1372 69bf 3837 bf3f
00000280: db1d 2dbf 5b47 1d3f 732d e43e 7f68 953f
00000290: 9316 ecbe d693 a63f 41ca 463e e042 89bf
000002a0: 1fb6 343f df9c 5dbf 5d13 993f b2af 34be
000002b0: be91 013d aa88 1dbf 7421 1d3f 057d aebf
000002c0: 9fea f0be 0013 56bf f50e 303d ae64 a2bf
000002d0: cae2 0340 d308 c13e 2e91 143f d326 6e3f
000002e0: cae3 cb3e 2c95 eabf 92c7 03bd 385a ae3f
000002f0: 46db c1be 9af5 2b3f 021d 44be 38f0 7abf
00000300: e939 a8bd ab59 86be 968a b9bd 2e8b eebe
00000310: 4d6d aebc bce1 64bf 3d18 0c3f bb21 b1bf
00000320: ebd1 4e3f 0c8c c4bd 85bb 82be 939d eb3e
00000330: c6a4 213f 826e 2140 399d 873e 29b0 933e
00000340: 2e4f b1bf db58 aabf 951e 6c3f 3f50 2cbf
00000350: bbec 5abe 903f 393f 95d4 7a3f 1f2c 203e
00000360: 334a 133e fd83 ce3d 7baa 47bf 3b44 8e3f
00000370: 68dc 86bf d622 c8bf ecfa 773f 3247 803f
00000380: 8b7c e13c de4a 18bd 375c 80bf a2c1 b7bf
00000390: f1e9 923f 6f3d 1b3f 342d bcbe 7f37 b2be
000003a0: 2341 943e b206 9abf 65d4 d43f bdb1 2e3f
000003b0: 9fe6 2e3e 3063 d53b 9e05 afbe 84a8 63bf
000003c0: 9f8b 0ac0 160c a5be 36ba d93d 93c6 f4be
000003d0: 25c8 8a3e ddab cfbf dc85 db3f 3638 06bf
000003e0: af4d 15be 4f5f 293f 45fc 1040 11c1 1c3f
000003f0: 0e12 81bf 8762 883f e192 b2bf b1cd cd3e

transformer.layers.0.self_attn.in_proj_weight f4 [192, 64]
0.13471018 0.1415789 -0.018925771 0.08839635 -0.084125005 -0.01815031 -0.052092135 0.11512561
-0.10302381 0.05470438 0.012268472 -0.097134754 0.07416211 0.0017459635 0.077357344 -0.04201799
0.14689438 -0.030396454 0.087095164 -0.028059464 0.046218697 0.10122968 -0.041951817 0.022175098
-0.15647604 -0.045989197 0.12146817 -0.121004865 0.14277731 0.10509696 -0.094182 0.1015917
-0.03309709 0.010618119 0.1374794 -0.06274981 0.124392845 -0.04106918 0.08873201 -0.067261346
-0.009711187 -0.0073892176 0.0724399 -0.11226287 0.04462957 -0.010282061 0.10539006 0.09278757
-0.026949722 -0.08302961 -0.013570148 0.11116375 -0.15200861 -0.030546365 0.05588571 0.13534838
-0.08486957 0.08131798 -0.030014064 0.061611112 -0.12239215 0.09357323 -0.09867134 -0.0063175135
-0.009818715 -0.13888252 0.057537075 -0.05401608 0.14729637 -0.039702587 -0.11811059 -0.11968553
0.13470404 -0.083435446 -0.1337737 0.13343371 0.14857095 -0.122725695 0.027142614 0.07003406
0.11278405 0.1379531 0.12869118 -0.11437402 -0.040137723 -0.079467796 0.05598511 0.14325848
0.06808337 -0.15162303 0.15885676 0.10255699 0.13624652 -0.03566123 0.043031383 -0.034022562
-0.011173772 -0.106368355 0.057349533 -0.010976975 0.107453905 0.15765247 0.06905362 0.033052683
-0.08835603 0.002262946 0.08686994 -0.016002862 -0.0019075416 -0.029914998 0.122158065 -0.14099176
-0.112028174 -0.06386676 0.11171803 -0.049118277 -0.059202828 0.14531025 -0.096160725 0.1334107
0.0053261076 -0.12925127 -0.08154638 -0.031867743 -0.12862822 -0.063284285 0.045957565 -0.03272582
0.11995311 -0.032220192 0.023604404 0.067209266 0.1354471 0.063605204 -0.04379153 -0.10578365
0.027259948 0.0021869647 0.058188166 0.046460707 0.11989996 -0.07831917 -0.01927284 -0.03220048
0.059063282 0.0753566 0.10684307 -0.0058543254 0.10235652 0.10708416 0.047215946 0.10094436
0.04074501 -0.15717229 -0.10778945 0.04246403 -0.030761989 0.09504093 0.07253942 0.09691917
-0.12724485 -0.08724656 0.021177763 -0.11621728 -0.043797404 -0.099312305 0.08257731 -0.13994104
-0.109584846 0.15519148 -0.013362795 0.047957513 0.018498452 0.13437408 -0.09344579 -0.015463373
-0.14435543 -0.027876783 0.10481842 0.12909049 -0.056831874 -0.0852065 0.13368244 0.11736188
0.10778821 -0.010530842 -0.04294156 -0.079858564 0.11825883 0.039288994 -0.009041552 -0.02882341
0.090313315 -0.1456411 -0.12644558 0.09829898 -0.053908866 0.054887503 0.06842256 0.1233866
-0.14622419 0.068669885 -0.11251464 0.08501951 -0.038744546 -0.043889355 0.12482528 0.09722145
0.054365523 -0.09042159 -0.03782924 0.15713094 0.029021157 0.085235454 -0.15577209 0.084317975
-0.061295602 -0.09307508 -0.054589003 0.08294546 -0.13318022 0.111513816 -0.11173817 0.024342613
-0.10875337 0.07800566 0.058392394 0.07350822 -0.016661584 -0.15097758 -0.036568597 0.08316688
0.0015570121 0.02381438 0.1413766 -0.11746755 0.0733579 -0.14207098 -0.02484312 0.10983104
0.00025140741 0.06566792 0.07840841 0.097642116 -0.05894561 0.045259833 -0.034998823 -0.06624721
0.12575857 0.12435681 0.058556877 0.09088197 -0.090549916 0.0992979 -0.062114105 -0.0890463
00000000: 77f1 093e 0ffa 103e 380a 9bbc 2509 b53d
00000010: bb49 acbd f5af 94bc 905e 55bd fac6 eb3d
00000020: 26fe d2bd b311 603d b401 493c 96ee c6bd
00000030: 4ee2 973d d0d8 e43a 876d 9e3d 0e1b 2cbd
00000040: 7b6b 163e fc01 f9bc f35e b23d f6dc e5bc
00000050: d14f 3d3d 8251 cf3d abd5 2bbd 8da8 b53c
00000060: 413b 20be 2b5f 3cbd 4ec4 f83d 66d1 f7bd
00000070: 3734 123e 133d d73d 7ee2 c0bd 4f0f d03d
00000080: d090 07bd 9ef7 2d3c 66c7 0c3e f982 80bd
00000090: adc1 fe3d 2838 28bd 21b9 b53d 51c0 89bd
000000a0: ac1b 1fbc 4021 f2bb 5f5b 943d 13ea e5bd
000000b0: 7fcd 363d 1776 28bc bed6 d73d 6907 be3d
000000c0: aac5 dcbc 6e0b aabd 5355 5ebc d2a9 e33d
000000d0: 25a8 1bbe 5f3c fabc 6ae8 643d c498 0a3e
000000e0: 19d0 adbd 0b8a a63d 0ee0 f5bc ef5b 7c3d
000000f0: bca8 fabd 52a3 bf3d 3314 cabd 2503 cfbb
00000100: adde 20bc 3837 0ebe ffab 6b3d f73f 5dbd
00000110: dcd4 163e 2e9f 22bd f7e3 f1bd b01d f5bd
00000120: dbef 093e 34e0 aabd f9fb 08be d9a2 083e
00000130: fc22 183e 9c57 fbbd 305a de3c 046e 8f3d
00000140: 53fb e63d 9443 0d3e 9fc7 033e ed3c eabd
00000150: 7467 24bd 03c0 a2bd a550 653d 5ab2 123e
00000160: 4b6f 8b3d 1143 1bbe 59ab 223e 6609 d23d
00000170: 3584 0b3e 8311 12bd ad41 303d 3e5b 0bbd
00000180: 3212 37bc a7d7 d9bd 58e7 6a3d c5d8 33bc
00000190: cb10 dc3d a66f 213e fc6b 8d3d 4062 073d
000001a0: 02f4 b4bd ef4d 143b dee8 b13d 6f18 83bc
000001b0: 7a06 faba 4c10 f5bc 022e fa3d 2560 10be
000001c0: 076f e5bd 93cc 82bd 6ccc e43d 3f30 49bd
000001d0: aa7e 72bd 36cc 143e eaef c4bd d19c 083e
000001e0: a186 ae3b 725a 04be ca01 a7bd c087 02bd
000001f0: 1eb7 03be 319b 81bd 003e 3c3d 820b 06bd
00000200: faa9 f53d 52f9 03bd 065e c13c 03a5 893d
00000210: a5b2 0a3e 7243 823d bf5e 33bd 19a5 d8bd
00000220: 4150 df3c 2e53 0f3b b756 6e3d 954d 3e3d
00000230: 1c8e f53d cd65 a0bd 13e2 9dbc a7e4 03bd
00000240: 57ec 713d 9054 9a3d 8ad0 da3d a4d5 bfbb
00000250: 4ca0 d13d f14e db3d 8265 413d ebbb ce3d
00000260: 3de4 263d c6f1 20be b7c0 dcbd c3ee 2d3d
00000270: 9100 fcbc d2a4 c23d 8c8f 943d 8f7d c63d
00000280: 794c 02be 53ae b2bd fd7c ad3c 5303 eebd
00000290: e864 33bd 4064 cbbd 4b1e a93d b44c 0fbe
000002a0: 056e e0bd 84ea 1e3e a0ef 5abc 196f 443d
000002b0: 118a 973c 5c99 093e 8260 bfbd 165a 7dbc
000002c0: e9d1 13be da5d e4bc 0aab d63d 4c30 043e
000002d0: 8ac8 68bd bf80 aebd 0de4 083e 6d5b f03d
000002e0: 11c0 dc3d 8d89 2cbc 7de3 2fbd e38c a3bd
000002f0: af31 f23d 7fed 203d 0523 14bc 121f ecbc
00000300: 30f6 b83d f122 15be f37a 01be fa50 c93d
00000310: 8bcf 5cbd b8d1 603d 2121 8c3d 1db2 fc3d
00000320: cbbb 15be cca2 8c3d 136e e6bd b51e ae3d
00000330: 9ab2 1ebd 53c5 33bd 65a4 ff3d 0a1c c73d
00000340: 62ae 5e3d f42e b9bd d5f2 1abd efe6 203e
00000350: c7bd ed3c ed8f ae3d b882 1fbe e7ae ac3d
00000360: 1911 7bbd 269e bebd b898 5fbd 4fdf a93d
00000370: 6560 08be 5b61 e43d fbd6 e4bd 296a c73c
00000380: 16ba debd 6ec1 9f3d dd2c 6f3d 7a8b 963d
00000390: e07d 88bc de99 1abe f4c8 15bd 6653 aa3d
000003a0: a814 cc3a 6016 c33c 07c5 103e d492 f0bd
000003b0: ab3c 963d 0e7b 11be cc83 cbbc 19ef e03d
000003c0: 55cf 8339 e77c 863d 9794 a03d 97f8 c73d
000003d0: f470 71bd 6062 393d ed5a 0fbd 9eac 87bd
000003e0: dbc6 003e c8ae fe3d 56d9 6f3d 5420 ba3d
000003f0: 3c72 b9bd b35c cb3d 5c6b 7ebd e85d b6bd

transformer.layers.0.self_attn.in_proj_bias f4 [192]
-0.004259498 0.0023085189 0.0066137277 -0.0008307684 0.0024986623 -0.0063809096 0.005131592 -0.0064999186
0.0055799624 0.0009972787 -0.005874074 -0.0036720978 -0.0056860438 -0.0013905893 -0.006599994 0.0072612385
0.00061809446 0.002500508 -0.0025414964 -0.00836984 -0.00047085434 -0.0037233902 -0.0031705005 0.0015858058
-0.0014126293 -0.0023171562 0.0040933406 0.0027457979 -0.0011015284 -0.008328691 -0.0014618599 0.0029381942
0.0017493874 0.003960287 -0.0073378296 -0.0017446317 0.0056450274 0.004396171 0.007557617 -0.005444543
0.0039087697 -0.0071617486 -0.0001318183 -0.0073194425 -0.003174491 -0.0045839297 -0.0016180157 0.007321406
-0.0055899727 -0.001773405 0.0024192273 0.0065125297 -0.0024627396 0.0010287702 0.002562687 -0.00303647
-0.006140448 0.0019505845 0.0031736149 -0.0036224518 -0.0028336325 0.0059384303 -9.486207e-05 -0.0052293036
-4.0820665e-05 7.979337e-06 3.1940446e-05 1.752565e-05 1.30808585e-05 2.073268e-05 1.2575718e-05 -5.9125105e-05
-3.2445238e-05 2.3386997e-06 3.3941717e-05 2.7673324e-05 1.9991281e-05 1.2530361e-05 1.9070874e-06 -7.885121e-06
-7.389532e-07 -4.5469706e-06 -7.877835e-06 3.3447617e-05 -1.6462523e-05 -6.0652073e-06 1.8893383e-05 -5.0730246e-06
1.8023706e-05 -4.201026e-06 -4.560048e-06 3.1260413e-05 1.8244782e-05 2.2747892e-05 5.3976994e-05 -3.504444e-05
7.58867e-06 -6.362234e-05 -8.07406e-06 -1.7743658e-05 -4.9340804e-05 -2.754431e-05 2.5127629e-05 3.650295e-05
1.3345019e-05 6.1474507e-06 1.4715558e-05 1.1176217e-05 1.3813639e-06 -1.8844124e-05 2.6633108e-05 -4.7636917e-05
-2.2403487e-05 4.1987085e-05 1.71099e-05 -1.0187961e-05 4.205449e-06 1.657274e-05 2.2252412e-05 2.2894359e-05
-2.3918445e-05 -3.858036e-05 -3.086014e-05 1.7568034e-05 1.6225895e-05 2.0445215e-05 6.526564e-05 -1.39611975e-05
0.0066770916 -0.007238702 -0.0048710364 -0.0062746354 0.0007211188 0.0036389388 0.0036615096 -0.003596593
0.00064203405 -0.005900858 -0.0028086714 -0.0045498163 0.0002607449 -0.00054109294 -0.0020515074 0.0057117743
0.003998737 -0.0072075017 -0.0029963804 0.005146283 0.0017892437 0.0048340405 -0.005870223 0.0028087315
-0.004975971 0.0024449313 0.0023529497 -0.0011409444 0.0070655853 0.00035296235 -0.0026420224 0.00079376553
-0.0043952907 0.002967799 -0.0064328657 0.0040839138 0.0014701649 -0.0021672884 0.00490011 -0.005372397
0.0038320944 0.0025797158 0.0011218011 -0.0063646454 0.0043258974 0.0028485283 -0.0025309203 0.0021898777
0.004860878 0.0016597353 -0.004196282 0.0039660996 0.0072025224 0.0006078882 -0.0028595875 0.004894607
-0.000870285 0.0018455038 -0.0039696964 0.0023748258 -0.002704337 -0.001105608 0.0010593378 -0.002180595
00000000: 4293 8bbb 854a 173b f8b7 d83b ecc7 59ba
00000010: 99c0 233b f316 d1bb ea26 a83b 45fd d4bb
00000020: 1ed8 b63b 1fb7 823a 4e7b c0bb 94a7 70bb
00000030: fe51 babb 6f44 b6ba c344 d8bb afef ed3b
00000040: 9e07 223a 90df 233b 3c8f 26bb a721 09bc
00000050: 00dd f6b9 1f04 74bb 2cc8 4fbb d0da cf3a
00000060: f927 b9ba 6edb 17bb 6e21 863b d8f2 333b
00000070: 2961 90ba 1075 08bc e19b bfba b88e 403b
00000080: b34b e53a 4cc5 813b 2d72 f0bb 20ac e4ba
00000090: ecf9 b83b c10d 903b e3a5 f73b 2368 b2bb
000000a0: 2315 803b 1aad eabb b538 0ab9 efd7 efbb
000000b0: 1f0b 50bb ca34 96bb 9913 d4ba 68e8 ef3b
000000c0: 172c b7bb 9971 e8ba e68b 1e3b 0f67 d53b
000000d0: ea65 21bb cdd7 863a c1f2 273b 83ff 46bb
000000e0: d035 c9bb c1aa ff3a 6cfc 4f3b a866 6dbb
000000f0: 77b4 39bb 2a97 c23b b0f0 c6b8 945a abbb
00000100: db36 2bb8 fede 0537 cbf7 0538 0c04 9337
00000110: dc75 5b37 17eb ad37 4cfc 5237 19fd 77b8
00000120: cf15 08b8 8ef2 1c36 a45c 0e38 0324 e837
00000130: f3b2 a737 7e39 5237 06f7 ff35 564a 04b7
00000140: 7a5c 46b5 2e92 98b6 0b2b 04b7 1b4a 0c38
00000150: 0019 8ab7 bc83 cbb6 3b7d 9e37 f338 aab6
00000160: 9d31 9737 8af6 8cb6 8402 99b6 9d1d 0338
00000170: 5f0c 9937 bad2 be37 5b65 6238 aefc 12b8
00000180: 2ea2 fe36 fc6c 85b8 d375 07b7 37d8 94b7
00000190: 49f3 4eb8 f50e e7b7 2cc9 d237 be1a 1938
000001a0: 6ce4 5f37 3346 ce36 d7e2 7637 7d81 3b37
000001b0: 4d67 b935 7313 9eb7 2a6a df37 c0cd 47b8
000001c0: 1fef bbb7 4a1b 3038 3b87 8f37 f6ec 2ab7
000001d0: 881c 8d36 b005 8b37 b1aa ba37 430d c037
000001e0: 78a4 c8b7 59d1 21b8 d36f 01b8 115f 9337
000001f0: d81c 8837 c481 ab37 39df 8838 e33a 6ab7
00000200: 81cb da3b a232 edbb 379d 9fbb 759b cdbb
00000210: 7709 3d3a 437b 6e3b f0f5 6f3b d1b4 6bbb
00000220: 2d4e 283a fc5b c1bb b011 38bb a016 95bb
00000230: 97b4 8839 22d8 0dba 9572 06bb d629 bb3b
00000240: d607 833b e82c ecbb ec5e 44bb 27a2 a83b
00000250: 0e85 ea3a df66 9e3b 005b c0bb b212 383b
00000260: 780d a3bb 243b 203b f233 1a3b be8b 95ba
00000270: 6d86 e73b ce0d b939 c825 2dbb b414 503a
00000280: 5f06 90bb 687f 423b caca d2bb 5ad2 853b
00000290: 8cb2 c03a 1109 0ebb 1a91 a03b ef0a b0bb
000002a0: e023 7b3b 7310 293b 6609 933a 848e d0bb
000002b0: 42c0 8d3b 60ae 3a3b ccdd 25bb 0d84 0f3b
000002c0: 0048 9f3b 7a8b d93a f780 89bb 0ef6 813b
000002d0: 2303 ec3b b05a 1f3a eb67 3bbb f062 a03b
000002e0: d623 64ba d5e4 f13a 3a14 82bb f7a2 1b3b
000002f0: 3f3b 31bb 0cea 90ba 7ad9 8a3a 50e8 0ebb

transformer.layers.0.self_attn.out_proj.weight f4 [64, 64]
-0.06464545 -0.060976148 0.10777674 0.041270565 -0.10160261 0.020394355 0.020346614 -0.066178344
-0.03142528 0.08091541 -0.07030889 0.0061422996 0.044618413 -0.09967551 0.112473466 -0.10003066
-0.03848162 -0.080805816 -0.087387465 -0.03401311 0.12488651 0.006842396 0.09869195 -0.056394238
-0.01372262 0.11667511 0.08952734 0.08449423 -0.019680591 -0.09826625 -0.12178707 -0.014243248
0.10970512 0.051661655 0.02542124 0.06449808 -0.019066656 -0.0042276937 0.05854873 -0.020290425
-0.015377832 0.078594856 -0.013695819 0.052522488 -0.079390936 0.09415282 -0.12215511 0.09330736
-0.02119105 -0.061459463 0.08091467 -0.07738195 -0.09038558 0.018397657 0.028564436 0.023103703
-0.09974129 -0.015423625 0.025437113 -0.047641244 0.12121711 -0.07486754 -0.07710351 -0.10391562
0.123967536 -0.09701463 0.008018287 -0.09976461 -0.08136288 0.044605136 0.072534524 -0.08460835
0.029145071 0.099025756 -0.008398257 -0.09152447 0.123353936 0.03567563 -0.02952914 0.09476791
-0.120328225 0.031682685 0.13025832 0.0816382 -0.100450516 0.034075238 0.06601944 -0.100605376
0.006452405 0.07781775 0.057789538 -0.11516513 0.06325584 0.115247495 -0.09025166 0.06694302
0.05295672 0.12005404 0.01774346 0.051960547 -0.044785384 -0.0828761 -0.06423807 0.058499496
0.01918013 0.0006878564 -0.0059927087 0.003305682 0.10642932 -0.03438186 0.114498645 0.0294965
0.038387448 0.09313475 0.0025834912 -0.036834247 0.047505464 0.06324974 0.11873453 0.05298212
-0.107745476 0.11105922 -0.12664221 0.024371147 -0.083490126 0.051377274 -0.011842273 -0.015869446
0.03815169 -0.0069302213 0.0776406 -0.003323502 0.07704991 -0.049586963 -0.020199465 -0.078028075
-0.027877893 0.09070869 -0.037341457 -0.01541798 0.018508833 -0.053312074 -0.0018495613 0.014911201
-0.05969026 -0.044169966 -0.123315684 0.048834935 -0.07895278 0.043605145 -0.07777771 0.026341548
-0.12248909 -0.105583936 -0.0382742 -0.021229556 0.05686715 0.104076415 -0.056919 0.008088984
0.05742881 -0.023591867 0.10623318 -0.1060665 -0.019778332 0.13078126 -0.11200077 -0.11434807
-0.09708728 -0.09176552 -0.06800062 0.07261449 0.10200577 -0.030286727 -0.07982814 -0.085476704
-0.07716129 -0.0076153935 0.051429886 0.0035516764 -0.0066497684 0.07640503 0.008659462 0.08100769
0.0850601 0.10253771 -0.10365158 -0.034311917 -0.114474095 0.017295102 -0.11339414 0.09893613
-0.058772877 0.1089252 0.092009425 -0.0048402473 -0.054581393 0.121690735 -0.019143395 -0.106361836
-0.041912314 -0.049195856 0.10441194 -0.010238658 -0.07856357 -0.08764023 0.05375421 0.109078385
-0.050453726 0.10722335 0.010389072 -0.055712137 -0.05874512 -0.11143992 0.04291155 -0.1188397
0.042601284 -0.024199273 -0.00067623367 -0.09845421 0.012610852 0.02005228 0.059103925 -0.122495525
0.105893485 0.0747555 0.08325122 -0.0015412809 0.07592796 0.05421204 0.12015374 0.060186636
0.0006809446 0.11637306 -0.10723965 0.0947898 -0.07872197 0.06889636 0.05768516 -0.069853865
-0.07112392 -0.016428912 -0.090021625 -0.07811504 -0.04420254 0.10117793 0.014334961 -0.060007475
0.011550028 0.083945096 0.0645522 -0.05318991 0.06699534 -0.019567009 0.08687076 0.11473621
00000000: d564 84bd 20c2 79bd 0dba dc3d 530b 293d
00000010: 0715 d0bd 1012 a73c f1ad a63c 8388 87bd
00000020: cbb7 00bd fab6 a53d 1bfe 8fbd 5845 c93b
00000030: ccc1 363d ac22 ccbd 7d58 e63d e0dc ccbd
00000040: e79e 1dbd 857d a5bd 33f8 b2bd 5551 0bbd
00000050: 80c4 ff3d 2e36 e03b 011f ca3d a5fd 66bd
00000060: d7d4 60bc 5cf3 ee3d 1c5a b73d 500b ad3d
00000070: 3139 a1bc d13f c9bd 806b f9bd 835c 69bc
00000080: 14ad e03d 2c9b 533d 3440 d03c 9217 843d
00000090: ad31 9cbc 7788 8abb cbd0 6f3d 1b38 a6bc
000000a0: 4df3 7bbc 57f6 a03d 6e64 60bc d221 573d
000000b0: b797 a2bd 32d3 c03d 752c fabd ee17 bf3d
000000c0: da98 adbc ebbc 7bbd 97b6 a53d 6e7a 9ebd
000000d0: 131c b9bd afb6 963c f7ff e93c fa43 bd3c
000000e0: 2945 ccbd 5fb3 7cbc 7e61 d03c 7723 43bd
000000f0: ad40 f83d 2754 99bd 72e8 9dbd b6d1 d4bd
00000100: b1e2 fd3d 9baf c6bd 225f 033c 6351 ccbd
00000110: 95a1 a6bd e0b3 363d fb8c 943d 2547 adbd
00000120: a5c1 ee3c 04ce ca3d d898 09bc 2e71 bbbd
00000130: fda0 fc3d 9c20 123d 18e7 f1bc ae15 c23d
00000140: a56e f6bd b4c5 013d 7062 053e ee31 a73d
00000150: 00b9 cdbd 7a92 0b3d 3335 873d 310a cebd
00000160: b26e d33b ea5e 9f3d b9b4 6c3d b2db ebbd
00000170: 478c 813d e106 ec3d ddd5 b8bd 6c19 893d
00000180: 25e9 583d e4de f53d bc5a 913c 95d4 543d
00000190: e170 37bd f2ba a9bd 408f 83bd 2b9d 6f3d
000001a0: a61f 9d3c 4351 343a 7c5e c4bb 24a4 583b
000001b0: 9ef7 d93d fed3 0cbd 447e ea3d a5a2 f13c
000001c0: 283c 1d3d 6fbd be3d ca4f 293b 82df 16bd
000001d0: 1795 423d 1489 813d 172b f33d c803 593d
000001e0: a9a9 dcbd 0473 e33d 7fae 01be 00a6 c73c
000001f0: dffc aabd fa70 523d 1806 42bc a400 82bc
00000200: f244 1c3d e916 e3bb 0902 9f3d 1ccf 59bb
00000210: 58cc 9d3d b31b 4bbd 5979 a5bc 2fcd 9fbd
00000220: 2e60 e4bc 7ac5 b93d 5bf3 18bd b29b 7cbc
00000230: d69f 973c c35d 5abd fb6c f2ba 1c4e 743c
00000240: c67d 74bd 91eb 34bd ef8c fcbd 2407 483d
00000250: ffb1 a1bd 4f9b 323d ec49 9fbd 3bca d73c
00000260: 8fdb fabd 643c d8bd 68c5 1cbd 9be9 adbc
00000270: 87ed 683d 0426 d53d e623 69bd a887 043c
00000280: 793a 6b3d bb43 c1bc c890 d93d 6539 d9bd
00000290: 2b06 a2bc 86eb 053e a960 e5bd 522f eabd
000002a0: b2d5 c6bd 90ef bbbd e943 8bbd e8b6 943d
000002b0: 67e8 d03d df1b f8bc f07c a3bd 690e afbd
000002c0: bd06 9ebd 8d8a f9bb 25a8 523d 3ec3 683b
000002d0: 4de6 d9bb 3e7a 9c3d 6be0 0d3c 5ce7 a53d
000002e0: fd33 ae3d 4aff d13d 4847 d4bd a78a 0cbd
000002f0: 6571 eabd 75ae 8d3c 303b e8bd 079f ca3d
00000300: d4bb 70bd 2d14 df3d 706f bc3d f09a 9ebb
00000310: bd90 5fbd fe38 f93d 9cd2 9cbc 3cd4 d9bd
00000320: 3fac 2bbd 9881 49bd edd5 d53d 0bc0 27bc
00000330: f0e5 a0bd b97c b3bd 602d 5c3d 7d64 df3d
00000340: 91a8 4ebd ea97 db3d ed36 2a3c 6932 64bd
00000350: b99e 70bd 9d3a e4bd 05c4 2f3d 3b62 f3bd
00000360: af7e 2e3d 8e3d c6bc 4645 31ba 5ca2 c9bd
00000370: bf9d 4e3c ae44 a43c f516 723d efde fabd
00000380: afde d83d 6919 993d 9e7f aa3d ce04 caba
00000390: 1e80 9b3d 720d 5e3d 2a13 f63d 4386 763d
000003a0: 6b81 323a 0055 ee3d 76a0 dbbd 2821 c23d
000003b0: fc38 a1bd 8919 8d3d 4647 6c3d 8b0f 8fbd
000003c0: 6ba9 91bd ed95 86bc 425d b8bd c7fa 9fbd
000003d0: b90d 35bd 6036 cf3d 2fdd 6a3c 66ca 75bd
000003e0: 543c 3d3c 68eb ab3d f233 843d aadd 59bd
000003f0: da34 893d fe4a a0bc 4ce9 b13d d1fa ea3d

transformer.layers.0.self_attn.out_proj.bias f4 [64]
1.5113806e-05 0.0038352634 -0.006022979 -0.002925093 -0.0013588576 0.005786045 -0.005159402 0.0036401465
-0.004135556 0.00054569036 -0.0077790017 0.0043974468 -0.0063647847 0.007128009 0.0009141159 -0.0024773176
0.002090367 0.0029287362 -0.0012405165 0.0018828763 -0.006496242 0.004866925 -0.0048864083 -0.0035370118
-0.002447764 0.0026577332 0.00027603778 -0.0032148634 0.007886765 0.0063152676 0.0016174982 -0.005567347
-0.0050835824 0.0018170078 -0.0026397132 0.0014302208 0.003921033 -0.003932068 0.002721711 -0.0058466806
-0.0030295483 -0.003610139 0.007077148 -0.005160059 -0.0007836153 -0.0019726388 -0.0019031233 -0.0006435592
0.008049473 0.001902431 0.0004934866 0.0035754808 0.0044014766 0.004120674 -0.0063568284 0.0019480305
0.0048132325 -0.0023920098 -0.004419951 -0.0017764365 0.0009899243 -0.00038218108 0.0023767191 0.0048063444
00000000: 4d91 7d37 0b59 7b3b 695c c5bb ebb2 3fbb
00000010: b21b b2ba dd98 bd3b 3310 a9bb 868f 6e3b
00000020: 8f83 87bb a90c 0f3a ffe6 febb 7518 903b
00000030: af8f d0bb 1392 e93b 48a1 6f3a 7e5a 22bb
00000040: 8afe 083b 0af0 3f3b d498 a2ba d8ca f63a
00000050: 6dde d4bb ba7a 9f3b 2a1e a0bb 36cd 67bb
00000060: aa6a 20bb 5d2d 2e3b 2ab9 9039 75b0 52bb
00000070: 7d37 013c 4ef0 ce3b 3c02 d43a 4b6e b6bb
00000080: 2e94 a6bb aa28 ee3a 0aff 2cbb 3f76 bb3a
00000090: 027c 803b 94d8 80bb bc5e 323b 8395 bfbb
000000a0: 638b 46bb 1598 6cbb 6ce7 e73b b615 a9bb
000000b0: 886b 4dba 6347 01bb 3972 f9ba 87b4 28ba
000000c0: f0e1 033c fe5a f93a 535d 013a 9d52 6a3b
000000d0: 433a 903b b806 873b f14c d0bb 0f55 ff3a
000000e0: 52b8 9d3b 44c3 1cbb 3cd5 90bb 51d7 e8ba
000000f0: 59c0 813a 7a5f c8b9 bbc2 1b3b 8a7e 9d3b

transformer.layers.0.linear1.weight f4 [256, 64]
-0.10368057 -0.11219337 -0.092110656 0.07109703 0.042469144 0.015059358 -0.10089619 0.030363886
-0.12347495 0.02993999 -0.048446354 0.08532706 -0.063954 0.051295836 0.05860593 0.06668197
0.089802325 0.099426076 0.046427663 -0.0032385404 -0.037571684 0.102353916 -0.050460864 -0.02135681
0.04953135 0.092082 -0.11276371 0.10694378 -0.081923835 -0.050755937 -0.10161864 0.11568966
0.065717794 -0.067992985 -0.042210285 -0.053638075 0.031881705 -0.057892304 -0.011641271 -0.026061378
-0.09898485 -0.11602427 -0.049573116 -0.1181618 0.08182078 0.021288473 -0.01671457 -0.08825679
-0.029789254 0.07558237 0.039565705 -0.041967742 0.10879758 -0.020534663 0.03269826 0.021219868
0.07109696 -0.047413915 -0.08413353 0.10127878 -0.05017937 0.017566646 0.07632851 0.006585091
0.09733645 -0.102384485 0.0022839333 -0.08159653 0.089663 -0.046299826 0.11852646 -0.015895944
0.039177578 0.121100284 0.12570493 -0.091346644 -0.09259424 0.053182706 0.038826503 0.110382244
0.0855062 -0.11554152 -0.093719006 0.0029506881 0.092815466 0.061620545 -0.015891116 0.0003107643
0.042663343 0.04224862 0.013399823 -0.02459852 -0.050813437 -0.001228527 0.08767229 -0.016427388
0.056150712 0.044718236 0.09372327 -0.103902735 -0.004444528 -0.04118851 -0.12076751 -0.088434264
0.03396231 -0.0917084 -0.01639032 0.11561597 0.028654194 0.029418975 -0.1223576 0.06719305
0.12463425 0.023565708 0.0146551905 0.07256331 0.12335419 0.025768947 -0.120475024 -0.020674942
0.013657595 0.08787776 -0.09551202 -0.08559754 -0.06385862 0.0038957663 0.10733884 0.099902436
0.046399277 -0.06456084 0.08915594 0.1056032 0.055227607 0.09439563 0.11401431 -0.026274133
0.016690165 0.020016287 -0.0032151006 -0.011071143 0.09014833 -0.098099865 -0.046286218 -0.002983664
0.043774743 -0.10487051 0.12059537 0.04146822 -0.025222832 0.09962055 0.116200194 0.05445168
-0.022371246 0.0047085686 0.047251474 0.12584238 -0.05803739 -0.06685522 0.10860288 -0.10817256
-0.016815988 -0.02959552 0.0067379666 0.039143737 -0.055932958 -0.026318708 0.12095775 -0.0024666982
0.10875955 -0.029588562 0.048316527 -0.12435682 0.06066465 -0.042557165 -0.026367303 -0.054759774
0.022041874 0.08802365 0.019500196 0.0794905 -0.10490471 0.045257766 0.10842399 -0.055975683
-0.012696761 0.0610702 0.09230041 -0.101029724 0.01640209 -0.006304309 -0.07611571 0.03279071
0.11526469 0.03309137 0.040502906 -0.03715907 0.09766171 0.117270604 -0.074073814 -0.04725442
-0.115381606 0.06647145 0.034825254 0.034089256 0.042075954 0.1129377 -0.031516317 0.12722526
0.0616373 -0.008025847 -0.0717212 -0.045001 0.08232617 0.105858125 0.11428487 -0.07670559
-0.11586599 0.027074078 -0.027540155 -0.01609008 -0.045343146 -0.001276365 -0.10950203 -0.037663337
-0.08156532 -0.06281238 -0.06529575 0.05292911 -0.049067553 -0.10960272 0.11174386 0.103796095
-0.06507275 0.06666773 -0.06362299 -0.06266575 -0.123978384 0.0866674 0.05131647 0.080119744
0.099351205 0.083063655 -0.038689654 -0.093518175 0.10802243 0.029711448 0.037377518 0.07125952
0.07594623 0.07246733 0.055914775 -0.026485896 -0.09632675 -0.1162796 -0.043100223 0.11726683
00000000: 7b56 d4bd a3c5 e5bd 83a4 bcbd 529b 913d
00000010: 20f4 2d3d 87bb 763c a9a2 cebd afbd f83c
00000020: 6fe0 fcbd b644 f53c af6f 46bd f4bf ae3d
00000030: 51fa 82bd 951b 523d c60c 703d 8f90 883d
00000040: 48ea b73d e69f cb3d ef2a 3e3d b13d 54bb
00000050: c4e4 19bd ee9e d13d 0db0 4ebd 7af4 aebc
00000060: 63e1 4a3d 7d95 bc3d a9f0 e6bd 5705 db3d
00000070: afc7 a7bd 75e5 4fbd 6f1d d0bd b3ee ec3d
00000080: 0d97 863d e83f 8bbd b1e4 2cbd 99b3 5bbd
00000090: 6496 023d 7b20 6dbd 08bb 3ebc ac7e d5bc
000000a0: 92b8 cabd 229e edbd 2e0d 4bbd d0fe f1bd
000000b0: a791 a73d 2a65 ae3c feec 88bc fabf b4bd
000000c0: 9808 f4bc eeca 9a3d a60f 223d 5ee6 2bbd
000000d0: 44d1 de3d 4f38 a8bc 9cee 053d 4ad5 ad3c
000000e0: 489b 913d 1835 42bd 334e acbd 406b cf3d
000000f0: e288 4dbd ede7 8f3c 1f52 9c3d bfc7 d73b
00000100: 5558 c73d f5ae d1bd 0bae 153b 151c a7bd
00000110: 3ca1 b73d e3a4 3dbd 00be f23d 3638 82bc
00000120: ab78 203d 6d03 f83d cbb8 003e f313 bbbd
00000130: 0da2 bdbd 1cd6 593d 8a08 1f3d 1610 e23d
00000140: e01d af3d 08a1 ecbd c0ef bfbd 5560 413b
00000150: 0916 be3d d365 7c3d 162e 82bc 14ee a239
00000160: c2bf 2e3d e40c 2d3d ee8a 5b3c d682 c9bc
00000170: c021 50bd 8706 a1ba 888d b33d bb92 86bc
00000180: 4afe 653d 782a 373d fcf1 bf3d f5ca d4bd
00000190: 67a3 91bb 48b5 28bd f554 f7bd 061d b5bd
000001a0: 101c 0b3d 9dd1 bbbd fe44 86bc 11c8 ec3d
000001b0: 33bc ea3c 1000 f13c 9f96 fabd 839c 893d
000001c0: 3e40 ff3d df0c c13c 531c 703c 139c 943d
000001d0: 1fa1 fc3d 6619 d33c 9cbb f6bd 7f5e a9bc
000001e0: 1bc4 5f3c 41f9 b33d ce9b c3bd c34d afbd
000001f0: 4fc8 82bd 1d50 7f3b 77d4 db3d a699 cc3d
00000200: 2b0d 3e3d 7938 84bd 6497 b63d 7e46 d83d
00000210: 5836 623d 7f52 c13d 5680 e93d da3c d7bc
00000220: d0b9 883c 32f9 a33c 70b4 52bb bd63 35bc
00000230: b09f b83d 95e8 c8bd 9e96 3dbd 9389 43bb
00000240: 254d 333d 5ac6 d6bd b5fa f63d 95da 293d
00000250: 1da0 cebc dc05 cc3d 5efa ed3d ba08 5f3d
00000260: e743 b7bc 564a 9a3b c38a 413d d3dc 003e
00000270: 9db8 6dbd 64eb 88bd 306b de3d 9389 ddbd
00000280: afc1 89bc 4e72 f2bc 29ca dc3b 2f55 203d
00000290: f519 65bd 559a d7bc b2b8 f73d 54a8 21bb
000002a0: 54bd de3d b663 f2bc 8de7 453d caae febd
000002b0: 7f7b 783d 6c50 2ebd 3e00 d8bc c94b 60bd
000002c0: 2991 b43c be45 b43d e0be 9f3c eacb a23d
000002d0: 48d8 d6bd 3560 393d 660d de3d c246 65bd
000002e0: 1306 50bc bf24 7a3d ff07 bd3d ace8 cebd
000002f0: ad5d 863c 6094 cebb 8ee2 9bbd 8d4f 063d
00000300: e50f ec3d d18a 073d 60e6 253d 1c34 18bd
00000310: dd02 c83d 922b f03d 03b4 97bd da8d 41bd
00000320: 314d ecbd 2f22 883d eda4 0e3d 2da1 0b3d
00000330: d657 2c3d e14b e73d 4117 01bd 5747 023e
00000340: 6577 7c3d d87e 03bc 91e2 92bd f852 38bd
00000350: 9f9a a83d 25cc d83d 300e ea3d d217 9dbd
00000360: 264b edbd 75ca dd3c e49b e1bc 58cf 83bc
00000370: bcb9 39bd b44b a7ba 9a42 e0bd df44 1abd
00000380: b80b a7bd c7a3 80bd c7b9 85bd 32cc 583d
00000390: 0ffb 48bd 6477 e0bd f7d9 e43d 0c93 d43d
000003a0: dd44 85bd 1789 883d c54c 82bd e756 80bd
000003b0: 61e8 fdbd ae7e b13d 3831 523d d215 a43d
000003c0: a578 cb3d 471d aa3d 0b79 1ebd 7586 bfbd
000003d0: dd3a dd3d 6c65 f33c 2b19 193d 83f0 913d
000003e0: b289 9b3d c069 943d e406 653d f3f8 d8bc
000003f0: f646 c5bd 0024 eebd dc89 30bd 9729 f03d

transformer.layers.0.linear1.bias f4 [256]
-0.031470507 0.12141481 0.10145782 -0.015688157 -0.04902759 -0.09054523 0.07144235 -0.01395444
-0.011734083 0.029888617 -0.06519317 0.08523701 0.020751392 -0.105259955 0.08560718 -0.02781596
0.09738219 -0.048281968 0.10775163 -0.04715803 -0.066396244 -0.120966345 -0.0108315535 0.11318365
-0.08863388 0.055246074 -0.07271066 0.123697184 -0.09682578 0.051604163 -0.073956504 0.049648013
0.031078126 0.0144674815 -0.09220901 -0.09315888 -0.09524755 -0.025800819 -0.052379083 0.06607026
0.05669223 0.0796844 -0.12057801 -0.11723522 -0.078816764 0.083089724 0.0006285381 0.065117255
-0.06851269 0.052254763 -0.06861584 -0.11410012 0.0027309174 -0.027217947 0.08912372 0.015918639
0.025946679 0.014671704 0.00091964914 -0.091436245 0.036499035 -0.10348262 0.02093211 0.0605626
0.035185456 -0.007388339 -0.07361608 -0.0025196096 -0.12484076 0.12409882 0.10205897 -0.08149563
0.1252902 -0.09403832 0.004537895 0.1219734 -0.044284508 -0.0458579 -0.050875984 -0.01415025
-0.12735191 0.056796048 -0.10917024 0.11955779 -0.010521861 -0.009271009 0.11017546 -0.092062935
-0.062706105 0.07530029 0.10904496 0.03631453 -0.11429346 0.0819754 0.018829454 0.048052765
0.026375597 0.036262415 -0.01006011 0.08733471 0.010678382 0.0061828657 -0.11233034 0.11202549
0.056874044 0.03832295 -0.0101998355 0.100936234 0.010822441 -0.074934825 0.0073485854 -0.10060623
0.028588183 -0.011073589 -0.005435992 0.036570936 -0.043494336 0.009794821 0.024014518 0.04185438
0.02731605 0.003529849 -0.00608724 0.07338159 -0.067934066 0.08737445 0.020447977 0.0286631
-0.05174651 0.01622248 -0.124523304 0.043301012 -0.021094456 0.072711736 -0.033616263 0.04832533
0.11794168 -0.09550497 0.023050176 0.030522255 0.03642066 0.07292612 -0.061555307 0.006433517
-0.016060892 -0.056549523 -0.069491826 -0.04575167 0.06905802 0.090092935 -0.11745799 -0.08871182
-0.059316877 -0.050236214 0.12110762 0.10626754 0.032122545 -0.096672714 0.10703202 0.07402749
-0.065065354 -0.048536744 -0.08293444 -0.035482712 -0.043542396 0.036929388 -0.088956766 0.03113326
-0.04147858 -0.027430784 0.11305967 0.0412763 0.039560378 0.054101408 -0.051775496 0.07816576
-0.124270506 0.043113828 0.11620067 0.08177127 -0.03946841 -0.045306828 0.028919002 0.022459654
0.060358666 0.11676789 -0.11474949 0.11002382 -0.0076033343 -0.08046846 -0.09524254 -0.09489959
-0.065938756 -0.08664182 0.09917138 0.07284936 -0.0023858722 -0.11280115 -0.06403396 -0.0823955
0.05095833 -0.0076989783 0.06499497 0.01824139 -0.03420863 -0.012737109 0.11952302 0.08545265
-0.08007418 -0.054396667 -0.0033132688 -0.02612178 0.08887431 -0.109675236 0.10045269 0.0680111
-0.09668935 0.1037212 -0.02817966 -0.085017055 0.04222813 -0.062650874 0.028023055 0.07875389
0.052547805 -0.03393318 0.096891314 -0.0053888503 0.025611546 -0.08361558 -0.015723934 0.075776674
0.09804023 0.053121824 -0.109667234 0.006742741 -0.017757928 0.08988738 0.04925969 -0.085881144
0.06244031 -0.052359365 0.09380184 0.015146809 0.09959313 -0.08960387 0.07988244 0.029056275
0.08481123 0.0069438326 0.11268028 0.058427885 -0.016548147 -0.017340535 -0.023904849 -0.037455473
00000000: 38e7 00bd 54a8 f83d 1ec9 cf3d 7384 80bc
00000010: 27d1 48bd c76f b9bd 5e50 923d 2aa1 64bc
00000020: 5040 40bc f9d8 f43c ff83 85bd be90 ae3d
00000030: d3fe a93c 8892 d7bd d152 af3d 4cde e3bc
00000040: 5070 c73d 50c3 45bd e3ac dc3d c728 41bd
00000050: c1fa 87bd 34bd f7bd d476 31bc d4cc e73d
00000060: ae85 b5bd b549 623d 54e9 94bd f354 fd3d
00000070: 984c c6bd e35e 533d 8276 97bd b75b 4b3d
00000080: 8e97 fe3c 0409 6d3c 14d8 bcbd 15ca bebd
00000090: 2611 c3bd 3d5c d3bc 738b 56bd d84f 873d
000000a0: 1d36 683d 9331 a33d 9bf1 f6bd 0519 f0bd
000000b0: af6a a1bd f22a aa3d 7ac4 243a 325c 853d
000000c0: 6250 8cbd 1709 563d 7686 8cbd 53ad e9bd
000000d0: 31f9 323b 2cf8 debc 7f86 b63d ce67 823c
000000e0: 218e d43c 9661 703c 9c14 713a ed42 bbbd
000000f0: 0380 153d b2ee d3bd d179 ab3c 7d10 783d
00000100: a01e 103d e119 f2bb 07c4 96bd 0920 25bb
00000110: 83ac ffbd 8627 fe3d 4b04 d13d 2ee7 a6bd
00000120: 134c 003e 2a97 c0bd 9fb2 943b 31cd f93d
00000130: ac63 35bd 7ed5 3bbd 5663 50bd 73d6 67bc
00000140: 8a68 02be f9a2 683d a694 dfbd b7da f43d
00000150: e263 2cbc 6ee5 17bc aca3 e13d 7e8b bcbd
00000160: 0f6c 80bd 0a37 9a3d f752 df3d 8bbe 143d
00000170: b112 eabd b8e2 a73d 3a40 9a3c fad2 443d
00000180: a311 d83c e687 143d 29d3 24bc 8adc b23d
00000190: 61f4 2e3c a399 ca3b 730d e6bd 9f6d e53d
000001a0: c2f4 683d 87f8 1c3d 361d 27bc a8b7 ce3d
000001b0: 9c50 313c 6e77 99bd 67cc f03b a40a cebd
000001c0: c431 ea3c 006e 35bc 6820 b2bb 68cb 153d
000001d0: 1e27 32bd 757a 203c 18ba c43c 806f 2b3d
000001e0: e9c5 df3c 0a55 673b 7877 c7bb 1649 963d
000001f0: 0421 8bbd 60f1 b23d 8482 a73c e1ce ea3c
00000200: 26f4 53bd 02e5 843c 1306 ffbd 675c 313d
00000210: 48ce acbc e4e9 943d 35b1 09bd c8f0 453d
00000220: 688b f13d 1c98 c3bd b9d3 bc3c cf09 fa3c
00000230: d42d 153d 4a5a 953d 6b21 7cbd 41d0 d23b
00000240: 2292 83bc 79a0 67bd bb51 8ebd 1a66 3bbd
00000250: 4b6e 8d3d a582 b83d d18d f0bd 8bae b5bd
00000260: 41f6 72bd 7dc4 4dbd 4607 f83d cca2 d93d
00000270: ee92 033d 58fc c5bd 9b33 db3d ba9b 973d
00000280: fc40 85bd 77ce 46bd 88d9 a9bd 5256 11bd
00000290: 8359 32bd 4543 173d f72e b6bd 2e0b ff3c
000002a0: 72e5 29bd 86b6 e0bc d48b e73d 5611 293d
000002b0: 100a 223d 7099 5d3d 8b12 54bd 5f15 a03d
000002c0: 8981 febd 2098 303d 9efa ed3d b277 a73d
000002d0: a1a9 21bd a793 39bd 8be7 ec3c 4ffd b73c
000002e0: a63a 773d 0124 ef3d c801 ebbd 2b54 e13d
000002f0: 6425 f9bb a6cc a4bd 850e c3bd b75a c2bd
00000300: e60a 87bd 4471 b1bd 5d1a cb3d 0c32 953d
00000310: 4b5c 1cbb 4a04 e7bd 3d24 83bd f9be a8bd
00000320: afb9 503d b647 fcbb 151c 853d f86e 953c
00000330: 591e 0cbd 4faf 50bc 7cc8 f43d cd01 af3d
00000340: effd a3bd 0acf 5ebd 6d23 59bb 58fd d5bc
00000350: bc03 b63d 699d e0bd 24ba cd3d 6749 8b3d
00000360: 1105 c6bd c86b d43d 08d9 e6bc 6c1d aebd
00000370: 67f7 2c3d 1a4f 80bd 9b90 e53c b849 a13d
00000380: 5e3c 573d 85fd 0abd f46e c63d f494 b0bb
00000390: 4ecf d13c a53e abbd 7bcf 80bc cd30 9b3d
000003a0: 51c9 c83d 4596 593d 3799 e0bd 36f2 dc3b
000003b0: 1379 91bc e016 b83d 87c4 493d 74e2 afbd
000003c0: 69c1 7f3d c676 56bd 2e1b c03d 522a 783c
000003d0: 7cf7 cb3d 3c82 b7bd 6899 a33d 6d07 ee3c
000003e0: 83b1 ad3d 1789 e33b ebc4 e63d 1452 6f3d
000003f0: fb8f 87bc bd0d 8ebc 1ad4 c3bc e96a 19bd

transformer.layers.0.linear2.weight f4 [64, 256]
0.013118651 -0.02088077 -0.0143920295 0.039338097 -0.0075936452 0.0639553 0.05714771 -0.0015507817
-0.029619573 0.04266223 0.037079673 0.0016232377 -0.028357437 -0.028690405 0.0033838928 -0.0033200039
0.061443344 -0.043628287 -0.014113938 0.0067195413 -0.013081412 0.018843686 0.011411998 -0.057558123
0.002998655 -0.032720495 -0.019042453 0.03176533 -0.017952371 0.04209995 0.056661766 -0.025657784
0.05428006 -0.054088797 0.020055817 0.06271746 0.060293525 0.03993638 0.032301005 -0.019753959
-0.0024890571 -0.057680067 -0.004525494 0.038485486 0.05851203 -0.016809795 0.0035527323 0.0463492
0.034641135 0.031201422 -0.016176073 0.030805796 -0.03365721 0.026595334 -0.0362928 0.056077898
-0.0019605 0.0073549408 -0.035322312 -0.04503264 -0.05704866 -0.029859835 -0.026288534 -0.04783753
0.037719555 -0.0055270186 -0.051602174 0.016997445 -0.04232789 0.059572633 0.03432377 -0.015563456
-0.016437724 0.0427975 0.05396412 0.02334698 -0.0403318 0.034745466 0.01872092 0.017911937
0.0021339376 0.010861356 -0.023601072 0.040631503 -0.03877404 0.049702685 0.031055672 -0.006635052
-0.030199224 0.009135398 -0.011434724 -0.009866627 -0.036039036 0.016239919 0.038374282 0.027837168
0.056807328 -0.049248677 0.016091218 0.06297236 0.015799185 -0.004037492 0.002398777 0.014903849
-0.011671238 -0.03432665 0.03739542 0.026711276 0.038136777 -0.032080747 0.06097852 0.006654229
0.06126918 -0.018480543 0.015059561 -0.036935423 0.0003954618 0.047953937 -0.04506927 0.0055468166
-0.050632447 -0.0008799113 0.05728393 0.015761355 -0.018543256 -0.009118317 -0.06420822 0.028007723
-0.002312082 -0.06258513 -0.021643037 -0.03636708 -0.03776769 -0.04631607 0.013313282 -0.009660767
-0.0165253 0.061556105 -0.04555425 -0.029410433 0.016619552 -0.01975761 0.03764855 -0.025871096
0.021416433 -0.03667638 7.02297e-05 0.011693282 -0.011588179 -0.0053759734 -0.046395805 0.0019295804
-0.009300056 0.04174792 -0.027533142 0.028503045 -0.034710716 -0.02346978 -0.055818386 0.00010527672
-0.059298187 0.029001242 0.0007950865 0.047991246 -0.019836195 -0.044660818 -0.014732532 0.0343702
0.032075707 0.024182932 0.038631145 -0.032256555 -0.041535843 -0.018247811 0.04924553 0.01439489
0.042039797 0.054749604 0.051621962 -0.007881334 0.02219252 0.01707411 -0.041123882 0.030069616
0.027377564 -0.01017785 -0.01193226 0.0327745 -0.018449422 -0.004570161 -0.045625858 0.057483252
0.022607585 -0.013553146 0.034287736 -0.02258288 0.057372563 0.034080584 -0.038415536 0.054143883
0.032485664 -0.034415573 0.017178658 0.013175655 0.06209619 -0.03167185 -0.0077129393 0.040682454
-0.046464384 -0.064329825 -0.015652092 0.01820047 0.0007737951 -0.052248314 0.044386674 0.016443629
0.028009685 -0.019546084 0.020852713 -0.029348573 -0.052745458 0.014246134 -0.032613248 -0.046641055
-0.021958513 0.033714622 -0.004161432 0.0263146 -0.05205492 0.042386305 0.00025976368 -0.008240502
-0.049083065 -0.029584482 -0.019308442 0.03320004 0.03247623 0.018645389 0.0052352063 0.03614819
-0.020016419 0.047713757 -0.039094154 0.0060591036 0.052404087 -0.0051524537 -0.026288182 -0.010730198
0.055238105 0.048841562 0.030261379 -0.042660285 -0.051210437 -0.06404707 0.019920388 0.011549827
00000000: 9cef 563c 260e abbc 8ccc 6bbc fc20 213d
00000010: 1dd4 f8bb fffa 823d b813 6a3d 9943 cbba
00000020: bfa4 f2bc 97be 2e3d dbe0 173d d2c2 d43a
00000030: db4d e8bc 2408 ebbc 4dc4 5d3b 6c94 59bb
00000040: 04ac 7b3d 93b3 32bd 263e 67bc 992f dc3b
00000050: 6b53 56bc 135e 9a3c 64f9 3a3c 11c2 6bbd
00000060: 1585 443b ed05 06bd ebfe 9bbc 5d1c 023d
00000070: da10 93bc ff70 2c3d 2b16 683d 4630 d2bc
00000080: c554 5e3d 378c 5dbd 194c a43c 0372 803d
00000090: 58f6 763d 5494 233d 0f4e 043d 0ed3 a1bc
000000a0: 731f 23bb ef41 6cbd 984a 94bb f5a2 1d3d
000000b0: 4faa 6f3d b2b4 89bc f5d4 683b a9d8 3d3d
000000c0: dde3 0d3d 209a ff3c af83 84bc 705c fc3c
000000d0: 25dc 09bd 75de d93c c2a7 14bd f0b1 653d
000000e0: bb7b 00bb b701 f13b 21ae 10bd 2574 38bd
000000f0: dbab 69bd 9d9c f4bc 0d5b d7bc 49f1 43bd
00000100: d27f 1a3d fe1b b5bb cd5c 53bd 3a3e 8b3c
00000110: 0260 2dbd 6f02 743d 1597 0c3d defd 7ebc
00000120: 68a8 86bc 6e4c 2f3d 7b09 5d3d 2a42 bf3c
00000130: f532 25bd 4351 0e3d 9d5c 993c 0ebc 923c
00000140: 88d9 0b3b d4f3 313c 0957 c1bc 386d 263d
00000150: 87d1 1ebd 0b95 4b3d 7768 fe3c da6a d9bb
00000160: 5d64 f7bc a3ac 153c b558 3bbc a2a7 21bc
00000170: ab9d 13bd 9409 853c 5a2e 1d3d c60a e43c
00000180: cdae 683d fbb8 49bd bbd1 833c a7f7 803d
00000190: 4b6d 813c f04c 84bb cd34 1d3b 462f 743c
000001a0: b838 3fbc 1a9a 0cbd f12b 193d 9bd1 da3c
000001b0: 4f35 1c3d 1a67 03bd 9dc4 793d b80b da3b
000001c0: 64f5 7a3d 8264 97bc 60bc 763c 9949 17bd
000001d0: fc55 cf39 596b 443d 8e9a 38bd 12c2 b53b
000001e0: f863 4fbd d9a9 66ba 8ea2 6a3d f51d 813c
000001f0: 07e8 97bc fe64 15bc 997f 83bd 7470 e53c
00000200: 4d86 17bb a22c 80bd bd4c b1bc a6f5 14bd
00000210: 4bb2 1abd ebb5 3dbd f41f 5a3c 3248 1ebc
00000220: 1160 87bc 4122 7c3d 1897 3abd 26ee f0bc
00000230: ba25 883c b6da a1bc 5e35 1a3d 9fef d3bc
00000240: 8471 af3c f939 16bd 4848 9338 2e95 3f3c
00000250: 58dc 3dbc ef28 b0bb 8709 3ebd f9e9 fc3a
00000260: 435f 18bc deff 2a3d 2f8d e1bc 387f e93c
00000270: d32c 0ebd b243 c0bc d2a1 64bd 02c8 dc38
00000280: a8e2 72bd 0394 ed3c 5a6d 503a 7892 443d
00000290: 847f a2bc 43ee 36bd b860 71bc c4c7 0c3d
000002a0: d161 033d 491b c63c b13b 1e3d 731f 04bd
000002b0: 7d21 2abd 6f7c 95bc aeb5 493d 8bd8 6b3c
000002c0: ec31 2c3d 1f41 603d 8d71 533d b620 01bc
000002d0: 16cd b53c 01df 8b3c 8471 28bd 8e54 f63c
000002e0: ea46 e03c ffc0 26bc 877f 43bc 8e3e 063d
000002f0: 3e23 97bc 4ac1 95bb 2ee2 3abd 8f73 6b3d
00000300: 8b33 b93c 040e 5ebc 4c71 0c3d bbff b8bc
00000310: 7eff 6a3d 1598 0b3d 9c59 1dbd fac5 5d3d
00000320: b00f 053d 58f7 0cbd 42ba 8c3c b4de 573c
00000330: 9358 7e3d 57ba 01bd d3bc fcbb a5a2 263d
00000340: 7051 3ebd 5bbf 83bd d138 80bc 2719 953c
00000350: 83d8 4a3a 5402 56bd cdce 353d cab4 863c
00000360: 9174 e53c 1c1f a0bc 4fd3 aa3c 6b6c f0bc
00000370: 9f0b 58bd 9e68 693c 7895 05bd b10a 3fbd
00000380: 57e2 b3bc 5818 0a3d 9f5c 88bb b791 d73c
00000390: 8a37 55bd 439d 2d3d e430 8839 2c03 07bc
000003a0: 530b 49bd 285b f2bc bd2c 9ebc c4fc 073d
000003b0: cc05 053d 37be 983c 188c ab3b 2010 143d
000003c0: 79f9 a3bc 806f 433d 3121 20bd 728b c63b
000003d0: aba5 563d ead5 a8bb 505a d7bc b6cd 2fbc
000003e0: 5a41 623d 170e 483d b6e6 f73c 8dbc 2ebd
000003f0: 09c2 51bd 1c2b 83bd 1530 a33c 7c3b 3d3c
