models/sasrec_best.pt (torch, 436055 bytes, 28 tensors)

item_embedding.weight f4 [21, 64]
0.0 0.0 0.0 0.0 0.0 0.0 0.0 0.0
0.0 0.0 0.0 0.0 0.0 0.0 0.0 0.0
0.0 0.0 0.0 0.0 0.0 0.0 0.0 0.0
0.0 0.0 0.0 0.0 0.0 0.0 0.0 0.0
0.0 0.0 0.0 0.0 0.0 0.0 0.0 0.0
0.0 0.0 0.0 0.0 0.0 0.0 0.0 0.0
0.0 0.0 0.0 0.0 0.0 0.0 0.0 0.0
0.0 0.0 0.0 0.0 0.0 0.0 0.0 0.0
-0.055720035 -0.13893743 0.95128137 -3.5730345 -1.0145767 1.4048105 -0.17405972 1.3173244
-0.48091248 0.6696382 0.8242654 -1.1722887 0.8866683 0.6925941 -0.34555456 0.2556407
-1.2793356 0.617972 -0.49416927 -0.17817758 0.87317926 -0.21672578 -0.013554332 -0.3451351
0.9243391 -0.08857033 0.71404254 -0.16880313 0.9349911 -0.43395954 -0.67367244 1.0025368
-0.27456385 0.21490505 1.5098743 -1.065541 0.54926014 0.38395366 -0.33262917 0.101093546
-1.0298846 -0.47623134 2.821252 0.27511814 0.055113938 -0.06689821 1.156281 -0.79160917
0.5496992 -0.22873735 -0.6811756 0.085361585 -1.8699534 1.0440681 0.64265066 0.61979306
-0.2397712 -1.2474711 2.8007972 -0.13549642 -1.0113366 1.3196131 -0.8701894 -1.3413339
-0.75749767 -0.5115073 0.43657693 1.6569428 -0.47375134 0.9891324 -1.3621831 -1.0427867
0.3043205 -1.0756434 -0.34599504 -0.9763282 -0.40933913 -0.2135367 0.31401327 -1.8592981
2.200208 -1.0061884 -0.37544966 0.45214128 -1.9740424 1.0322427 -0.93293244 0.9501045
-0.90817857 -0.9241467 0.40573025 0.08161868 1.3131535 -1.9956694 -1.8104379 1.1180018
2.255799 -0.10986001 -1.8160372 1.5557024 1.0831878 1.078981 1.4192735 1.0489994
0.22050244 0.15518732 1.8788024 0.86741817 -1.3756014 1.4029846 -0.59030926 1.9710829
0.41503826 0.04500358 -0.22848889 0.1982902 1.012552 0.40582663 -1.8943799 0.71496636
-0.13484916 -0.9819687 -0.2398535 -0.8179404 1.2616249 1.6161628 0.5461591 -0.13600327
0.6438775 0.35251433 -1.7404127 0.25303882 0.65553945 -0.15367971 -0.8211851 -1.5269395
-0.9974409 0.95294225 -2.2115717 0.76931393 0.0727068 -0.2256557 0.19105916 0.4080085
0.11480459 2.2388623 1.3239272 -0.24566439 0.556856 -0.24373755 -1.118504 -1.8836368
-0.05779586 0.2449884 -0.30577594 -0.94016105 1.1997758 -1.7809337 0.646425 -0.66541016
-0.62071806 -0.299315 0.83539796 -0.5628103 -2.3363984 -0.39242297 0.14433135 -1.2701052
1.8736559 -1.7607802 -0.61416364 -1.1560918 0.4629511 1.315945 1.3379279 0.6522665
-0.4883718 0.5901749 -0.98130417 0.6131838 1.4048972 2.2453861 1.6779279 0.55657643
0.15564254 -0.15252034 -0.4055074 0.67887515 0.53148127 0.08613356 2.3102124 0.47825372
00000000: 0000 0000 0000 0000 0000 0000 0000 0000
00000010: 0000 0000 0000 0000 0000 0000 0000 0000
00000020: 0000 0000 0000 0000 0000 0000 0000 0000
00000030: 0000 0000 0000 0000 0000 0000 0000 0000
00000040: 0000 0000 0000 0000 0000 0000 0000 0000
00000050: 0000 0000 0000 0000 0000 0000 0000 0000
00000060: 0000 0000 0000 0000 0000 0000 0000 0000
00000070: 0000 0000 0000 0000 0000 0000 0000 0000
00000080: 0000 0000 0000 0000 0000 0000 0000 0000
00000090: 0000 0000 0000 0000 0000 0000 0000 0000
000000a0: 0000 0000 0000 0000 0000 0000 0000 0000
000000b0: 0000 0000 0000 0000 0000 0000 0000 0000
000000c0: 0000 0000 0000 0000 0000 0000 0000 0000
000000d0: 0000 0000 0000 0000 0000 0000 0000 0000
000000e0: 0000 0000 0000 0000 0000 0000 0000 0000
000000f0: 0000 0000 0000 0000 0000 0000 0000 0000
00000100: b13a 64bd 9d45 0ebe 2d87 733f 99ac 64c0
00000110: a6dd 81bf d5d0 b33f b63c 32be 169e a83f
00000120: 293a f6be 696d 2b3f 0f03 533f 8e0d 96bf
00000130: b2fc 623f d94d 313f 87ec b0be 56e3 823e
00000140: 45c1 a3bf 6a33 1e3f c103 fdbe 2f74 36be
00000150: ad88 5f3f 5ded 5dbe fd12 5ebc 8cb5 b0be
00000160: 7da1 6c3f 5c64 b5bd 7ecb 363f bada 2cbe
00000170: 945b 6f3f f22f debe cc75 2cbf 2053 803f
00000180: a293 8cbe 1210 5c3e 9043 c13f a663 88bf
00000190: 509c 0c3f 9395 c43e 5f4e aabe 220a cf3d
000001a0: 42d3 83bf 98d4 f3be 658f 3440 49dc 8c3e
000001b0: 27bf 613d ee01 89bd 0401 943f e6a6 4abf
000001c0: 16b9 0c3f 203a 6abe 8661 2ebf 0ed2 ae3d
000001d0: a25a efbf 06a4 853f c184 243f c2aa 1e3f
000001e0: 9586 75be 22ad 9fbf 4340 3340 93bf 0abe
000001f0: 7a73 81bf 15e9 a83f bcc4 5ebf d4b0 abbf
00000200: 5eeb 41bf 24f2 02bf 0387 df3e b416 d43f
00000210: 898f f2be c837 7d3f 045c aebf 097a 85bf
00000220: e6cf 9b3e afae 89bf 4326 b1be a5f0 79bf
00000230: e694 d1be 5da9 5abe 59c6 a03e 7bfd edbf
00000240: 35d0 0c40 c8ca 80bf f03a c0be 107f e73e
00000250: 6cad fcbf 8720 843f a9d4 6ebf 0c3a 733f
00000260: 647e 68bf e194 6cbf e0bb cf3e b227 a73d
00000270: 6a15 a83f 1872 ffbf 6ebc e7bf af1a 8f3f
00000280: 035f 1040 49fe e0bd e873 e8bf 4221 c73f
00000290: e6a5 8a3f 0d1c 8a3f c1aa b53f 9d45 863f
000002a0: 64cb 613e 6de9 1e3e 997c f03f 1e0f 5e3f
000002b0: b513 b0bf 0095 b33f 821e 17bf 724c fc3f
000002c0: e57f d43e ad55 383d fef8 69be 960c 4b3e
000002d0: 4e9b 813f 82c8 cf3e 0a7b f2bf 0908 373f
000002e0: e615 0abe 4d62 7bbf 289c 75be 8b64 51bf
000002f0: ed7c a13f 6cde ce3f 15d1 0b3f 7144 0bbe
00000300: 28d5 243f c27c b43e d8c5 debf 4e8e 813e
00000310: 6fd1 273f 375e 1dbe 3039 52bf c172 c3bf
00000320: 4958 7fbf 06f4 733f 648a 0dc0 c2f1 443f
00000330: 4ee7 943d 4a12 67be 03a5 433e 7de6 d03e
00000340: ab1e eb3d 8549 0f40 7276 a93f 728f 7bbe
00000350: 1d8e 0e3f 5696 79be 242b 8fbf 031b f1bf
00000360: 5abb 6cbd 3dde 7a3e aa8e 9cbe 65ae 70bf
00000370: 4192 993f a3f5 e3bf 1c7c 253f 5258 2abf
00000380: 61e7 1ebf d13f 99be a4dc 553f 5614 10bf
00000390: 8d87 15c0 aaeb c8be 99cb 133e cf92 a2bf
000003a0: f5d3 ef3f 3f61 e1bf d439 1dbf d1fa 93bf
000003b0: ed07 ed3e e370 a83f 3941 ab3f f0fa 263f
000003c0: de0b fabe b415 173f c036 7bbf 9df9 1c3f
000003d0: acd3 b33f 68b4 0f40 57c6 d63f cb7b 0e3f
000003e0: c260 1f3e 4b2e 1cbe aa9e cfbe c3ca 2d3f
000003f0: 280f 083f cb66 b03d 85da 1340 acdd f43e

pos_embedding.weight f4 [50, 64]
-0.08265156 -0.005311452 0.3246107 1.1701223 0.9891705 0.8321934 -1.6408132 0.7211147
0.09329983 -0.25914237 -0.2775731 1.7976378 -0.58319 -0.65275943 -0.42607328 0.7933998
-0.22695737 0.5171683 0.5402641 -1.9240369 -0.07116455 -0.9846952 -0.51887286 1.1385889
-0.117810704 -0.16067564 0.9301132 1.1665851 0.58481824 -2.056886 -0.9316873 0.57294255
0.9266935 -1.19691 -1.0150515 -0.39382178 -0.2789138 -1.935667 0.58684 0.13105217
0.10805149 0.64706206 0.5212073 1.366257 1.1155032 0.25897437 -1.7200584 -1.9940838
0.48407546 0.92378974 -1.7022907 0.007279746 0.9922141 1.992424 -0.8169084 0.1585329
1.3582182 -0.25544465 -0.6124241 -1.1697594 0.37571794 -1.0540385 -1.8471802 1.1329405
-1.4480417 0.66400224 -1.5858825 0.42252105 0.65898466 1.9798906 1.1255556 -0.747671
0.8644981 0.12695903 0.45082602 0.5798647 1.5715725 3.0226605 0.1175203 0.9898286
0.01281476 1.5239519 -1.7738143 1.1368012 0.7540215 -1.771961 0.55495334 -1.6860831
-1.5416583 -0.74924237 -0.93820065 -0.809525 -0.4175011 -0.079844534 -1.868614 -0.24456336
-0.5589102 0.7813254 0.38137168 0.27477112 -1.2535189 -1.0876395 -1.0634719 -0.835457
-0.870884 -0.4174299 1.1101182 0.97156745 0.37592402 -0.2646922 0.20159498 2.2855034
-0.2967794 -0.45645803 0.898418 0.99513566 -0.95790786 1.0291903 0.042469688 -0.75067955
0.92268384 -1.6652311 0.4443428 0.109842554 -1.6193345 -1.3818789 -0.7858326 0.9833703
-0.8527404 -0.63507956 -0.5081805 1.889931 -0.42752463 1.1428134 2.0176187 0.70013696
-0.3666403 0.1654582 0.5932293 -0.32475346 1.3373963 -0.8485658 -0.7227745 -1.7212512
1.7342024 0.30958864 0.91202974 0.6127631 -1.2156044 -0.48270574 0.8158587 -0.17313077
-0.598896 -1.9384705 0.040881097 0.6381107 0.43648872 -1.027226 0.62601006 0.99381614
-0.24961141 0.69114244 -0.1284278 -0.56516284 0.3751072 -1.8652866 0.0351947 -0.97881687
-0.3134106 -1.305473 1.5693796 -0.852373 0.62809145 0.7113341 0.3693299 0.8520046
-0.50592774 0.43151426 0.23929447 -0.37258604 1.3052084 0.8438815 -0.94690424 1.0762477
-0.060138673 -1.2033 1.3083398 -0.3235214 -0.44164023 -0.0047323066 1.3814393 0.985005
2.01498 0.7272244 -0.4461289 -0.24592134 0.71426445 1.6891044 0.78197414 0.5946215
-1.4222296 -0.23472326 -0.515038 1.0121073 -1.0661436 -1.4210494 -1.3306248 0.29413593
-0.42920366 -0.45148483 0.8543381 0.50954807 0.7387493 -1.4056203 0.41651192 0.9870178
0.12895378 -1.0311903 0.3549955 -1.227671 0.7319162 -1.4350669 -0.7519528 0.6283824
1.3062176 -2.0047889 -0.73235106 0.900792 -1.257767 0.35940158 -0.21685094 -0.30364376
-1.3857541 -0.43067664 0.12842536 1.4842548 -1.3691283 -0.40680942 1.451389 1.3026658
-1.4355806 -0.028963171 -1.7678448 -0.3537387 -0.8663234 0.9438209 0.2705819 0.44879705
0.08369959 -0.0640431 -1.0964651 1.0589414 -0.42077664 -0.41741952 2.198818 0.37631613
00000000: 3945 a9bd b00b aebb 6033 a63e 91c6 953f
00000010: 473a 7d3f a00a 553f 2b06 d2bf f99a 383f
00000020: fb13 bf3d 4fae 84be 101e 8ebe ff18 e63f
00000030: f14b 15bf 3e1b 27bf 4726 dabe 401c 4b3f
00000040: 8367 68be 2465 043f c04e 0a3f d746 f6bf
00000050: b8be 91bd fc14 7cbf dad4 04bf 48bd 913f
00000060: bd46 f1bd 2888 24be e61b 6e3f a952 953f
00000070: a6b6 153f 05a4 03c0 0f83 6ebf 5dac 123f
00000080: c93b 6d3f 5934 99bf 35ed 81bf 02a3 c9be
00000090: cacd 8ebe f0c3 f7bf 253b 163f 8a32 063e
000000a0: 194a dd3d dca5 253f d76d 053f 82e1 ae3f
000000b0: cfc8 8e3f 4a98 843e e02a dcbf 233e ffbf
000000c0: bdd8 f73e 7c7d 6c3f a9e4 d9bf ef8a ee3b
000000d0: be01 7e3f c007 ff3f e920 51bf 7356 223e
000000e0: 18da ad3f a4c9 82be d3c7 1cbf adba 95bf
000000f0: 1a5e c03e bcea 86bf 6770 ecbf 3204 913f
00000100: 6e59 b9bf 0dfc 293f 33fe cabf ae54 d83e
00000110: 38b3 283f 0e6d fd3f 3512 903f 5e67 3fbf
00000120: bf4f 5d3f 8c01 023e abd2 e63e 0372 143f
00000130: 4a29 c93f 4573 4140 7cae f03d 6865 7d3f
00000140: 00f5 513c db10 c33f 590c e3bf b482 913f
00000150: 8e07 413f 9ecf e2bf 6c11 0e3f 92d1 d7bf
00000160: 0f55 c5bf 59ce 3fbf eb2d 70bf 083d 4fbf
00000170: b4c2 d5be 8885 a3bd be2e efbf d16e 7abe
00000180: bd14 0fbf f104 483f 2643 c33e cdae 8c3e
00000190: 4f73 a0bf c537 8bbf d91f 88bf 83e0 55bf
000001a0: 41f2 5ebf 5fb9 d5be 5a18 8e3f a5b8 783f
000001b0: 1d79 c03e bc85 87be ea6e 4e3e b045 1240
000001c0: 78f3 97be deb4 e9be b9fe 653f 36c1 7e3f
000001d0: 7339 75bf 82bc 833f b2f4 2d3d 892c 40bf
000001e0: 0235 6c3f 4b26 d5bf e680 e33e 22f5 e03d
000001f0: 5a46 cfbf 68e1 b0bf 532c 49bf 28be 7b3f
00000200: 324d 5abf 9394 22bf 1e18 02bf 42e9 f13f
00000210: 82e4 dabe b647 923f aa20 0140 2d3c 333f
00000220: 47b8 bbbe e06d 293e e0dd 173f 1646 a6be
00000230: cd2f ab3f 9c3b 59bf c007 39bf f651 dcbf
00000240: 58fa dd3f 6782 9e3e c87a 693f 0bde 1c3f
00000250: ed98 9bbf 3525 f7be 1edc 503f 3149 31be
00000260: 4051 19bf cd1f f8bf f072 273d 395b 233f
00000270: 737b df3e 247c 83bf 3242 203f bc6a 7e3f
00000280: 229a 7fbe b6ee 303f 9482 03be 83ae 10bf
00000290: 0d0e c03e b6c1 eebf 5128 103d be93 7abf
000002a0: 5b77 a0be bd19 a7bf 6ee1 c83f 1e35 5abf
000002b0: 9aca 203f fe19 363f cf18 bd3e f91c 5a3f
000002c0: 7b84 01bf 70ef dc3e 9c09 753e 99c3 bebe
000002d0: 1211 a73f 9e08 583f 5168 72bf 7cc2 893f
000002e0: f853 76bd bc05 9abf ae77 a73f 99a4 a5be
000002f0: ab1e e2be 7711 9bbb 01d3 b03f 4a29 7c3f
00000300: 6ff5 0040 612b 3a3f 026b e4be ced2 7bbe
00000310: 09da 363f 9334 d83f 752f 483f 1d39 183f
00000320: 9f0b b6bf 4b5b 70be 88d9 03bf bb8c 813f
00000330: 6577 88bf f2e4 b5bf ea51 aabf fc98 963e
00000340: 95c0 dbbe 0529 e7be e7b5 5a3f be71 023f
00000350: ad1e 3d3f 5eeb b3bf 0d41 d53e 33ad 7c3f
00000360: 760c 043e 0bfe 83bf f8c1 b53e 5324 9dbf
00000370: dc5e 3b3f 46b0 b7bf fb7f 40bf abdd 203f
00000380: 2332 a73f 764e 00c0 5c7b 3bbf 4e9a 663f
00000390: 82fe a0bf 7c03 b83e 2c0e 5ebe 3277 9bbe
000003a0: 6460 b1bf a681 dcbe f081 033e 10fc bd3f
000003b0: 993f afbf 5349 d0be 1dc7 b93f c1bd a63f
000003c0: 1bc1 b7bf 2c44 edbc bd48 e2bf 3d1d b5be
000003d0: 5fc7 5dbf 3f9e 713f b689 8a3e bac8 e53e
000003e0: b16a ab3d 0729 83bd f858 8cbf 648b 873f
000003f0: 0970 d7be 03b8 d5be 6fb9 0c40 82ac c03e

transformer.layers.0.self_attn.in_proj_weight f4 [192, 64]
0.055567805 0.051524423 -0.12904593 -0.09858592 -0.047968894 0.10829836 0.14458841 -0.07315334
-0.060821977 -0.12486904 0.0104046175 0.06385516 0.13427679 0.14402261 -0.08869091 -0.1284594
0.059723534 -0.10091765 0.08557739 0.14953242 -0.03094774 -0.0726377 0.029970976 0.08631856
0.017388467 0.11179749 -0.024244398 0.09692982 -0.016785672 0.06271239 0.06800532 0.029010272
0.15101598 -0.04083268 -0.114368334 -0.028352592 0.08585179 0.09095261 0.067240044 0.124410614
0.09342331 0.1365192 0.07828704 0.109382056 -0.12532479 -0.09111054 -0.07275268 -0.0756203
-0.12186423 -0.02662149 0.14743787 0.08543445 0.044539396 0.018519713 -0.09613611 -0.003907782
-0.030795038 -0.117493235 0.13460618 0.0016741251 -0.04746241 -0.11609559 0.04966231 -0.12019577
-0.05411523 -0.07969295 -0.016639903 0.12140398 -0.11830172 -0.021966873 0.04579552 -0.0565563
0.15827152 -0.07928671 0.016112199 -0.03052733 -0.008583038 0.12817599 0.084275104 -0.13032655
0.05342293 -0.0627032 -0.11139648 -0.10089087 0.071680635 -0.059436392 0.022882205 0.078924544
-0.07647223 0.099042244 0.06190929 0.026599329 0.0097685475 0.09931917 -0.04461059 -0.022767192
0.12594377 -0.13738537 -0.0968429 -0.05451427 0.04065597 -0.13081737 0.014188594 -0.052328255
-0.12989849 0.02518594 0.0289832 -0.0026997193 -0.06251132 -0.122372486 -0.054515794 0.13427204
0.0065619946 0.1564252 0.13560383 0.09230866 0.13788721 0.06429708 0.15127137 -0.048112016
-0.042684063 0.06802117 -0.04388174 -0.07622738 -0.019403819 0.040562775 0.13078451 -0.059226543
0.10499352 0.116293974 0.15704383 0.047642756 -0.05150211 0.13165101 -0.028235171 -0.08027865
-0.03796538 -0.01075327 -0.004513939 -0.059946314 -0.07571294 0.12895527 0.036442008 -0.11175611
-0.1391247 0.006381412 -0.084859334 -0.07675659 -0.09402469 -0.0524554 0.115037166 0.04069963
0.07124276 -0.02835337 -0.13764921 0.039279096 -0.036445487 0.034468114 -0.04469803 -0.054506954
-0.15183029 0.009870693 0.0062934346 0.11648469 0.077488236 -0.083032995 0.032945212 0.12172631
-0.04374951 -0.026988031 0.06444021 -0.08735891 0.05503854 0.10387113 0.03448041 -0.09519589
-0.019574475 -0.032306086 0.0389434 -0.052533623 -0.14095607 -0.075202785 -0.10662866 -0.04034198
-0.07352781 -0.106476024 -0.08586771 -0.10775994 -0.043082103 -0.050296776 0.09336275 0.045407392
0.03776534 -0.12420242 0.1382054 0.115560755 -0.14108269 0.14473857 0.06409741 -0.037470847
0.10473775 -0.08234678 0.11818863 -0.0964889 0.12509346 0.0442364 0.103491396 -0.07835488
-0.13757542 0.080435075 -0.08524765 0.081203565 -0.033492494 -0.13065611 -0.14580734 -0.09572883
-0.08034395 -0.11434836 -0.13201691 -0.11113393 0.06679781 -0.1449225 0.09230699 0.14860053
0.02669507 0.1135695 -0.04912299 0.15674877 0.12833571 0.10845578 -0.058920544 0.07300774
0.003461871 -0.1421603 0.14100268 -0.115842715 0.046777535 0.0061007915 0.095220536 -0.0686014
0.12066047 0.13422233 -0.09458563 0.1088378 0.0017048323 0.00043296153 0.09472635 -0.11258091
-0.010115675 0.007845251 0.14492092 -0.03245676 -0.035055477 0.13423932 -0.13731492 0.14159445
00000000: 119b 633d 460b 533d 9e24 04be 6ae7 c9bd
00000010: 087b 44bd 88cb dd3d fc0e 143e 6bd1 95bd
00000020: 7720 79bd 57bb ffbd 2178 2a3c 7ec6 823d
00000030: db7f 093e aa7a 133e 94a3 b5bd dc8a 03be
00000040: aaa0 743d eaad cebd 3343 af3d 071f 193e
00000050: 1d86 fdbc 13c3 94bd b185 f53c c9c7 b03d
00000060: 4272 8e3c 15f6 e43d 309c c6bc 2483 c63d
00000070: 1b82 89bc 5b6f 803d 6046 8b3d f3a6 ed3c
00000080: efa3 1a3e 2b40 27bd f239 eabd b243 e8bc
00000090: 10d3 af3d 5d45 ba3d 26b5 893d feca fe3d
000000a0: b854 bf3d b0cb 0b3e f554 a03d b303 e03d
000000b0: 2455 00be 2a98 babd 5bff 94bd d1de 9abd
000000c0: f493 f9bd 5015 dabc f4f9 163e 42f8 ae3d
000000d0: f16e 363d a7b6 973c 02e3 c4bd da0c 80bb
000000e0: e045 fcbc 4ba0 f0bd 34d6 093e 516e db3a
000000f0: f267 42bd 86c3 edbd b56a 4b3d 3329 f6bd
00000100: eea7 5dbd 0f36 a3bd 6850 88bc a6a2 f83d
00000110: 2c48 f2bd dff3 b3bc 1594 3b3d 94a7 67bd
00000120: ee11 223e 1261 a2bd bbfd 833c 7314 fabc
00000130: df9f 0cbc 9140 033e 6d98 ac3d 5374 05be
00000140: 01d2 5a3d 896a 80bd d623 e4bd df9f cebd
00000150: 4ccd 923d 9373 73bd 7673 bb3c 31a3 a13d
00000160: 799d 9cbd a9d6 ca3d 9894 7d3d d6e6 d93c
00000170: 420c 203c d967 cb3d 98b9 36bd 4382 babc
00000180: 67f7 003e c0ae 0cbe 9255 c6bd 5b4a 5fbd
00000190: e086 263d fdf4 05be 4777 683c 2756 56bd
000001a0: 1c04 05be bf52 ce3c 2d6e ed3c c6ed 30bb
000001b0: ef05 80bd 6d9e fabd f44b 5fbd 9c7e 093e
000001c0: 0006 d73b ed2d 203e bbdb 0a3e 530c bd3d
000001d0: 4e32 0d3e 30ae 833d e2e6 1a3e 1b11 45bd
000001e0: 7cd5 2ebd af4e 8b3d 57bd 33bd 1a1d 9cbd
000001f0: c2f4 9ebc 2725 263d 60ec 053e 8897 72bd
00000200: d806 d73d 892b ee3d 19d0 203e 0d25 433d
00000210: e0f3 52bd 86cf 063e 724d e7bc 2269 a4bd
00000220: 9681 1bbd 7c2e 30bc aae9 93bb 448a 75bd
00000230: 630f 9bbd da0c 043e 3744 153d 63e0 e4bd
00000240: b576 0ebe 2a1b d13b bbca adbd 8f32 9dbd
00000250: 0490 c0bd 79db 56bd 9b98 eb3d a8b4 263d
00000260: b9e7 913d 5445 e8bc eaf3 0cbe 1ee3 203d
00000270: dd47 15bd 702e 0d3d 4815 37bd af42 5fbd
00000280: 6679 1bbe b0b8 213c 2839 ce3b 868f ee3d
00000290: 27b2 9e3d 340d aabd 8ff1 063d a54b f93d
000002a0: b032 33bd 0116 ddbc 3bf9 833d 3ae9 b2bd
000002b0: 1870 613d 63ba d43d 553b 0d3d 10f6 c2bd
000002c0: a65a a0bc 6353 04bd 1d83 1f3d 7f2d 57bd
000002d0: ca56 10be eb03 9abd 2060 dabd a23d 25bd
000002e0: c095 96bd 1a10 dabd 69db afbd 3eb1 dcbd
000002f0: dc76 30bd fe03 4ebd f834 bf3d 1afd 393d
00000300: d4af 1a3d d75d febd b785 0d3e 1eab ec3d
00000310: fb77 10be 5936 143e 8145 833d 087b 19bd
00000320: bf80 d63d 6ea5 a8bd e10c f23d f99b c5bd
00000330: 8018 003e 3a31 353d 4cf3 d33d 8678 a0bd
00000340: 92e0 0cbe 25bb a43d 5296 aebd 0e4e a63d
00000350: 6d2f 09bd b7ca 05be 854e 15be 7a0d c4bd
00000360: 5e8b a4bd 792f eabd 712f 07be 309a e3bd
00000370: 4acd 883d 9066 14be 720b bd3d bd2a 183e
00000380: 9faf da3c 2097 e83d 3035 49bd c082 203e
00000390: 706a 033e 101e de3d ab56 71bd 1585 953d
000003a0: 8fe0 623b 7892 11be 0263 103e f23e edbd
000003b0: cd99 3f3d 26e9 c73b fc02 c33d e47e 8cbd
000003c0: d61c f73d 9471 093e 1cb6 c1bd 5ae6 de3d
000003d0: ae74 df3a 1dff e239 e3ff c13d d290 e6bd
000003e0: 37bc 25bc 5e89 003c 2666 143e 61f1 04bd
000003f0: 5596 0fbd 0876 093e 489c 0cbe 23fe 103e

transformer.layers.0.self_attn.in_proj_bias f4 [192]
-0.00051570206 0.0013127084 -0.007771028 0.0033659604 0.007471642 0.0006540452 -0.0057257647 -0.0057517565
-0.004525489 0.007251027 -0.0046708747 0.0025143367 0.0065353224 -0.0057974206 0.007101375 -0.0065473095
0.003071532 -0.0004926713 0.0040790276 -0.0025519354 -0.003600516 -0.0054225675 -0.0038494014 -0.00051051093
-0.0067175855 0.00076297356 -0.0017029642 -0.0024226594 -0.0045736083 -0.004915769 -0.002448308 0.0012209289
-0.0023612846 -0.007159722 0.0041130558 0.0015714883 -0.0001344249 -0.0024690996 0.0010087927 0.0017109459
0.002377757 -0.00055496464 -0.0066921134 -0.0021015648 0.005426871 0.0013962169 -0.00033851535 0.0034584643
0.0066993525 -0.0032522986 -0.0025944626 -0.0053681275 -0.0013009465 0.0017902383 0.0007817665 0.0018700152
0.0048338333 0.005784163 0.0013974084 -0.0018815201 -0.0031726207 -0.001181801 -0.0059693884 -0.0044970755
3.513704e-05 6.0039423e-05 6.458165e-05 2.8022638e-05 0.00011859673 7.971182e-05 -9.379141e-06 -0.00013374595
1.9282045e-06 -7.81661e-05 0.00015835385 6.843991e-05 6.043111e-05 -3.0220883e-05 -2.6785028e-05 2.7779624e-05
1.0928238e-05 2.8755998e-05 7.990013e-05 -7.420184e-05 3.097275e-05 -0.00016230225 -0.0001087441 -0.00012496197
-9.11262e-06 -7.851133e-06 -9.223632e-05 5.0743187e-05 1.1951437e-05 9.700595e-06 1.3221396e-05 -6.284666e-05
-1.9557758e-05 4.8454087e-05 2.8542907e-05 1.1283408e-05 1.3369521e-05 3.0669522e-05 4.497718e-05 -7.50754e-05
3.184593e-05 -0.00011092314 -0.000108635664 7.5178985e-05 -7.153491e-05 -3.6628375e-05 5.96542e-05 3.575497e-05
-8.743524e-05 -7.200846e-05 4.3879823e-05 1.9172216e-05 8.594127e-05 0.0001372036 0.00020437475 -3.0421556e-06
4.5261135e-05 -0.0001344809 -1.0652275e-05 -6.413167e-05 5.72679e-06 4.1090774e-05 -4.4040436e-05 -0.00015396629
0.004112661 0.0030917337 0.0065917573 0.004773281 -0.005647833 -0.0046561365 0.0035590918 -0.006171489
-0.0033450578 -0.0045048865 0.006238925 -0.0019228476 -0.0014867672 -5.0138136e-05 0.0053075384 -0.004158004
0.006897337 -0.0044553154 -0.004857017 0.0047747013 0.0022013467 -0.0022777538 -0.0046026306 0.0010653094
-0.00020889468 -0.0002620186 -0.002223798 0.0013609097 0.0022251294 -0.0061206156 -0.0036597883 -0.0049003502
0.0020452933 -0.00233248 0.002706972 -0.0009360846 0.001473699 -0.0067128316 0.0073811775 -0.0025902821
0.0029913418 0.0015602388 -0.003511058 0.00032279926 0.0032951594 -0.003779782 0.003625729 0.0056102127
0.007711062 0.0028857836 0.00043977794 0.0015737056 -0.001636045 0.0045194137 0.0011555561 -0.0035601915
-0.0036945927 -0.0033294887 -0.006464846 0.004085895 0.0009875734 -0.002901289 0.0064076814 0.0006901899
00000000: 2e30 07ba 2f0f ac3a 1ca4 febb 7297 5c3b
00000010: add4 f43b 3b74 2b3a 329f bbbb 3b79 bcbb
00000020: 8e4a 94bb 069a ed3b 230e 99bb 92c7 243b
00000030: 4226 d63b 4af8 bdbb a7b2 e83b d08a d6bb
00000040: c14b 493b 9c26 01ba 5da9 853b 5f3e 27bb
00000050: a2f6 6bbb cbaf b1bb 3d46 7cbb cfd3 05ba
00000060: 311f dcbb 4a02 483a ff35 dfba 7bc5 1ebb
00000070: 35de 95bb 7614 a1bb cb73 20bb 9307 a03a
00000080: c8bf 1abb 1a9c eabb d0c6 863b 66fa cd3a
00000090: 69f4 0cb9 9ed0 21bb 7739 843a d141 e03a
000000a0: 25d4 1b3b 0c7b 11ba 8449 dbbb 68ba 09bb
000000b0: e5d3 b13b 4401 b73a c37a b1b9 67a7 623b
000000c0: 3e86 db3b 8424 55bb dc07 2abb 1ee7 afbb
000000d0: 8584 aaba 6ea6 ea3a 76ef 4c3a 4c1b f53a
000000e0: 2265 9e3b 1389 bd3b 3f29 b73a 579d f6ba
000000f0: beeb 4fbb a9e6 9aba dc9a c3bb 345c 93bb
00000100: 1c60 1338 d7d2 7b38 0270 8738 2812 eb37
00000110: 22b7 f838 f52a a738 1b5b 1db7 283e 0cb9
00000120: 4d66 0136 1bed a3b8 ca0b 2639 6687 8f38
00000130: 6977 7d38 da82 fdb7 69b0 e0b7 4a08 e937
00000140: 6d58 3737 0939 f137 0e90 a738 cf9c 9bb8
00000150: bde8 0138 ae2f 2ab9 8b0d e4b8 3908 03b9
00000160: 68e2 18b7 5cb8 03b7 ff6e c1b8 15d5 5438
00000170: 0883 4837 bdbf 2237 77d1 5d37 8bcc 83b8
00000180: f70f a4b7 2e3b 4b38 6d6f ef37 de4d 3d37
00000190: a84d 6037 26a3 0038 e1a5 3c38 cc71 9db8
000001a0: 4f92 0538 689f e8b8 54d3 e3b8 69a9 9d38
000001b0: 0305 96b8 6ba1 19b8 3635 7a38 9bf7 1538
000001c0: 705d b7b8 3f03 97b8 9a0b 3838 05d4 a037
000001d0: 5e3b b438 50de 0f39 6e4d 5639 d627 4cb6
000001e0: c6d6 3d38 7103 0db9 2cb7 32b7 6e7e 86b8
000001f0: c028 c036 e258 2c38 0fb8 38b8 0372 21b9
00000200: 80c3 863b af9e 4a3b abff d73b 2f69 9c3b
00000210: 7511 b9bb 8192 98bb a73f 693b 343a cabb
00000220: c238 5bbb ba9d 93bb e56f cc3b 0f08 fcba
00000230: a1df c2ba 6a4b 52b8 dcea ad3b de3f 88bb
00000240: 0e03 e23b e5fd 91bb 9d27 9fbb 1975 9c3b
00000250: 7844 103b 5e46 15bb aad1 96bb daa1 8b3a
00000260: bd0a 5bb9 8b5f 89b9 24bd 11bb 8d60 b23a
00000270: 7ad3 113b 728f c8bb 0fd9 6fbb 1e93 a0bb
00000280: 540a 063b 85dc 18bb 7467 313b 9363 75ba
00000290: 2229 c13a 50f7 dbbb cedd f13b b9c1 29bb
000002a0: 630a 443b ed80 cc3a c719 66bb 623d a939
000002b0: 9af3 573b 38b6 77bb a39d 6d3b e0d5 b73b
000002c0: 14ad fc3b 6a1f 3d3b ff91 e639 cc44 ce3a
000002d0: 9070 d6ba 9717 943b 0776 973a 1a52 69bb
000002e0: fb20 72bb 8d33 5abb 0fd7 d3bb f9e2 853b
000002f0: 7771 813a 8d23 3ebb 87f7 d13b dced 343a

transformer.layers.0.self_attn.out_proj.weight f4 [64, 64]
0.028884547 -0.02439742 -0.031326566 -0.089998975 0.08966459 0.03028837 0.10272222 -0.11441535
-0.024202041 0.12315835 0.026298702 -0.11344571 -0.061611064 0.01733475 -0.06734625 -0.09161709
-0.038542885 0.07873119 0.08963103 0.106200464 -0.036403835 -0.0847811 -0.055283662 -0.0001903423
-0.11496478 0.07514631 0.040283363 0.030060183 0.1010177 -0.12925674 0.016783739 -0.07393952
-0.016597476 -0.0054845395 0.06269864 -0.09809631 0.023781313 -0.037921306 -0.0060698194 0.07628069
-0.012402265 -0.067137785 0.11840185 0.06866475 -0.101545505 0.11609907 0.030356685 0.1057347
-0.0034695817 0.07948734 -0.0897277 -0.048372265 0.063705444 0.033188015 0.07480662 0.004663776
0.057736795 0.012718562 0.07458131 -0.10553368 0.090245955 -0.028359266 -0.014662081 0.07450079
-0.002332264 0.11847922 0.06814168 0.08167922 -0.09498326 0.0013989026 0.011545759 0.01609014
-0.05466407 -0.005834004 -0.056324497 0.027807578 0.021045543 -0.06618903 -0.0847692 -0.047274027
-0.024911592 -0.023220707 -0.094557054 0.018687585 0.06211801 -0.011728408 -0.061687607 -0.08921257
-0.010677456 0.09508767 -0.055988945 0.0395254 -0.029044162 -0.03352529 -0.06908964 0.035628144
-0.0161631 0.024272643 0.11704599 0.102620736 0.07029447 -0.116393544 0.016156076 -0.08833249
-0.045835957 -0.122017026 -0.086986035 0.022715133 -0.108092 -0.031419594 -0.07174357 0.010208356
0.086322926 0.0836018 -0.072550945 -0.004446134 0.077680826 0.044781584 -0.09878943 0.01447394
0.07754233 -0.07150901 -0.00822505 0.042696055 -0.01485989 0.010662106 -0.083582275 0.08367959
0.08838025 0.07058553 -0.09914942 -0.006689474 -0.0538388 0.032074053 -0.10813542 0.042264972
0.10038629 -0.06361345 -0.028871324 0.09304394 -0.043534223 0.05430861 -0.10913404 -0.07743125
-0.04528485 -0.00068635406 -0.07815822 -0.0917477 0.005665048 -0.017030247 0.1251815 -0.12102286
-0.063634604 -0.07576601 -0.05653077 -0.037268486 0.059996627 -0.06833427 -0.119057104 0.020621011
0.09373416 -0.052334577 0.10145617 0.06968634 0.0021486448 -0.1194813 -0.073676385 0.04942616
-0.10757413 0.11093376 0.01949306 -0.07148634 -0.08529061 0.016603727 0.0019098814 0.07982596
0.019405335 0.030437391 0.02741947 0.11581995 0.015835088 0.10816692 -0.04827871 0.0048178933
0.047439884 0.09086494 -0.088050686 -0.0567122 -0.11650966 -0.046033286 -0.007939112 -0.1138239
-0.046388175 0.04529972 0.07464242 0.10339286 -0.0050102184 0.023928696 -0.06999267 -0.021136926
0.08866628 -0.09567545 -0.08576438 0.11954004 0.099844515 0.08478957 -0.057034846 -0.12000171
-0.00033475528 0.0019913474 -0.05892519 0.066504374 0.094283424 0.015693482 0.115222596 -0.007369691
0.07320598 -0.02759196 0.095534034 -0.008974409 -0.013893147 0.023581468 0.118388176 0.073271744
0.1218598 -0.09791535 0.10110997 0.02062361 0.06669308 0.034222305 0.034564387 -0.10387064
-0.09970797 0.02901643 0.09644068 0.11415079 0.07818607 -0.048150305 -0.07531565 -0.10341047
-0.076580554 0.10188297 -0.018465344 -0.10068084 0.1105733 -0.013219405 -0.08083893 -0.0144466255
0.019806867 -0.07715283 -0.01604732 0.117542624 -0.07273279 0.045788478 0.12163716 -0.12049206
00000000: 499f ec3c 19dd c7bc 4950 00bd 6251 b8bd
00000010: 12a2 b73d 511f f83c 0760 d23d 9852 eabd
00000020: 5c43 c6bc 723a fc3d 6070 d73c 3956 e8bd
00000030: e25b 7cbd 9b01 8e3c d5ec 89bd bea1 bbbd
00000040: 25df 1dbd d13d a13d 7990 b73d a17f d93d
00000050: 301c 15bd b7a1 adbd 1f71 62bd 9f96 47b9
00000060: a872 ebbd 4fe6 993d 2b00 253d c640 f63c
00000070: 5ee2 ce3d e15b 04be 0d7e 893c 9a6d 97bd
00000080: 6ef7 87bc a7b7 b3bb 2568 803d b8e6 c8bd
00000090: 07d1 c23c 5f53 1bbd 56e5 c6bb 0d39 9c3d
000000a0: df32 4bbc 897f 89bd ab7c f23d 1ba0 8c3d
000000b0: 17f7 cfbd 59c5 ed3d 95ae f83c 6f8b d83d
000000c0: ec61 63bb 42ca a23d 28c3 b7bd ff21 46bd
000000d0: 0078 823d 28f0 073d 3734 993d 97d2 983b
000000e0: 6b7d 6c3d 8461 503c 16be 983d 0b22 d8bd
000000f0: dfd2 b83d b151 e8bc 3a39 70bc df93 983d
00000100: e6d8 18bb 3ca5 f23d dd8d 8b3d 6f47 a73d
00000110: 9586 c2bd 625b b73a 6c2a 3d3c 78cf 833c
00000120: 6fe7 5fbd 2c2b bfbb 84b4 66bd b8cc e33c
00000130: b467 ac3c 1d8e 87bd 799b adbd 69a2 41bd
00000140: 6513 ccbc 5a39 bebc 21a7 c1bd b516 993c
00000150: 746f 7e3d 8228 40bc 25ac 7cbd 14b5 b6bd
00000160: 7ff0 2ebc 53bd c23d aa54 65bd 63e5 213d
00000170: 06ee edbc d151 09bd df7e 8dbd d1ee 113d
00000180: 7a68 84bc 6cd7 c63c cfb5 ef3d d22a d23d
00000190: 8cf6 8f3d bd5f eebd bf59 843c aae7 b4bd
000001a0: 7cbe 3bbd 10e4 f9bd bc25 b2bd 1615 ba3c
000001b0: 575f ddbd d5b1 00bd 4bee 92bd f340 273c
000001c0: 13ca b03d 6c37 ab3d 9795 94bd e0b0 91bb
000001d0: 2017 9f3d e56c 373d 1d52 cabd 1b24 6d3c
000001e0: 83ce 9e3d 5173 92bd 5cc2 06bc 0fe2 2e3d
000001f0: e576 73bc 1db0 2e3c 2f2d abbd 3460 ab3d
00000200: b400 b53d 258f 903d da0e cbbd 6033 dbbb
00000210: 1386 5cbd 1560 033d 1a76 ddbd 091e 2d3d
00000220: 5497 cd3d c547 82bd 8e83 ecbc d28d be3d
00000230: f150 32bd b472 5e3d ab81 dfbd 4694 9ebd
00000240: 9b7c 39bd 71ec 33ba 6b11 a0bd 38e6 bbbd
00000250: dea1 b93b 0483 8bbc 942f 003e d5da f7bd
00000260: dc52 82bd 362b 9bbd cf8c 67bd d7a6 18bd
00000270: 06bf 753d d6f2 8bbd 36d4 f3bd 65ed a83c
00000280: b2f7 bf3d c85c 56bd 41c8 cf3d b6b7 8e3d
00000290: 47d0 0c3b 9db2 f4bd a5e3 96bd 1673 4a3d
000002a0: d34f dcbd 3d31 e33d e9af 9f3c 6e67 92bd
000002b0: d8ac aebd 8a04 883c fc54 fa3a cb7b a33d
000002c0: f0f7 9e3c d657 f93c cc9e e03c 0333 ed3d
000002d0: 96b8 813c 9e86 dd3d e6bf 45bd 6bdf 9d3b
000002e0: 5350 423d 6617 ba3d eb53 b4bd 0d4b 68bd
000002f0: 9e9c eebd 668d 3cbd 0d13 02bc 811c e9bd
00000300: 8701 3ebd 338c 393d 20de 983d a3bf d33d
00000310: c22c a4bb 1d06 c43c 5158 8fbd 5927 adbc
00000320: ab96 b53d 7ef1 c3bd 3ca5 afbd 69d1 f43d
00000330: 487b cc3d 27a6 ad3d 5f9d 69bd 75c3 f5bd
00000340: 1882 afb9 4481 023b 8a5b 71bd 7233 883d
00000350: ab17 c13d 9e8f 803c d3f9 eb3d 737d f1bb
00000360: 04ed 953d 8908 e2bc 59a7 c33d 6609 13bc
00000370: 15a0 63bc ec2d c13c 8075 f23d 7f0f 963d
00000380: a191 f93d d887 c8bd be12 cf3d d8f2 a83c
00000390: 6296 883d b02c 0c3d 6393 0d3d 21ba d4bd
000003a0: b133 ccbd ddb3 ed3c b182 c53d e4c7 e93d
000003b0: 0520 a03d 4139 45bd 173f 9abd dec8 d3bd
000003c0: 44d6 9cbd 05a8 d03d a244 97bc c231 cebd
000003d0: 4174 e23d 3496 58bc e28e a5bd 8ab1 6cbc
000003e0: 0342 a23c 4e02 9ebd ab75 83bc 30ba f03d
000003f0: eef4 94bd b38c 3b3d e71c f93d 8bc4 f6bd

transformer.layers.0.self_attn.out_proj.bias f4 [64]
-0.0032068917 0.004883171 -0.0036499111 0.00024110099 -0.0024927922 -0.002535343 -0.00304572 0.0022559373
0.0014489627 -0.0014549841 0.0031615077 0.0067491867 -0.0044903625 0.0030412402 -0.003710102 0.0077516926
0.0015987477 -0.0029632163 0.0017138278 -0.0029144795 -0.0013654191 0.00040584573 0.0027766605 -0.0064953715
9.955671e-05 -0.00421135 0.004016741 0.001586993 0.0024386216 -0.0029489133 0.0057842303 0.0037872833
0.0029338019 0.0005388031 0.0011734064 0.005291459 0.0040335692 0.0068045193 -0.0010572954 0.00038540407
-0.0062286183 -0.0027370546 0.0045632194 -0.0055297124 0.0036852623 -0.0009985798 0.0009473809 -0.00038927543
0.005396009 -0.002361291 -0.0010223062 -0.0055349246 0.00073019526 -0.0015789408 -0.0028374076 0.0025394568
-0.0021334342 0.004323163 0.00021727118 0.00066179206 0.0030875313 -0.001835693 -0.0014455979 0.0018594153
00000000: b72a 52bb 0203 a03b 5933 6fbb 0ed0 7c39
00000010: 1d5e 23bb ff27 26bb b49a 47bb 59d8 133b
00000020: 1feb bd3a 2ab5 beba 4c31 4f3b 4828 dd3b
00000030: e423 93bb 8b4f 473b 2f25 73bb e901 fe3b
00000040: 128d d13a 8532 42bb 85a2 e03a da00 3fbb
00000050: ddf7 b2ba b1c7 d439 a2f8 353b 20d7 d4bb
00000060: 1ac9 d038 5dff 89bb de9e 833b a602 d03a
00000070: 48d1 1f3b 8e42 41bb a489 bd3b 1234 783b
00000080: 0745 403b 773e 0d3a fccc 993a fa63 ad3b
00000090: 082c 843b 72f8 de3b f294 8aba 0f10 ca39
000000a0: 7019 ccbb 2860 33bb 0f87 953b 9732 b5bb
000000b0: 7184 713b c7e2 82ba a859 783a aa17 ccb9
000000c0: 01d1 b03b e4bf 1abb e7fe 85ba 505e b5bb
000000d0: 936a 3f3a 76f4 ceba cdf3 39bb 046d 263b
000000e0: 16d1 0bbb 52a9 8d3b 4ad3 6339 1d7c 2d3a
000000f0: 2e58 4a3b a39b f0ba 377a bdba a0b7 f33a

transformer.layers.0.linear1.weight f4 [256, 64]
0.010746307 -0.04424449 -0.11011575 -0.010699514 -0.082717985 0.109040335 -0.08982358 0.053911503
-0.10628834 0.023993228 -0.008370824 -0.05766046 -0.039636414 0.048695758 -0.056037854 -0.11989074
0.09954763 0.06807503 0.08423261 0.102183536 0.011402904 0.05407241 -0.058491595 -0.0047889557
0.08911404 -0.09549415 -0.09853607 0.085089564 0.10577789 0.03269654 0.099211305 -0.06886435
0.00714389 -0.07238447 0.074427694 0.06440205 -0.02950928 0.11488945 0.009683543 -0.12594104
-0.052303117 0.09513285 -0.031251695 0.023544014 -0.016617982 -0.016973319 -0.062425043 -0.06577207
-0.003536817 0.086042784 0.11248454 0.010778514 0.10288967 -0.018203462 -0.027744642 0.07502905
0.035102732 -0.08067283 0.09553782 -0.0854387 0.03260712 0.058398906 -0.05852358 0.090916924
0.08712018 -0.05468993 -0.11575251 0.020923305 -0.095925204 -0.028969077 0.020752817 -0.03993219
0.089272395 0.04734813 0.007295975 -0.07527317 -0.049964596 0.08786793 -0.09522799 -0.0030515485
-0.040913694 0.09850636 0.105015494 -0.0004888715 -0.06355527 0.0034420907 -0.0115295695 0.012352382
-0.07088372 -0.09792904 0.11859621 0.06709647 -0.10561654 0.053252485 0.085655704 -0.030409679
0.12320023 0.013994194 -0.10397402 -0.11582104 0.07949537 0.008734912 -0.045264855 -0.10243239
-0.08349894 0.098272435 -0.08558463 -0.0028473486 0.118072465 -0.10604426 0.10757924 0.108967274
-0.113653116 -0.12583862 0.026837004 0.06444553 0.085503206 -0.082000576 -0.11334799 0.108380914
-0.10425216 0.017750619 -0.08005822 0.107569836 -0.057674117 0.034313504 0.11982742 -0.07532146
-0.034138877 0.010035844 0.00038501565 0.10318132 -0.09760773 -0.06193073 0.014863439 -0.11176933
-0.08226625 -0.06437407 -0.116676874 0.10677423 0.06760706 -0.12104741 0.017192898 0.0015986919
0.09172292 -0.11317383 0.10209215 0.05083093 -0.058008727 -0.03218809 -0.087797746 -0.019956416
0.032840125 0.012400679 0.08880514 0.10913853 -0.06565931 0.092660196 -0.11339301 0.0626443
-0.02772732 0.068846695 -0.09452881 -0.07512371 -0.07098711 0.059243616 0.05626514 -0.066299
-0.006169241 -0.0065842997 0.08448666 0.110456996 0.09147813 -0.06668639 -0.029335972 0.09814169
0.0798703 -0.051429532 -0.024893768 -0.023789205 0.014813498 -0.012699196 0.010810033 0.11999411
0.0751894 -0.043968126 -0.099953465 0.116602376 -0.040855125 0.080770925 0.10199376 0.08494115
-0.11304008 0.019610597 0.024905413 0.011670573 -0.11683245 -0.09958507 -0.019917032 0.095878296
-0.017006397 0.041400786 -0.023221768 -0.10757673 0.0075137177 -0.08475172 0.09303333 -0.12071637
0.025632828 0.047903147 -0.07983953 -0.049710482 -0.069979146 -0.06024343 -0.10877758 -0.06445647
0.08531821 -0.06669409 -0.03480266 -0.02252832 0.10371453 0.05359148 0.06484061 0.09063949
-0.07894604 0.023912994 -0.055577 0.055112395 -0.103294544 0.1148708 -0.12088063 0.12319155
0.023721399 -0.0020332297 -0.005221638 0.022810575 -0.023638356 -0.088866025 -0.0110323345 0.08586849
0.10754242 -0.025416583 0.092658386 -0.02710083 -0.07996809 0.11941569 -0.115524285 -0.10448425
0.034400858 0.057723477 -0.012643002 0.04725324 -0.06946702 -0.040566586 0.11184337 -0.06722202
00000000: 4711 303c b639 35bd 5e84 e1bd 044d 2fbc
00000010: 0c68 a9bd 8a50 df3d 6df5 b7bd 4fd2 5c3d
00000020: b4ad d9bd 728d c43c c825 09bc 602d 6cbd
00000030: cb59 22bd 3475 473d f387 65bd 4789 f5bd
00000040: a1df cb3d ec6a 8b3d 2682 ac3d 9a45 d13d
00000050: 3fd3 3a3c 087b 5d3d e294 6fbd acec 9cbb
00000060: 6c81 b63d 7092 c3bd 47cd c9bd 7043 ae3d
00000070: 14a2 d83d cfec 053d 4c2f cb3d c108 8dbd
00000080: 4b17 ea3b 4f3e 94bd 8c6d 983d 39e5 833d
00000090: 72bd f1bc 294b eb3d b9a7 1e3c b0f6 00be
000000a0: cb3b 56bd 03d5 c23d c701 00bd 60df c03c
000000b0: 6f22 88bc a10b 8bbc 67b1 7fbd 82b3 86bd
000000c0: f1c9 67bb 3337 b03d 4b5e e63d 5d98 303c
000000d0: d2b7 d23d 6d1f 95bc bb48 e3bc d5a8 993d
000000e0: e2c7 0f3d cc37 a5bd 55a9 c33d 7cfa aebd
000000f0: 0b8f 053d b133 6f3d 6cb6 6fbd a732 ba3d
00000100: 116c b23d 8c02 60bd a70f edbd 5a67 ab3c
00000110: 6f74 c4bd 8f50 edbc d001 aa3c f08f 23bd
00000120: 72d4 b63d 1df0 413d 1313 ef3b d228 9abd
00000130: ada7 4cbd 1af4 b33d e406 c3bd 7dfc 47bb
00000140: 1e95 27bd b4bd c93d 5d12 d73d 9c27 00ba
00000150: 4429 82bd b394 613b 85e6 3cbc a561 4a3c
00000160: 7c2b 91bd 058f c8bd 92e2 f23d e069 893d
00000170: 7c4d d8bd 471f 5a3d 426c af3d b81d f9bc
00000180: 6750 fc3d e747 653c 55f0 d4bd 9533 edbd
00000190: 78ce a23d e01c 0f3c a467 39bd 13c8 d1bd
000001a0: 7e01 abbd 0f43 c93d ff46 afbd 959a 3abb
000001b0: facf f13d bc2d d9bd 8152 dc3d 3c2a df3d
000001c0: f7c2 e8bd d7db 00be 47d9 db3c 05fc 833d
000001d0: 4e1c af3d ebef a7bd fe22 e8bd d0f6 dd3d
000001e0: 2882 d5bd bf69 913c 90f5 a3bd 934d dc3d
000001f0: b23b 6cbd 518c 0c3d 1468 f53d 2342 9abd
00000200: 35d5 0bbd 616d 243c eddb c939 ba50 d33d
00000210: 90e6 c7bd 14ab 7dbd c885 733c 52e7 e4bd
00000220: 357b a8bd 8dd6 83bd 49f4 eebd 73ac da3d
00000230: 9275 8a3d b4e7 f7bd 1fd8 8c3c 338b d13a
00000240: 3ad9 bb3d aec7 e7bd b015 d13d 1834 503d
00000250: 8f9a 6dbd a9d7 03bd 4ecf b3bd a37b a3bc
00000260: 5e83 063d 382c 4b3c 78df b53d 0684 df3d
00000270: 6378 86bd a1c4 bd3d 983a e8bd a84b 803d
00000280: 6824 e3bc 7fff 8c3d 5298 c1bd 76da 99bd
00000290: b161 91bd 6fa9 723d 4776 663d c5c7 87bd
000002a0: 5827 cabb 1cc1 d7bb 5807 ad3d 4737 e23d
000002b0: e358 bb3d e092 88bd fe51 f0bc 83fe c83d
000002c0: 0a93 a33d c6a7 52bd 04ee cbbc 94e1 c2bc
000002d0: 50b4 723c 4a10 50bc 911c 313c 79bf f53d
000002e0: e6fc 993d ec17 34bd 67b4 ccbd 3acd ee3d
000002f0: b457 27bd 3a6b a53d 1be2 d03d a0f5 ad3d
00000300: 8f81 e7bd 67a6 a03c 7006 cc3c ee35 3f3c
00000310: da45 efbd 42f3 cbbd 0b29 a3bc d75b c43d
00000320: 0051 8bbc df93 293d 943b bebc 3051 dcbd
00000330: a235 f63b 4f92 adbd 4288 be3d 253a f7bd
00000340: f0fb d13c 1736 443d e882 a3bd 389d 4bbd
00000350: 3a51 8fbd d1c1 76bd c8c6 debd c101 84bd
00000360: 50bb ae3d e996 88bd 3c8d 0ebd 508d b8bc
00000370: 4968 d43d bd82 5b3d 27cb 843d 32a1 b93d
00000380: 76ae a1bd 2fe5 c33c b5a4 63bd 89bd 613d
00000390: 178c d3bd 6241 eb3d 4490 f7bd da4b fc3d
000003a0: 6153 c23c ef3f 05bb 461a abbb 3edd ba3c
000003b0: 3aa5 c1bc 64ff b5bd f7c0 34bc d2db af3d
000003c0: 333f dc3d 7036 d0bc aec3 bd3d 8f02 debc
000003d0: 4fc6 a3bd 3790 f43d ff97 ecbd d7fb d5bd
000003e0: eae7 0c3d 746f 6c3d 9824 4fbc 9d8c 413d
000003f0: ba44 8ebd 2629 26bd 230e e53d b3ab 89bd

transformer.layers.0.linear1.bias f4 [256]
0.047873188 0.022438858 0.08072967 -0.06661839 -0.03431877 0.09473394 0.020889971 -0.06868394
0.047009382 -0.05539062 -0.05680241 -0.0038680113 -0.07340871 -0.078052245 0.041360162 -0.019403342
0.11257634 0.07266139 -0.01047089 -0.012072416 0.11540659 0.12257568 0.010475543 0.073174395
0.07581191 0.019664748 0.0017179018 0.026256196 0.0049683643 -0.120484695 -0.09198786 -0.02081144
-0.016457994 0.124258354 0.047499448 0.031016748 -0.056454018 -0.096300535 -0.014314793 -0.10257342
0.0060996786 0.048292227 0.02755971 -0.0017565666 0.09834907 0.09101342 -0.12117548 -0.099489115
0.026839009 -0.078282475 0.07826374 0.01962448 -0.08513889 0.06807023 0.06948078 0.09087513
0.020890495 -0.08441837 0.10145579 0.11741439 -0.10777739 -0.06586199 -0.11822944 -0.12358886
-0.08214126 0.017493589 -0.089939274 -0.0568936 0.07727176 -0.004110852 -0.0024982514 -0.10800733
-0.093197234 0.0006164779 0.029954111 -0.10483927 0.019936714 0.09193599 0.08143798 0.008888487
0.07555535 0.0024737436 -0.03859093 -0.050485767 0.05290551 -0.032357827 0.049294576 -0.082038805
0.0648898 -0.11676582 -0.08835087 0.11276349 0.042903367 0.07168445 0.00488398 0.09359936
0.052003823 -0.008589734 -0.09922067 0.07991642 0.07167476 0.10910714 -0.058542505 -0.07036358
-0.053371318 0.056254696 -0.10515306 0.025794411 0.004970473 0.08644856 -0.046353936 0.06529369
-0.0329789 -0.055839825 0.023730125 -0.119935095 0.00024027027 -0.11050245 -0.10299907 -0.0994809
-0.10226785 0.051625274 0.117299385 0.09178228 0.029633552 -0.05987521 -0.05503761 0.06563263
-0.07706477 -0.09617614 0.0011222223 0.0452427 -0.06957407 0.032632846 -0.03989389 -0.12849505
0.03814772 0.06173788 0.05577764 -0.10220082 -0.062079426 -0.1262064 0.0874119 0.04204991
-0.040806018 0.0016708383 -0.091922104 0.028644847 -0.09074092 0.049547914 -0.058594607 -0.058677576
-0.09936148 0.05193915 -0.08390933 -0.034283053 0.040199254 -0.019289589 -0.12711595 -0.0047770147
0.09304609 -0.08039108 -0.030283073 -0.03426933 -0.020714806 0.088035084 -0.06781324 -0.08813232
-0.089231744 0.04782798 0.013555958 0.048710212 -0.06406136 0.04498624 -0.048311606 0.09800542
-0.07399932 0.044709966 -0.008779618 -0.032089267 -0.046768337 0.09751645 -0.11087436 0.10960249
0.12345967 -0.11537593 0.12059003 0.058158122 -0.005733343 0.010435704 0.10694134 0.06754612
-0.048479624 -0.099296644 -0.0065020947 -0.11821209 0.09865645 -0.01622279 0.073415995 0.022903485
-0.050272245 -0.07003429 -0.08147513 -0.07263649 0.064242 -0.0067360154 -0.11570428 -0.062278796
-0.042168185 -0.10478699 -0.05167146 0.09454165 -0.08125919 0.050739694 -0.09680322 -0.10216017
-0.029025467 -0.0904585 -0.031058703 0.045692332 -0.023816785 -0.098716795 0.032684956 -0.04830081
0.086164914 -5.9440812e-05 0.09168064 -0.11398839 -0.101420775 -0.116685696 -0.08006963 0.07244002
0.05337729 0.040537596 -0.017117219 -0.038275428 -0.050804216 -0.025556676 0.081460886 -0.04433567
-0.019842371 -0.11273063 0.03300955 -0.003464377 0.09488903 -0.08195325 -0.09809573 -0.023453124
-0.12530716 0.11006576 0.0094774645 0.07741368 -0.043180846 -0.041104164 0.12001099 0.07536067
00000000: ad16 443d b2d1 b73c 9955 a53d 396f 88bd
00000010: d791 0cbd de03 c23d 7221 ab3c 2aaa 8cbd
00000020: e98c 403d 46e1 62bd a5a9 68bd 767e 7dbb
00000030: 4e57 96bd dbd9 9fbd 4669 293d c2f3 9ebc
00000040: 6d8e e63d 7fcf 943d 198e 2bbc 62cb 45bc
00000050: 4a5a ec3d f508 fb3d 9da1 2b3c 75dc 953d
00000060: 4643 9b3d f717 a13c 382b e13a 3c17 d73c
00000070: a9cd a23b aec0 f6bd 2264 bcbd c17c aabc
00000080: ead2 86bc 2a7b fe3d c88e 423d d616 fe3c
00000090: 543c 67bd 3739 c5bd 9888 6abc 0312 d2bd
000000a0: d0df c73b 12ce 453d e7c4 e13c 983c e6ba
000000b0: 3d6b c93d 3e65 ba3d da2a f8bd f3c0 cbbd
000000c0: 7bdd db3c 9052 a0bd bd48 a03d 84c3 a03c
000000d0: 4c5d aebd 6868 8b3d f04b 8e3d bd1c ba3d
000000e0: 8b22 ab3c 8ae3 acbd 0ec8 cf3d f576 f03d
000000f0: 64ba dcbd a7e2 86bd 4722 f2bd 281c fdbd
00000100: ad39 a8bd b74e 8f3c 1532 b8bd 4309 69bd
00000110: a840 9e3d 53b4 86bb b4b9 23bb f232 ddbd
00000120: 31de bebd 229b 213a 5362 f53c f9b5 d6bd
00000130: 5252 a33c f048 bc3d f5c8 a63d 04a1 113c
00000140: c3bc 9a3d 881e 223b 8611 1ebd 2aca 4ebd
00000150: 73b3 583d a489 04bd 1ce9 493d f603 a8bd
00000160: f2e4 843d eb22 efbd 4df1 b4bd 8bf0 e63d
00000170: 71bb 2f3d 4ccf 923d cb09 a03b 05b1 bf3d
00000180: f601 553d f5bb 0cbc 3534 cbbd 38ab a33d
00000190: 37ca 923d 9073 df3d 44ca 6fbd c81a 90bd
000001a0: e29b 5abd 536b 663d 7d5a d7bd cd4e d33c
000001b0: 59df a23b f10b b13d a0dd 3dbd b3b8 853d
000001c0: e214 07bd 4db8 64bd ae65 c23c 88a0 f5bd
000001d0: 0ff1 7b39 1c4f e2bd 2df1 d2bd a4bc cbbd
000001e0: ce71 d1bd 0675 533d a93a f03d 59f8 bb3d
000001f0: 10c2 f23c b53f 75bd 1e6f 61bd 666a 863d
00000200: 22d4 9dbd fff7 c4bd 8817 933a 6950 393d
00000210: da7c 8ebd 05aa 053d c767 23bd 3594 03be
00000220: c940 1c3d dce0 7c3d 1877 643d aa4e d1bd
00000230: ff46 7ebd 403c 01be 0305 b33d 873c 2c3d
00000240: 3624 27bd 0800 db3a a841 bcbd 99a8 ea3c
00000250: 60d6 b9bd c1f2 4a3d e600 70bd e657 70bd
00000260: 087e cbbd 25be 543d a8d8 abbd 636c 0cbd
00000270: f9a7 243d 3305 9ebc af2a 02be 8188 9cbb
00000280: f38e be3d 14a4 a4bd 3514 f8bc ff5d 0cbd
00000290: 19b2 a9bc bd4b b43d abe1 8abd b87e b4bd
000002a0: 22bf b6bd 46e7 433d cf19 5e3c 5c84 473d
000002b0: 9a32 83bd 7e43 383d 64e2 45bd 11b7 c83d
000002c0: f58c 97bd cc21 373d 63d8 0fbc 0970 03bd
000002d0: 2890 3fbd b4b6 c73d 1912 e3bd 4577 e03d
000002e0: 6cd8 fc3d 374a ecbd e8f7 f63d 3637 6e3d
000002f0: c4de bbbb 84fa 2a3c 1004 db3d 9f55 8a3d
00000300: 9292 46bd 0a5c cbbd 860f d5bb 2e19 f2bd
00000310: 650c ca3d a8e5 84bc 205b 963d 17a0 bb3c
00000320: 45ea 4dbd 236e 8fbd 6fdc a6bd 71c2 94bd
00000330: 4f91 833d cbb9 dcbb 5ef6 ecbd 0d18 7fbd
00000340: 8cb8 2cbd 909a d6bd 74a5 53bd 0d9f c13d
00000350: 386b a6bd 6dd4 4f3d c440 c6bd 5a39 d1bd
00000360: d1c6 edbc 4e42 b9bd d26e febc e227 3b3d
00000370: 6b1b c3bc 082c cabd a9e0 053d 12d7 45bd
00000380: 3b77 b03d 1650 79b8 0fc3 bb3d bf72 e9bd
00000390: b2b5 cfbd e9f8 eebd 8cfb a3bd 6f5b 943d
000003a0: 25a2 5a3d c00a 263d 6939 8cbc b2c6 1cbd
000003b0: 1518 50bd 3c5c d1bc f7d4 a63d 5299 35bd
000003c0: 788c a2bc 51df e6bd 0635 073d 9a0a 63bb
000003d0: 2e55 c23d 1bd7 a7bd 6ae6 c8bd c420 c0bc
000003e0: 8550 00be 286a e13d 5e47 1b3c 108b 9e3d
000003f0: 66de 30bd d75c 28bd 52c8 f53d b256 9a3d

transformer.layers.0.linear2.weight f4 [64, 256]
-0.02035275 0.017814 0.05692967 -0.0053592287 0.016652547 -0.037317824 -0.019037738 0.038139056
0.015692947 -0.023880513 -0.0019719051 0.011588258 -0.046514 0.06297373 -0.0470047 0.051236715
-0.022552095 -0.016689515 -0.040351547 0.059042167 0.009962248 -0.026161265 -0.045083363 -0.050299447
0.06216351 -0.03563773 -0.040772982 -0.041564334 0.01725834 0.03181183 0.017805444 0.01541639
0.024398902 0.028676009 0.02854644 0.02300576 0.0031080788 0.02868664 -0.039977085 0.00907451
-0.05296111 0.002905543 0.019160636 -0.0069110757 -0.030986654 0.0029525452 0.05946777 -0.01584747
-0.05136367 -0.02936586 -0.030042948 0.062193472 -0.05150414 0.038432162 0.06185724 0.033566087
0.015095048 0.027306937 -0.04434487 -0.016727252 0.058063995 -0.051012117 0.015602265 -0.07084749
0.026223708 0.054792557 0.04944659 -0.040088132 -0.0084370915 0.06871913 -0.045492623 -0.012253678
-0.03652136 -0.06703457 0.052822236 -0.06463553 0.049299728 0.039064575 -0.036451507 0.004802473
-0.014870421 -0.025589842 0.046093624 0.021701341 -0.0011372075 0.021375565 0.05507553 -0.065184504
0.034004048 -0.0255552 0.00029151866 0.0505625 0.057580996 -0.0070894104 -0.01848569 0.050972752
-0.034975495 -0.047726434 -0.030172778 0.017899126 0.059877448 0.012496344 -0.0012844654 -0.045293793
-0.046417337 0.05573914 -0.007435594 0.05657214 -0.00059885817 0.0339453 -0.0051013487 0.011480752
0.026212292 0.03974532 -0.0038460162 0.045265287 -0.037649337 0.049897447 0.03339819 -0.0045810547
-0.049663305 -0.05270341 0.047886122 0.03909609 -0.059190866 -0.026195943 -0.0014385029 0.039645903
-0.053605333 0.008935875 0.052531686 -0.030119507 -0.029476253 -0.05756087 0.03185295 -0.041658927
-0.020417064 -0.029536258 -0.042977273 0.0054483493 -0.019875364 -0.016478479 -0.028281061 0.052746404
-0.035486586 -0.01543675 -0.030720113 0.05564931 0.022675637 -0.04070159 -0.034262814 -0.019023646
-0.0051611383 -0.056290064 -0.05510403 0.011799346 -0.0045648906 0.013150481 0.034409504 -0.022919463
0.05925686 0.039507985 0.04968188 -0.023671791 0.028801722 0.02761376 -0.030725209 0.0075451247
-0.019588241 -0.021688383 -0.047151726 0.0034370213 -0.018422095 0.016780516 -0.028127104 0.019916607
-0.03443547 -0.045563478 -0.017921703 -0.03283884 0.0041841846 0.008655032 0.032508697 0.03062318
0.017186256 -0.018612178 0.06527134 -0.011883503 -0.027423192 -0.070512004 -0.028094525 0.03313454
-0.037932854 -0.032938596 -0.014720104 -0.05722304 -0.0031591437 -0.046817202 -0.061326012 -0.06086411
0.022219881 0.04210742 -0.038661934 -0.059012804 0.037606016 -0.004028736 -0.044580128 0.046416443
0.036299564 -0.0033562824 0.0021626607 -0.023105146 -0.010257843 -0.047819175 -0.015588429 -0.02113645
-0.020692242 0.014374203 -0.006078122 -0.01574743 0.06385854 -0.027215667 0.025351765 0.042652078
-0.057712737 0.003535027 -0.008873158 0.03195529 0.0014851745 0.024489244 -0.024422828 0.0072098575
0.062055375 0.04769215 -0.025451556 -0.03137556 0.043441635 0.047235988 0.015769279 -0.03150804
0.009573298 0.05812579 -0.009077224 0.055220366 0.041740272 0.036336135 -0.017286528 0.045330446
-0.04939331 -0.016550072 -0.04819664 -0.036558058 0.01676348 0.034149628 0.018046772 0.025820203
00000000: cfba a6bc aaee 913c 162f 693d 789c afbb
00000010: ec6a 883c 93da 18bd 08f5 9bbc b337 1c3d
00000020: 7f8e 803c 11a1 c3bc 143b 01bb addc 3d3c
00000030: 7785 3ebd 5ff8 803d 0088 40bd 97dd 513d
00000040: 2cbf b8bc 73b8 88bc aa47 25bd 33d6 713d
00000050: b238 233c 2650 d6bc 55a9 38bd cb06 4ebd
00000060: 2a9f 7e3d def8 11bd 9201 27bd 5d3f 2abd
00000070: 5d61 8d3c 1f4d 023d b9dc 913c 0795 7c3c
00000080: 35e0 c73c f3e9 ea3c 39da e93c 9376 bc3c
00000090: e9b0 4b3b 3f00 eb3c 03bf 23bd 41ad 143c
000000a0: c0ed 58bd ec6a 3e3b c4f6 9c3c 4e76 e2bb
000000b0: b9d7 fdbc 7d7f 413b 7a94 733d 8ed2 81bc
000000c0: b662 52bd ac90 f0bc a11c f6bc 95be 7e3d
000000d0: 01f6 52bd 0b6b 1d3d 045e 7d3d 987c 093d
000000e0: 3851 773c ccb2 df3c f7a2 35bd 9707 89bc
000000f0: 83d4 6d3d 15f2 50bd a4a0 7f3c 7d18 91bd
00000100: 1ad3 d63c 296e 603d 8288 4a3d 7433 24bd
00000110: ba3b 0abc 9dbc 8c3d 7956 3abd a7c3 48bc
00000120: 6c97 15bd 6c49 89bd 215c 583d a25f 84bd
00000130: 83ee 493d 2d02 203d 2d4e 15bd 105e 9d3b
00000140: 11a3 73bc caa1 d1bc abcc 3c3d 03c7 b13c
00000150: 5a0e 95ba cf1b af3c e196 613d 747f 85bd
00000160: d447 0b3d 2459 d1bc f9d6 9839 a01a 4f3d
00000170: 0dda 6b3d 494e e8bb 4d6f 97bc cec8 503d
00000180: 7742 0fbd cb7c 43bd e72c f7bc 30a1 923c
00000190: 0e42 753d 77bd 4c3c 825b a8ba fc85 39bd
000001a0: 1b20 3ebd b94e 643d 49a6 f3bb 30b8 673d
000001b0: b1fc 1cba 3a0a 0b3d 3729 a7bb c419 3c3c
000001c0: 29bb d63c fdcb 223d 720d 7cbb 1868 393d
000001d0: 3136 1abd 4461 4c3d 8acc 083d ac1c 96bb
000001e0: c06b 4bbd 88df 57bd 3d24 443d 3923 203d
000001f0: 1f72 72bd e098 d6bc 268c bcba be63 223d
00000200: 4491 5bbd c767 123c 772b 573d 2fbd f6bc
00000210: 2f78 f1bc f2c4 6bbd 3d78 023d 8da2 2abd
00000220: b041 a7bc 06f6 f1bc f008 30bd 1188 b23b
00000230: a9d1 a2bc e0fd 86bc afad e7bc 9d0c 583d
00000240: 625a 11bd 6cea 7cbc bfa8 fbbc 88f0 633d
00000250: 42c2 b93c b6b6 26bd 2a57 0cbd 7ad7 9bbc
00000260: c41e a9bb 6990 66bd c3b4 61bd 0b52 413c
00000270: 1495 95bb 1d75 573c fbf0 0c3d 99c1 bbbc
00000280: 52b7 723d 20d3 213d 3a7f 4b3d 58eb c1bc
00000290: 97f1 eb3c 4136 e23c 6fb3 fbbc 183d f73b
000002a0: 8577 a0bc d6ab b1bc 2b22 41bd a63f 613b
000002b0: efe9 96bc 4b77 893c d06a e6bc 2728 a33c
000002c0: 350c 0dbd c5a0 3abd 89d0 92bc 0582 06bd
000002d0: 7c1b 893b d6cd 0d3c d727 053d 77dd fa3c
000002e0: 31ca 8c3c 9178 98bc fbac 853d 06b3 42bc
000002f0: 9aa6 e0bc 9968 90bd 7d26 e6bc 15b8 073d
00000300: 7b5f 1bbd 9fea 06bd 972c 71bc b562 6abd
00000310: a309 4fbb 65c3 3fbd fc30 7bbd a54c 79bd
00000320: 7806 b63c d478 2c3d fa5b 1ebd 69b7 71bd
00000330: c408 1a3d 7d03 84bb a799 36bd 2b1f 3e3d
00000340: daae 143d 13f5 5bbb 6dbb 0d3b 0147 bdbc
00000350: 8310 28bc 0ade 43bd 9c66 7fbc 5926 adbc
00000360: c782 a9bc c781 6b3c fc2a c7bb c100 81bc
00000370: 44c8 823d 64f3 debc 81ae cf3c f2b3 2e3d
00000380: 3164 6cbd e9ab 673b b960 11bc 8de3 023d
00000390: 30aa c23a ab9d c83c 6212 c8bc ab40 ec3b
000003a0: c72d 7e3d d858 433d c87f d0bc a983 00bd
000003b0: dbef 313d 867a 413d 932e 813c 930e 01bd
000003c0: 52d9 1c3c 4f15 6e3d a3b8 14bc c02e 623d
000003d0: d9f7 2a3d 33d5 143d 7a9c 8dbc 6bac 393d
000003e0: a450 4abd 0494 87bc d769 45bd e7bd 15bd
000003f0: 9153 893c 7be0 0b3d d3d6 933c e484 d33c
